2020-S/exercise/01_MNIST_classifier/checkpoint/model_epoch8.pth (torch, 269279 bytes, 24 tensors)

conv1.weight f4 [10, 1, 5, 5]
0.072104104 0.15511782 0.0029163852 -0.009944989 0.045488235 0.06417755 -0.18402846 -0.1785648
-0.45537207 -0.23342809 0.12324278 0.1306311 -0.21180093 -0.4996874 -0.30214918 0.18514486
0.1332346 0.53763837 0.31751442 0.23555984 0.07193258 -0.10355356 0.13469873 0.49817705
0.4145605 0.25871947 0.0211228 -0.19387993 0.11067185 0.2439914 -0.109287314 -0.06556012
-0.26701108 -0.16413845 0.46050513 -0.28428766 -0.0781421 -0.21454056 0.09619922 0.4395872
-0.07441746 0.038469408 0.112987995 0.2105557 0.07682354 0.28723314 0.11780799 -0.042318083
-0.014361491 -0.10427689 0.073222935 0.29587325 0.05122463 0.18594067 0.013699607 0.03133153
0.112383075 0.1861259 0.038519602 -0.2417866 0.39918426 0.3375064 0.18069397 -0.32409966
-0.4162314 0.37711075 -0.11764072 -0.068132065 -0.3684618 -0.061385132 0.090380706 -0.26904607
-0.14300716 -0.19903164 -0.11438619 0.24132363 0.21029408 0.18375094 0.16675761 0.31150573
-0.27304187 -0.013360264 0.2063978 0.05680304 -0.040985838 -0.0778229 -0.2359407 -0.28065938
-0.044118654 -0.045478147 -0.1464974 -0.099591844 -0.0826741 -0.2367754 -0.21446532 0.22252068
-0.09792526 -0.19511062 -0.044244993 0.027861137 -0.28654498 -0.12317812 -0.14272583 0.29601967
0.19706024 -0.31700838 -0.03373837 0.0091079995 0.23285684 0.32720378 -0.31315148 -0.011431892
0.16355993 0.43045682 0.046511207 -0.28145695 0.07191586 0.113458 0.2612632 -0.03094617
-0.14456676 -0.07021358 0.27291685 0.17147067 0.023035603 0.026156219 0.42756516 0.38220847
0.15886366 -0.3703132 -0.17877685 0.084474415 0.46632674 0.21661873 -0.10915728 -0.5128928
-0.18743128 0.43189895 0.41402397 -0.060298357 -0.48900607 -0.1874711 -0.12117147 0.35087848
0.037696864 -0.00908094 -0.31373957 -0.02116267 -0.011281095 0.07432114 0.021213992 -0.30537802
-0.15439159 0.08999489 -0.22697732 0.33234802 0.0871875 -0.22030623 -0.2033164 -0.30288932
0.06051478 -0.014763423 0.12576105 0.17459336 0.14451978 -0.17423388 0.12617101 0.16048066
0.15740514 0.3287476 0.23953244 0.14312209 0.06802266 -0.356736 -0.13152398 -0.0677673
-0.08604159 -0.31114653 -0.18475582 -0.3302987 0.00043278816 -0.24950208 0.02810208 -0.21731585
0.047641624 -0.09945668 -0.22630936 -0.14097665 -0.09568503 0.32187158 -0.038354676 0.0824782
0.12012068 0.12679313 0.25024483 0.0017807635 0.014108296 -0.0094252685 0.18431102 0.3870098
-0.06881391 -0.12705906 0.11209272 0.19665918 -0.29663715 -0.16962886 0.008590515 -0.06828494
0.13381577 -0.16501722 -0.10717901 0.13319375 0.04509409 0.11048088 0.40529114 0.31690338
0.34222654 0.18307008 0.2040277 0.38042364 -0.21898983 -0.103666596 -0.44811136 -0.3614232
-0.25137857 0.043310333 -0.014884352 0.14985633 -0.22740643 -0.0061615193 -0.04266575 0.17027436
0.20405102 -0.40801528 -0.4088755 0.06463108 0.4582605 0.11636209 -0.2159444 -0.08120035
-0.15115525 0.22815798 0.42655167 0.14752 -0.17169288 -0.20987266 0.101831734 -0.056184832
0.11604759 -0.15556411
00000000: 51ab 933d 35d7 1e3e d320 3f3b 4ff0 22bc
00000010: df51 3a3d 856f 833d f571 3cbe b1d9 36be
00000020: 8726 e9be c607 6fbe b666 fc3d 29c4 053e
00000030: 58e2 58be 07d7 ffbe 4cb3 9abe 9d96 3d3e
00000040: a76e 083e aba2 093f 4091 a23e 9936 713e
00000050: 6351 933d e413 d4bd 77ee 093e 1011 ff3e
00000060: 4641 d43e e176 843e b909 ad3c 7688 46be
00000070: eca7 e23d e2d8 793e 07d2 dfbd 6244 86bd
00000080: adb5 88be e913 28be 54c7 eb3e 278e 91be
00000090: f708 a0bd 85b0 5bbe 1904 c53d 9311 e13e
000000a0: 2e68 98bd 1992 1d3d 4066 e73d ea9b 573e
000000b0: a955 9d3d 3910 933e 5145 f13d ba55 2dbd
000000c0: 764c 6bbc 1f8f d5bd e8f5 953d b37c 973e
000000d0: ebd0 513d 3b67 3e3e 5174 603c 7e55 003d
000000e0: 1929 e63d ca97 3e3e bbc6 1d3d e896 77be
000000f0: e161 cc3e a4cd ac3e d707 393e 64f0 a5be
00000100: 481c d5be a914 c13e 9eed f0bd d388 8bbd
00000110: 06a7 bcbe fa6e 7bbd 8519 b93d 68c0 89be
00000120: 7870 12be f3ce 4bbe 4f43 eabd 8b1d 773e
00000130: 5557 573e 3529 3c3e 82c2 2a3e ae7d 9f3e
00000140: 25cc 8bbe 02e5 5abc f259 533e 4eaa 683d
00000150: c4e0 27bd 9d61 9fbd 709a 71be 96b2 8fbe
00000160: c3b5 34bd 4b47 3abd 6a03 16be cff6 cbbd
00000170: 0a51 a9bd 4075 72be cc9c 5bbe 76dc 633e
00000180: 0a8d c8bd 14cb 47be 3d3a 35bd 0a3d e43c
00000190: 06b6 92be cf44 fcbd b826 12be e48f 973e
000001a0: 29ca 493e ec4e a2be 3f31 0abd b839 153c
000001b0: 0672 6e3e 4187 a73e 6455 a0be d54c 3bbc
000001c0: 417c 273e d664 dc3e 8982 3e3d 201b 90be
000001d0: 9f48 933d ab5c e83d 4ac4 853e d382 fdbc
000001e0: 4f09 14be 23cc 8fbd c2bb 8b3e 0296 2f3e
000001f0: 29b5 bc3c 9145 d63c d2e9 da3e d4b0 c33e
00000200: 28ad 223e b199 bdbe 4711 37be ec00 ad3d
00000210: 61c2 ee3e 4dd1 5d3e da8d dfbd f14c 03bf
00000220: fced 3fbe dc21 dd3e f3fa d33e 69fb 76bd
00000230: 015f fabe 6df8 3fbe bf28 f8bd 58a6 b33e
00000240: 0768 1a3d 39c8 14bc 79a2 a0be 565d adbc
00000250: 58d4 38bc af35 983d f7c8 ad3c 825a 9cbe
00000260: d418 1ebe 3e4f b83d be6c 68be 8529 aa3e
00000270: 5c8f b23d f597 61be 2d32 50be 4f14 9bbe
00000280: 59de 773d 49e2 71bc 81c7 003e 9ac8 323e
00000290: fefc 133e 5e6a 32be f932 013e 0b55 243e
000002a0: d02e 213e 9b51 a83e fe47 753e 998e 123e
000002b0: 774f 8b3d 1aa6 b6be 39ae 06be 95c9 8abd
000002c0: 9336 b0bd 994e 9fbe a130 3dbe e91c a9be
000002d0: d8e7 e239 797d 7fbe 5536 e63c 0c88 5ebe
000002e0: dd23 433d f2af cbbd a4bd 67be 2f5c 10be
000002f0: 83f6 c3bd 5acc a43e cb19 1dbd 55ea a83d
00000300: d501 f63d 0fd6 013e 1720 803e 8268 e93a
00000310: 7b26 673c 716c 1abc 07bc 3c3e 2626 c63e
00000320: 4fee 8cbd c51b 02be de90 e53d 0661 493e
00000330: d3e0 97be 30b3 2dbe 3bbf 0c3c fad8 8bbd
00000340: 0007 093e 46fa 28be ab80 dbbd f163 083e
00000350: 95b4 383d cd43 e23d 5282 cf3e 2941 a23e
00000360: 5138 af3e b976 3b3e a3ec 503e e3c6 c23e
00000370: df3e 60be 274f d4bd da6e e5be 760c b9be
00000380: b1b4 80be 2d66 313d 7fdd 73bc f073 193e
00000390: 3bdd 68be 92e6 c9bb 48c2 2ebd 675c 2e3e
000003a0: c0f2 503e 61e7 d0be 2158 d1be 4d5d 843d
000003b0: 1fa1 ea3e 3f4f ee3d 8720 5dbe 5e4c a6bd
000003c0: 71c8 1abe 3fa2 693e fb64 da3e 7c0f 173e
000003d0: 42d0 2fbe dce8 56be 288d d03d 1122 66bd
000003e0: 5caa ed3d 334c 1fbe

conv1.bias f4 [10]
0.027206065 0.018865183 -0.09993086 -0.13099793 -0.05755129 -0.17959797 0.08946781 -0.40575364
0.054766756 -0.14836016
00000000: 41df de3c 288b 9a3c 8da8 ccbd 5224 06be
00000010: e7ba 6bbd 88e8 37be e63a b73d f1be cfbe
00000020: 1b53 603d baeb 17be

conv2.weight f4 [20, 10, 5, 5]
-0.00698244 0.057326023 0.055000063 -0.04096242 -0.28741625 0.0390934 0.06684229 0.017699407
-0.16216695 -0.15830547 0.12659593 0.039887175 -0.07977643 -0.115191914 -0.19838734 0.01512371
0.031704724 -0.21197882 -0.14342299 -0.11058032 0.14031407 3.9998093e-05 -0.18465246 -0.07589636
-0.048599634 -0.052479185 -0.031678323 -0.09894028 -0.03957803 0.041590575 0.023427635 0.0036548288
-0.0016509718 0.03159726 -0.010675652 0.12988335 0.004933297 0.08003942 -0.042313848 -0.096093
0.031775907 0.2033854 0.15116791 0.037502117 -0.09297786 0.13784814 0.10947354 0.113765866
0.20893288 -0.09150122 -0.21212646 -0.14962457 -0.03757822 0.015566812 -0.023057533 -0.009312251
-0.0024916432 -0.015880533 -0.009048347 -0.063282914 0.055009637 -0.09205849 -0.16242047 -0.11448721
-0.023607817 0.0060618166 -0.2189328 -0.0024968062 0.042140447 0.054833096 -0.09112087 0.101320565
0.30574504 0.07880795 0.07978465 -0.037772007 -0.13875513 -0.012347577 0.17043126 0.20605324
-0.036455456 0.0044069993 0.019717617 0.12893751 0.091858804 0.063012615 -0.15808675 -0.23086701
-0.10695115 -0.05885753 -0.12795 -0.08631582 -0.1967462 -0.2445006 -0.07218347 -0.11774171
-0.07174616 -0.17755704 -0.122673035 -0.11249372 -0.05580469 -0.08637715 -0.056090392 -0.024058161
0.018531805 -0.042324174 -0.10490783 -0.11012869 0.06141457 0.069469705 0.09417906 -0.048530094
-0.028624685 0.018098885 0.10923657 0.11899935 0.0852492 0.047367986 0.04572515 0.085176624
-0.124213874 0.087422684 0.097860135 0.227803 0.06362598 -0.083248 -0.1302854 -0.33902436
-0.40418747 -0.40023363 -0.008218857 -0.10933435 0.046334375 0.10066252 -0.13075821 -0.076451235
-0.02225723 0.12399869 0.08893675 0.16386652 -0.10945192 -0.044584516 0.10535537 0.0050859232
-0.06877649 0.15727119 -0.057784166 -0.0024769655 -0.028042028 -0.1833996 -0.025645304 0.06205037
-0.03646864 -0.13611294 -0.19365057 0.029206159 0.08273911 0.009903827 0.11342007 -0.1227411
0.21404928 0.05414003 -0.05419789 -0.014017768 -0.056350328 0.011304604 -0.1054886 0.04361037
0.13080397 0.106433414 0.13190655 0.06386259 -0.08384145 -0.029068679 0.09810558 -0.058427084
0.0564252 0.05121015 0.050247096 0.12477602 0.041511778 -0.07815022 0.019116066 0.092010766
-0.12940112 0.12515838 -0.075447015 0.014987499 -0.048063233 -0.2138068 -0.16416353 -0.10723544
-0.048900157 -0.1920238 -0.34681982 -0.09393871 0.064779796 0.13713032 -0.0001974121 -0.19000694
-0.057574946 -0.05633111 -0.030653741 -0.11877072 -0.23103006 -0.04546396 0.0070404075 0.015332661
-0.08327287 -0.2485053 0.023564488 0.10808081 -0.09259595 -0.07747381 -0.1808586 0.10074815
-0.030872956 0.0036133095 -0.031443305 -0.07555003 0.16507246 0.034997087 0.14427164 -0.011355272
-0.060584255 -0.041188538 -0.025369238 -0.110615276 -0.041397277 -0.3337399 0.02905082 0.009583978
0.120108046 0.16244957 -0.06030178 -0.0065447073 0.05836009 0.16782494 0.1516268 -0.021817598
0.19047925 -0.06736048 0.080042705 0.077810206 0.058888484 0.057613943 -0.07533384 0.023686279
-0.028197492 0.03336469 0.122234255 -0.06337083 -0.0726946 0.037648134 0.10095633 0.2500699
00000000: f4cc e4bb b1ce 6a3d bf47 613d 36c8 27bd
00000010: 3928 93be 6720 203d 9ce4 883d 59fe 903c
00000020: 180f 26be d41a 22be 5da2 013e bc60 233d
00000030: d361 a3bd bde9 ebbd 0d26 4bbe 70c9 773c
00000040: d0dc 013d fa10 59be 7add 12be ef77 e2bd
00000050: 7eae 0f3e a0c3 2738 8915 3dbe 8d6f 9bbd
00000060: 6910 47bd 6af4 56bd 21c1 01bd 34a1 cabd
00000070: 931c 22bd e15a 2a3d 50eb bf3c da85 6f3b
00000080: 6c65 d8ba 216c 013d eee8 2ebc 2400 053e
00000090: 7fa7 a13b b5eb a33d 4951 2dbd 68cc c4bd
000000a0: 7427 023d 4344 503e c3cb 1a3e d29b 193d
000000b0: 2d6b bebd 1028 0d3e aa33 e03d 14fe e83d
000000c0: 80f2 553e fe64 bbbd ae37 59be 2f37 19be
000000d0: 9feb 19bd f10b 7f3c 27e3 bcbc 6992 18bc
000000e0: d64a 23bb e417 82bc 853f 14bc 799a 81bd
000000f0: c951 613d 2989 bcbd 8d51 26be 4578 eabd
00000100: 2e65 c1bc 34a2 c63b ec2f 60be 75a1 23bb
00000110: 769b 2c3d ab98 603d 949d babd 2881 cf3d
00000120: 9d8a 9c3e 1066 a13d 2266 a33d d2b6 1abd
00000130: d315 0ebe 7e4d 4abc 8885 2e3e 9fff 523e
00000140: 5152 15bd 9768 903b d786 a13c 3208 043e
00000150: 7820 bc3d c20c 813d 7ee1 21be 6768 6cbe
00000160: 3409 dbbd 9814 71bd 5305 03be 59c6 b0bd
00000170: d677 49be 5e5e 7abe edd4 93bd 9122 f1bd
00000180: a7ef 92bd 83d1 35be 003c fbbd 1c63 e6bd
00000190: 7593 64bd 81e6 b0bd 0abf 65bd 9f15 c5bc
000001a0: 03d0 973c 1d5c 2dbd ebd9 d6bd 278b e1bd
000001b0: d88d 7b3d 2246 8e3d f3e0 c03d 7ec7 46bd
000001c0: 517e eabc 1d44 943c 6cb7 df3d eeb5 f33d
000001d0: 2297 ae3d ef04 423d 4b4a 3b3d 1571 ae3d
000001e0: d863 febd aa0a b33d e56a c83d 3145 693e
000001f0: 564e 823d ed7d aabd 8969 05be 9a94 adbe
00000200: a9f1 cebe 6ceb ccbe 63a8 06bc b0ea dfbd
00000210: 1dc9 3d3d 2728 ce3d 7be5 05be 7792 9cbd
00000220: cb54 b6bc 06f3 fd3d 7924 b63d a0cc 273e
00000230: 5428 e0bd 419e 36bd 8ec4 d73d d1a7 a63b
00000240: b0da 8cbd b30b 213e 17af 6cbd 9654 22bb
00000250: 65b8 e5bc 1bcd 3bbe 1a16 d2bc 8728 7e3d
00000260: 2460 15bd 3161 0bbe 564c 46be c141 ef3c
00000270: 1f73 a93d a943 223c c848 e83d b05f fbbd
00000280: bc2f 5b3e f0c1 5d3d 9bfe 5dbd c8aa 65bc
00000290: 9acf 66bd f236 393c 680a d8bd caa0 323d
000002a0: 7af1 053e c3f9 d93d 8312 073e 64ca 823d
000002b0: 11b5 abbd 7021 eebc 94eb c83d 3d51 6fbd
000002c0: 1c1e 673d bcc1 513d e6cf 4d3d 928a ff3d
000002d0: 4108 2a3d 390d a0bd 4c99 9c3c 2470 bc3d
000002e0: ba81 04be 8529 003e f783 9abd 218e 753c
000002f0: f4dd 44bd 2bf0 5abe 7c1a 28be 419e dbbd
00000300: 884b 48bd e3a1 44be 5e92 b1be f062 c0bd
00000310: 45ab 843d e46b 0c3e 6800 4fb9 2e91 42be
00000320: b5d3 6bbd 73bb 66bd 8e1d fbbc 103e f3bd
00000330: 2593 6cbe 6b38 3abd 38b3 e63b d735 7b3c
00000340: f78a aabd 2c78 7ebe 500a c13c 7959 dd3d
00000350: f2a2 bdbd 97aa 9ebd ff32 39be 0c55 ce3d
00000360: 48e9 fcbc 46cd 6c3b b2ca 00bd f9b9 9abd
00000370: c108 293e 1b59 0f3d f2bb 133e 760b 3abc
00000380: 3227 78bd 50b5 28bd 26d3 cfbc 438a e2bd
00000390: 3190 29bd f5df aabe fcfb ed3c 1e06 1d3c
000003a0: 35fb f53d 2e59 263e 00ff 76bd fc74 d6bb
000003b0: fd0a 6f3d 4dda 2b3e 0e44 1b3e d2ba b2bc
000003c0: fe0c 433e 4bf4 89bd 6eed a33d f55a 9f3d
000003d0: 0d35 713d 99fc 6b3d a148 9abd ba09 c23c
000003e0: 6dfe e6bc 6aa9 083d f455 fa3d 91c8 81bd
000003f0: e8e0 94bd ee34 1a3d 31c2 ce3d 2909 803e

conv2.bias f4 [20]
0.14633527 -0.042452116 -0.020274969 -0.074289344 -0.10278057 -0.17153643 0.23145874 -0.041811563
0.057585027 -0.08579514 -0.08205851 0.003097485 0.07200218 0.08117463 -0.019352032 -0.015706392
0.008347517 0.002956167 0.017090967 -0.035053596
00000000: ead8 153e 45e2 2dbd b117 a6bc 0325 98bd
00000010: 9f7e d2bd 3fa7 2fbe 8503 6d3e 9a42 2bbd
00000020: 47de 6b3d 5db5 afbd 4b0e a8bd 2dff 4a3b
00000030: e175 933d e23e a63d 2788 9ebc b1aa 80bc
00000040: 06c4 083c 41bc 413b 5b02 8c3c 5c94 0fbd

fc1.weight f4 [50, 320]
0.14561065 0.057951413 -0.00010986643 -0.07641647 0.05362402 -0.08729665 0.021273749 0.15156496
0.11415398 0.11451162 -0.066833824 -0.027985029 0.09599465 -0.009224309 -0.08761815 -0.20635359
0.11301793 0.13677222 0.04281556 0.08157678 0.020199586 0.039305963 0.15599899 0.005449532
-0.22836164 -0.0886495 0.10039433 -0.09939504 -0.05724904 0.046637565 -0.12316278 -0.1741894
-0.014122339 0.026617082 0.11896764 -0.09121461 -0.13222462 -0.11434091 0.038830258 0.06359492
-0.15302633 -0.03673817 -0.057981204 0.07404532 -0.04829531 -0.022965683 0.16586661 0.3237568
0.045989998 0.097197175 0.039514717 -0.25960276 0.06694585 -0.028479513 -0.029770782 -0.43892345
0.038868554 -0.21512625 -0.13731797 0.06905096 -0.06699131 0.06290661 0.01600809 0.12015988
0.14752845 -0.009117476 0.033191867 0.030097911 0.07567004 0.06751829 -0.015131515 0.051908806
-0.08019132 -0.14229357 0.015513108 -0.09965949 -0.25406316 -0.06556389 -0.0131457895 -0.022287615
-0.027197517 -0.03430429 0.08367284 0.072208084 -0.060555346 0.020901015 0.06250735 0.12393729
0.07886191 0.03475027 0.20115162 0.17549925 -0.0363646 -0.06555027 0.0042979694 0.025830088
0.062269036 0.13990997 0.04643742 0.03556868 -0.0005981438 0.0585457 0.028762694 -0.02889942
0.18501072 0.08618356 -0.0018348582 0.04806519 0.09308149 -0.0688359 -0.112532295 -0.17879471
0.049561653 0.013798225 0.035217326 0.21730664 0.042222228 0.08571286 0.105440184 -0.016176103
-0.08148254 -0.10297123 -0.0769709 -0.08022361 -0.004783555 -0.11672871 0.025043938 0.16343488
0.16038145 0.21731079 0.16325352 -0.11927117 0.03308392 0.06624579 -0.04001229 -0.11713575
0.0039056616 -0.07016823 0.07253929 0.041747738 0.07773109 0.083848536 0.066566445 -0.08504254
-0.010359299 0.025832292 0.018943604 0.013736122 0.0039573098 -0.013878812 -0.009737731 0.050762963
-0.1786969 0.08121377 -0.074944116 -0.016973892 -0.119512096 -0.031398546 -0.07405827 0.032652408
0.021533355 0.042226534 0.020134056 -0.055917766 0.01884806 0.0057154163 -0.22106448 -0.16814786
0.084733345 0.06712633 -0.11265336 0.09334726 -0.054408986 -0.03123538 0.0010723306 0.06403739
0.0923915 0.03203565 0.05056719 -0.030968254 -0.121419646 -0.17596126 -0.09210261 0.070287056
-0.10322479 -0.14462294 0.034419056 0.08218659 -0.013466723 -0.017754868 0.088760905 0.13597183
0.044226974 -0.056644943 -0.054272693 -0.013785616 -0.03849959 -0.00071364315 0.08258712 0.07103028
0.063977495 0.104655065 0.0018720512 -0.12667646 0.09106213 0.120194525 -0.1103414 -0.1929628
0.044832088 0.04811032 -0.07466446 0.12086437 -0.052011542 0.022194427 -0.109483 0.025289204
0.018219357 0.060275696 0.1649838 0.04611124 0.00087896147 0.079241015 0.033044882 -0.17054173
-0.061296277 0.016982093 -0.035358075 0.01673428 -0.016743988 -0.06598576 -0.034480605 0.017440505
-0.03075103 0.037759382 -0.01690959 -0.0676766 0.07767311 0.07291009 -0.024287844 -0.07112819
0.15131412 0.048620485 -0.0034057326 -0.15792406 -0.017253116 0.021805279 0.0017266764 0.018772222
0.037967175 0.0023316615 0.004030128 0.033066925 0.06619022 0.050920464 -0.16666324 -0.118803136
00000000: f51a 153e 765e 6d3d 1768 e6b8 3d80 9cbd
00000010: dca4 5b3d 96c8 b2bd 4946 ae3c d833 1b3e
00000020: 90c9 e93d 1185 ea3d 2ce0 88bd dc40 e5bc
00000030: d898 c43d 8e21 17bc 2571 b3bd 5b4e 53be
00000040: f275 e73d 040e 0c3e 5e5f 2f3d ba11 a73d
00000050: 9a79 a53c 4aff 203d 33be 1f3e fd91 b23b
00000060: a2d7 69be de8d b5bd 8b9b cd3d a08f cbbd
00000070: f87d 6abd 0807 3f3d c53c fcbd b55e 32be
00000080: 6261 67bc 110c da3c 4ea5 f33d bace babd
00000090: e465 07be 912b eabd 7a0c 1f3d 0e3e 823d
000000a0: efb2 1cbe c37a 16bd b37d 6dbd 13a5 973d
000000b0: 4ed1 45bd 8722 bcbc f0d8 293e 74c3 a53e
000000c0: 0260 3c3d 500f c73d 2fda 213d a7ea 84be
000000d0: e81a 893d de4d e9bc dbe1 f3bc 93ba e0be
000000e0: a234 1f3d 0e4a 5cbe 159d 0cbe 976a 8d3d
000000f0: bd32 89bd 2ed5 803d 6623 833c 6216 f63d
00000100: b311 173e 7761 15bc 32f4 073d e58f f63c
00000110: e5f8 9a3d 0747 8a3d 2dea 77bc 549e 543d
00000120: 593b a4bd 68b5 11be b12a 7e3c 461a ccbd
00000130: 9114 82be 5c46 86bd 7061 57bc 8494 b6bc
00000140: 54cd debc a882 0cbd aa5c ab3d d5e1 933d
00000150: e208 78bd 9b38 ab3c db03 803d d5d2 fd3d
00000160: 5a82 a13d 4d56 0e3d b1fa 4d3e 13b6 333e
00000170: 0cf3 14bd 383f 86bd fbd5 8c3b 9f99 d33c
00000180: d10d 7f3d 8f44 0f3e 2a35 3e3d 77b0 113d
00000190: c0cc 1cba 9ecd 6f3d be9f eb3c 7abe ecbc
000001a0: 7373 3d3e 0281 b03d a07f f0ba 01e0 443d
000001b0: 82a1 be3d d6f9 8cbd 5577 e6bd f615 37be
000001c0: 2901 4b3d f311 623c 0b40 103d a285 5e3e
000001d0: 37f1 2c3d 398a af3d 06f1 d73d bf83 84bc
000001e0: 51e0 a6bd 95e2 d2bd eba2 9dbd 474c a4bd
000001f0: 5ebf 9cbb 760f efbd f228 cd3c 795b 273e
00000200: 093b 243e b886 5e3e ee2b 273e 7144 f4bd
00000210: 0183 073d dfab 873d ede3 23bd dee4 efbd
00000220: 21f6 7f3b 5cb4 8fbd 7b8f 943d adff 2a3d
00000230: 7a31 9f3d c8b8 ab3d fd53 883d c92a aebd
00000240: 0dba 29bc 3e9e d33c 9e2f 9b3c 790d 613c
00000250: 52ac 813b f563 63bc 018b 1fbc d3ec 4f3d
00000260: 52fc 36be 6853 a63d 4d7c 99bd d50c 8bbc
00000270: c2c2 f4bd c39b 00bd ddab 97bd 88be 053d
00000280: b866 b03c bbf5 2c3d 2df0 a43c 070a 65bd
00000290: 3f67 9a3c 6348 bb3b ba5e 62be f42e 2cbe
000002a0: ad88 ad3d 8879 893d ceb6 e6bd d92c bf3d
000002b0: f5db 5ebd 57e1 ffbc 728d 8c3a 0926 833d
000002c0: c137 bd3d d037 033d 8b1f 4f3d 23b1 fdbc
000002d0: ddaa f8bd 302f 34be 4ba0 bcbd a9f2 8f3d
000002e0: 8567 d3bd 0918 14be fffa 0c3d 7151 a83d
000002f0: 88a3 5cbc a872 91bc 47c8 b53d 333c 0b3e
00000300: 5827 353d 8704 68bd 0b4d 5ebd 10dd 61bc
00000310: bfb1 1dbd c813 3bba 7023 a93d 5378 913d
00000320: a206 833d 6555 d63d 9d5f f53a 79b7 01be
00000330: c87e ba3d 8c28 f63d acfa e1bd 0a98 45be
00000340: daa1 373d 540f 453d aee9 98bd bd87 f73d
00000350: 0e0a 55bd 16d1 b53c a038 e0bd 4e2b cf3c
00000360: c340 953c a6e3 763d 83f1 283e 24df 3c3d
00000370: 1b6a 663a 1d49 a23d 125a 073d 7ea2 2ebe
00000380: ce11 7bbd 081e 8b3c a1d3 10bd 5416 893c
00000390: b02a 89bc 8b23 87bd 893b 0dbd 64df 8e3c
000003a0: 96e9 fbbc 95a9 1a3d fb85 8abc 079a 8abd
000003b0: 1413 9f3d e351 953d 4df7 c6bc a8ab 91bd
000003c0: 17f2 1a3e 4626 473d b632 5fbb d8b6 21be
000003d0: 6856 8dbc fca0 b23c a551 e23a 34c8 993c
000003e0: 7883 1b3d cace 183b 2a0f 843b 2f71 073d
000003f0: bd8e 873d fa91 503d c5a9 2abe 0f4f f3bd

fc1.bias f4 [50]
0.27499363 0.07242924 -0.0696756 0.059691098 0.20991755 0.042051632 0.26366132 0.11642133
0.20591135 0.19644585 0.1021317 0.040081587 0.25822553 0.32885298 0.14009151 -0.022413468
0.03981994 0.29748383 -0.10054361 0.036024176 0.22130655 0.16530383 0.2561877 0.10501394
0.23704846 0.18475592 0.16529211 0.20899811 0.34982213 0.37846717 0.2016841 0.072054334
0.098208725 0.09473126 0.059128802 0.07978854 0.22957008 -0.03131272 0.12848657 0.038327575
0.1964373 0.027995788 -0.063521326 0.08355596 0.18996134 0.09170763 0.091917336 0.17368531
0.028419485 0.45315734
00000000: f7cb 8c3e c855 943d 15b2 8ebd a77e 743d
00000010: a0f4 563e 553e 2c3d 9efe 863e 4e6e ee3d
00000020: 6dda 523e 1a29 493e 6d2a d13d 972c 243d
00000030: 2336 843e 6b5f a83e 2674 0f3e 739c b7bc
00000040: 3c1a 233d cd4f 983e cfe9 cdbd 168e 133d
00000050: 2f9e 623e 6845 293e 092b 833e 8c11 d73d
00000060: d5bc 723e a830 3d3e 5642 293e 9a03 563e
00000070: e31b b33e 73c6 c13e 4786 4e3e 3991 933d
00000080: a821 c93d 7602 c23d 0b31 723d 2d68 a33d
00000090: 6b14 6b3e c441 00bd fc91 033e 60fd 1c3d
000000a0: dc26 493e 6c57 e53c 7817 82bd 631f ab3d
000000b0: 3a85 423e 36d1 bb3d 283f bc3d 90da 313e
000000c0: fbcf e83c 3d04 e83e

fc2.weight f4 [10, 50]
0.09843208 -0.03919112 0.08366176 -0.26002857 -0.023184976 0.004585995 -0.30119106 -0.32788032
-0.3285756 -0.28151283 0.15393423 -0.11966205 0.11932855 -0.06864981 0.20585333 -0.23888955
0.17807716 0.16406347 -0.40458027 -0.41453984 -0.2769762 0.07969764 -0.23627229 0.09321732
-0.34435898 -0.3304898 0.10038485 -0.22350118 0.094725385 0.19303195 -0.27062282 0.0688789
0.008942695 -0.19500129 -0.2566943 -0.27985406 -0.48624226 -0.20157754 0.16812646 0.023100438
-0.37426466 -0.20722629 -0.32476798 -0.31067362 -0.27276117 0.15699202 0.09591543 0.16913998
0.039200634 0.14378121 0.10576734 -0.269227 -0.19163097 0.06804463 0.13856918 0.12871838
0.19626783 0.012369381 0.14162692 0.08108244 -0.15378085 -0.21153437 0.09859363 0.18461043
-0.23942485 -0.18397659 -0.23588611 0.087376304 -0.34111214 -0.2618608 0.16487093 0.00478469
0.19814464 -0.3450856 0.06920933 0.11684304 -0.23221079 0.21057728 0.032752253 0.16699275
0.07793588 -0.29472503 -0.16099901 -0.2830057 -0.09618874 0.09698526 0.086521216 -0.24329321
-0.27030787 -0.32911044 0.16123405 -0.38310537 -0.21118142 0.07403347 0.12478436 -0.2388624
-0.1838236 -0.27895704 -0.38972268 0.077911854 0.12221224 0.049218167 0.0921107 -0.18841219
0.15495051 -0.20481749 0.21228333 0.07491203 0.15579765 -0.12223794 0.11371544 0.1260543
-0.16177052 0.007137314 -0.11474233 0.10345382 0.11628997 0.09686553 -0.19192739 -0.17188922
-0.05636776 0.08202534 -0.14222899 -0.25065005 -0.24071135 0.11907974 0.10837554 0.20450257
-0.18172619 -0.15946285 0.112253554 -0.039284058 0.1907627 -0.30973738 -0.103832215 0.11770739
-0.3066514 -0.10000742 -0.21793671 -0.05059725 -0.24179727 -0.039994612 0.12578112 0.13152607
-0.041060854 0.10631226 0.09426667 -0.084115446 -0.32346457 -0.17816551 -0.15991887 -0.26456228
0.11361351 -0.29948798 -0.30726066 0.1929446 0.013014144 0.011877587 0.13103347 0.13568379
0.122713976 -0.09926531 -0.18579575 -0.25761867 -0.04865697 0.079989396 -0.107943684 -0.23264508
0.09966492 0.049495816 -0.20819923 0.044034548 -0.1196008 -0.22199109 0.13962352 0.116062954
0.075254336 -0.1866945 0.09799948 -0.28462285 -0.1551014 0.09303863 0.17343643 -0.14479272
0.021372741 0.17179331 0.088743106 -0.06432595 -0.18135136 0.08791204 -0.04541495 -0.1752704
0.08505899 0.14155361 0.038335353 -0.11690312 0.121086724 -0.3079972 -0.1417014 0.128356
0.0021605114 0.18756442 0.08774866 0.13322888 0.13172531 -0.26917282 -0.12795489 -0.096690126
-0.113167144 -0.012106578 -0.22085306 -0.04979097 -0.124804564 0.18872334 -0.34945357 0.113561146
0.021436263 -0.048829507 -0.16060142 0.055869073 0.15793525 -0.27837697 0.17546168 0.091935866
-0.1711325 -0.007187306 0.082966976 -0.06323939 -0.14653045 -0.12115184 -0.13713177 -0.17401639
-0.010721029 -0.095806815 0.19105339 0.15583955 0.08141067 0.19801359 -0.23073556 -0.10749448
0.15968943 -0.16519833 -0.2081172 0.12103053 -0.071452856 -0.18045428 -0.29452083 0.17302623
0.08429368 -0.2779706 -0.14425485 0.010284773 -0.3349995 -0.180142 -0.23145615 0.18012765
00000000: c296 c93d de86 20bd db56 ab3d 7722 85be
00000010: 6bee bdbc 1d46 963b b735 9abe eedf a7be
00000020: 103b a8be 7322 90be efa0 1d3e 6011 f5bd
00000030: 8762 f43d 4698 8cbd 37cb 523e 769f 74be
00000040: dc59 363e 4100 283e 2525 cfbe 913e d4be
00000050: d3cf 8dbe 8438 a33d 5df1 71be b9e8 be3d
00000060: d24f b0be f635 a9be 9296 cd3d 7edd 64be
00000070: 62ff c13d 2baa 453e 138f 8abe 6110 8d3d
00000080: 6284 123c 6bae 47be 6f6d 83be 0849 8fbe
00000090: bff4 f8be 586a 4ebe 5829 2c3e 213d bd3c
000000a0: 9e9f bfbe 2133 54be fd47 a6be 9d10 9fbe
000000b0: 5aa7 8bbe 84c2 203e 4f6f c43d 0833 2d3e
000000c0: d890 203d 623b 133e 8c9c d83d 1fd8 89be
000000d0: e93a 44be fc5a 8b3d 14e5 0d3e c0ce 033e
000000e0: 6ffa 483e f2a8 4a3c a606 113e 8d0e a63d
000000f0: ba78 1dbe 779c 58be 75eb c93d 840a 3d3e
00000100: ca2b 75be 5c64 3cbe 218c 71be 59f2 b23d
00000110: 40a6 aebe 9e12 86be edd3 283e e4c8 9c3b
00000120: 6ee6 4a3e 0faf b0be 9fbd 8d3d 674b ef3d
00000130: aac8 6dbe 92a1 573e 3a27 063d 2600 2b3e
00000140: d99c 9f3d 33e6 96be eddc 24be 20e6 90be
00000150: 9afe c4bd 35a0 c63d 0932 b13d db21 79be
00000160: cb65 8abe 2a81 a8be 8a1a 253e 6326 c4be
00000170: f13f 58be dc9e 973d f18e ff3d 5898 74be
00000180: 413c 3cbe 75d3 8ebe bb89 c7be 4090 9f3d
00000190: 694a fa3d fd98 493d 89a4 bc3d 20ef 40be
000001a0: 59ab 1e3e adbb 51be cd60 593e 7a6b 993d
000001b0: 6b89 1f3e e357 fabd a4e3 e83d 6114 013e
000001c0: 2ca7 25be 21e0 e93b 07fe eabd 99df d33d
000001d0: 7029 ee3d 6f61 c63d 9d88 44be ba03 30be
000001e0: e1e1 66bd e7fc a73d 7aa4 11be 3455 80be
000001f0: 097d 76be 14e0 f33d fff3 dd3d 1f69 513e
00000200: 6e16 3abe 3b4a 23be 31e5 e53d 52e8 20bd
00000210: 4c57 433e e695 9ebe fca5 d4bd 9210 f13d
00000220: 6a01 9dbe b1d0 ccbd cd2a 5fbe 103f 4fbd
00000230: b499 77be 64d1 23bd c4cc 003e c5ae 063e
00000240: 6d2f 28bd 3eba d93d e20e c13d b844 acbd
00000250: 269d a5be 0571 36be c6c1 23be b574 87be
00000260: 33ae e83d 7d56 99be 4551 9dbe 4593 453e
00000270: 4739 553c 369a 423c a32d 063e b1f0 0a3e
00000280: 7751 fb3d 9c4b cbbd 3e41 3ebe 98e6 83be
00000290: 884c 47bd 7bd1 a33d 9411 ddbd 833a 6ebe
000002a0: 1f1d cc3d 20bc 4a3d 2e32 55be 925d 343d
000002b0: 44f1 f4bd a251 63be 78f9 0e3e 6ab2 ed3d
000002c0: f21e 9a3d d82c 3fbe f4b3 c83d 16ba 91be
000002d0: e7d2 1ebe 0a8b be3d 5299 313e 8b44 14be
000002e0: e315 af3c 96ea 2f3e f2be b53d 53bd 83bd
000002f0: 2cb4 39be 3a0b b43d 0705 3abd 157a 33be
00000300: 6833 ae3d 6ef3 103e 8805 1d3d e76a efbd
00000310: 51fc f73d cfb1 9dbe 2c1a 11be c16f 033e
00000320: 5e97 0d3b e310 403e 92b5 b33d 276d 083e
00000330: 00e3 063e 05d1 89be 9b06 03be 7905 c6bd
00000340: 2dc4 e7bd ab5a 46bc 4e27 62be 9ef1 4bbd
00000350: 8999 ffbd b140 413e 94eb b2be bf92 e83d
00000360: 1a9b af3c 7301 48bd b374 24be f8d6 643d
00000370: c7b9 213e 6d87 8ebe 3aac 333e df48 bc3d
00000380: 5c3d 2fbe 7e83 ebbb 97ea a93d a783 81bd
00000390: 140c 16be 751e f8bd 456c 0cbe 5a31 32be
000003a0: 41a7 2fbc 5d36 c4bd 80a3 433e 6794 1f3e
000003b0: a3ba a63d 13c4 4a3e f145 6cbe 1126 dcbd
000003c0: a085 233e c029 29be ad1c 55be dbde f73d
000003d0: e055 92bd 02c9 38be 6fcb 96be ca2d 313e
000003e0: 2aa2 ac3d 2a52 8ebe 8bb7 13be 7781 283c
000003f0: 0e85 abbe 2577 38be d702 6dbe 6273 383e

fc2.bias f4 [10]
0.43653718 0.5524911 -0.09759982 -0.3338216 -0.0671448 -0.016170442 -0.06670809 -0.14356771
0.2813228 0.0011500715
00000000: cd81 df3e 0f70 0d3f 6ae2 c7bd aaea aabe
00000010: 3783 89bd e077 84bc 409e 88bd 6a03 13be
00000020: 8b09 903e ffbd 963a

exp_avg f4 [10, 1, 5, 5]
-0.013603308 -0.014129842 -0.010429576 -0.005461059 -0.0022963602 -0.015677633 -0.01523442 -0.0155561585
-0.00854424 -0.005931381 -0.00935407 -0.009067218 -0.012496242 -0.0097743785 -0.006874685 -0.0069647245
-0.006326595 -0.006333069 -0.008514826 -0.0042871996 0.0048937546 -0.00083655876 -0.0052998518 -0.0097924145
-0.008802736 -0.0012001119 0.00038987177 0.0017958595 0.0013755963 -0.00054583244 0.0019778674 0.0026511936
0.0046948926 0.0057430402 0.003408914 0.0027535362 0.0043623014 0.0023314625 0.0012835616 0.00024750837
-0.002811947 -0.00092890975 -0.0005832005 -0.0010231344 0.003256038 -0.0012979887 -0.00036682037 0.0020288217
0.00039675977 0.003131007 0.0031146153 -0.0050251307 -0.0058754818 -0.0008603579 0.0013438351 -0.0020848475
-0.00442404 -0.0032482976 0.00060424075 0.0021848248 0.005759332 0.0059589855 0.007880935 0.007128371
0.0050890706 0.015531291 0.014003518 0.011670935 0.010213172 0.0055119283 0.014585995 0.01432649
0.012524152 0.007957802 0.0046649687 0.018742917 0.017083313 0.0142460205 0.013058425 0.013326461
0.019651933 0.017632443 0.011403122 0.007330727 0.0027668646 0.014335386 0.01335308 0.008923973
0.005695424 0.005290663 0.009920656 0.010265782 0.008686053 0.005771438 0.005261696 0.008714991
0.008563247 0.009195485 0.0061151804 0.0038996863 0.0037269285 0.0060688057 0.00931844 0.009717931
0.0029148806 0.0029871268 0.0045483196 0.009120591 0.008545675 -0.000615078 -0.0053560906 -0.0045762095
0.0024804154 0.00632083 0.004262773 -0.012179498 -0.009046704 0.0042922236 0.013211707 0.011929371
-0.008318833 -0.004693343 0.005260856 0.010801471 0.011607247 -0.006906243 -0.0027316988 0.0036466918
0.008243395 0.010043525 0.0014841435 -0.0032266611 0.0018626428 0.0015581058 0.00010532026 -0.0011253378
-0.0059438446 -0.0042131064 -0.0040411456 -0.0032440342 -0.0038188312 -0.004387336 -0.0025211293 -0.0034152467
-0.001938512 -0.006011772 -0.0016714432 0.0038997135 0.0047635627 0.0012095844 -0.004269483 -0.004799887
-0.0036536853 -0.0049190405 -0.0046868557 -0.00238347 -0.006875432 -0.0082151815 -0.0039994977 -0.0012343638
-0.0013826657 -0.007974369 -0.0062793978 -0.0006500652 -0.0010249381 0.0070315553 0.00071547105 -0.0025695509
-0.0024264965 -0.004372665 0.009601996 -0.00038056241 -0.0055326317 -0.008319193 -0.008593425 -0.0045127976
-0.0025977541 0.0012152886 0.002366741 -0.00038155628 -0.0051576733 -0.0013884568 -0.00051480945 -0.0021080063
-0.0035774498 -0.007960953 -0.008314447 -0.0064999596 -0.0048457463 -0.0031925694 -0.004966513 -0.006762972
-0.0037585015 -0.0010234725 -0.0037459193 -0.00014578951 -0.0029472024 -0.0025635022 -0.0014888284 -0.0048470986
-0.008914432 -0.009775138 -0.009512103 -0.016131511 -0.014446318 -0.0045420635 -0.005785625 -0.008199381
-0.010601322 -0.004534462 0.0013385718 0.0034982776 0.004090514 0.0052861744 0.0039920807 0.017127212
0.0121310605 0.006769588 -0.0018948879 -0.006534053 0.010652774 0.0017207534 -0.004514918 -0.007943536
-0.009438449 -0.0077962303 -0.005746436 -0.0063360883 -0.0063935784 0.00026221867 -0.0067860577 -0.0046342127
-0.004982714 -0.0029694191 0.0016615669 -0.0051596677 -0.0019288101 -0.0024486962 0.0025982005 0.004647183
0.005578356 0.0049760886 0.0015126079 0.0011093749 0.00017015729 0.005654375 -0.00079648884 -0.0041513443
-0.008107771 -0.005495867
00000000: 69e0 5ebc da80 67bc d0e0 2abc aff2 b2bb
00000010: 887e 16bb 616e 80bc ca99 79bc 42df 7ebc
00000020: 24fd 0bbc 085c c2bb d041 19bc ab8e 14bc
00000030: 0abd 4cbc b724 20bc 0a45 e1bb 5838 e4bb
00000040: 534f cfbb a285 cfbb c581 0bbc a37b 8cbb
00000050: ca5b a03b 824c 5bba 61aa adbb 5d70 20bc
00000060: 5a39 10bc 134d 9dba b467 cc39 0c63 eb3a
00000070: 5a4d b43a 3216 0fba 1c9f 013b a6bf 2d3b
00000080: 9dd7 993b 1d30 bc3b 1668 5f3b ac74 343b
00000090: a3f1 8e3b 73cb 183b 2e3d a83a 03c4 8139
000000a0: a448 38bb 1482 73ba ece1 18ba b21a 86ba
000000b0: 4163 553b 4621 aaba cc51 c0b9 fbf5 043b
000000c0: 3204 d039 9531 4d3b 931e 4c3b daa9 a4bb
000000d0: 1d87 c0bb a489 61ba a023 b03a f0a1 08bb
000000e0: 8af7 90bb 64e1 54bb e965 1e3a 472f 0f3b
000000f0: c7b8 bc3b 9843 c33b 0a1f 013c 1c95 e93b
00000100: 38c2 a63b f576 7e3c 036f 653c 7337 3f3c
00000110: 2655 273c 689d b43b 19fa 6e3c a8b9 6a3c
00000120: 1a32 4d3c 7161 023c 98dc 983b bf8a 993c
00000130: 4ef2 8b3c 2468 693c 01f3 553c 3b57 5a3c
00000140: 17fd a03c ea71 903c 29d4 3a3c 9836 f03b
00000150: 4954 353b f8de 6a3c e0c6 5a3c db35 123c
00000160: aea0 ba3b 4c5d ad3b 3f8a 223c cf31 283c
00000170: f24f 0e3c 551e bd3b 4e6a ac3b 52c9 0e3c
00000180: dc4c 0c3c a9a8 163c da61 c83b e191 7f3b
00000190: 7c3f 743b d5dc c63b 5fac 183c f537 1f3c
000001a0: 9507 3f3b acc3 433b 120a 953b 886e 153c
000001b0: 2903 0c3c 303d 21ba 2582 afbb 07f4 95bb
000001c0: 778e 223b f71e cf3b bbae 8b3b 848c 47bc
000001d0: a038 14bc c8a5 8c3b ea75 583c 6973 433c
000001e0: b74b 08bc 9dca 99bb 4263 ac3b a7f8 303c
000001f0: 532c 3e3c c44d e2bb 4d06 33bb 56fd 6e3b
00000200: 4e0f 073c 998d 243c 9887 c23a 6476 53bb
00000210: ec23 f43a 5b39 cc3a 62df dc38 1280 93ba
00000220: 95c4 c2bb 190e 8abb 966b 84bb dd99 54bb
00000230: 5b45 7abb a4c3 8fbb 8839 25bb 55d2 5fbb
00000240: ab15 feba 66fe c4bb 5414 dbba 5692 7f3b
00000250: a917 9c3b eb8a 9e3a 05e7 8bbb 5f48 9dbb
00000260: ab72 6fbb e72f a1bb 3294 99bb fe33 1cbb
00000270: 4e4b e1bb f898 06bc 380e 83bb 60ca a1ba
00000280: 903a b5ba eea6 02bc 68c3 cdbb 2369 2aba
00000290: 3757 86ba f668 e63b 738e 3b3a e965 28bb
000002a0: db05 1fbb 9348 8fbb b151 1d3c 3986 c7b9
000002b0: 144b b5bb 394d 08bc 70cb 0cbc 17e0 93bb
000002c0: 153f 2abb 524a 9f3a 531b 1b3b 9e0b c8b9
000002d0: b301 a9bb e1fc b5ba 47f4 06ba 7a26 0abb
000002e0: a673 6abb a86e 02bc 5139 08bc 9dfd d4bb
000002f0: 11c9 9ebb 6d3a 51bb 21be a2bb ec9b ddbb
00000300: 3151 76bb 0a26 86ba 197e 75bb 13df 18b9
00000310: da25 41bb 6e00 28bb cb24 c3ba 69d4 9ebb
00000320: d60d 12bc e727 20bc a7d8 1bbc 3b26 84bc
00000330: 40b0 6cbc 97d5 94bb 5795 bdbb b256 06bc
00000340: 2bb1 2dbc d395 94bb 0473 af3a 5c43 653b
00000350: b809 863b a537 ad3b 00d0 823b 5e4e 8c3c
00000360: 5bc1 463c 6cd3 dd3b e35d f8ba 9c1b d6bb
00000370: f988 2e3c e78a e13a e1f1 93bb 9b25 02bc
00000380: b9a3 1abc 8577 ffbb 994c bcbb f69e cfbb
00000390: 3981 d1bb 657a 8939 945d debb 98da 97bb
000003a0: 0946 a3bb 969a 42bb efc8 d93a 6e12 a9bb
000003b0: 21d0 fcba 4e7a 20bb 9246 2a3b 6647 983b
000003c0: a4ca b63b 750e a33b b342 c63a 7268 913a
000003d0: 406c 3239 5648 b93b 76cb 50ba 0008 88bb
000003e0: 75d6 04bc ad16 b4bb

exp_avg_sq f4 [10, 1, 5, 5]
0.0029592803 0.0025261266 0.0019563371 0.0018394117 0.0016019271 0.0026591828 0.002275799 0.001866826
0.001817175 0.0013656592 0.002253994 0.0018741763 0.0014853372 0.0012218665 0.0012318314 0.0019460066
0.0014801364 0.0011967032 0.0012971369 0.001969144 0.0015808899 0.0011552224 0.0012695573 0.002137812
0.0020838429 0.00072101934 0.0006224793 0.0005421032 0.00040797857 0.00040661523 0.00063895655 0.0005790377
0.00046818875 0.00030036955 0.00043115026 0.0005981883 0.00051218347 0.00038927386 0.0003433497 0.00040375293
0.00056501006 0.0004964433 0.0004447081 0.00042724021 0.00038224345 0.00059920724 0.00052030187 0.0004625162
0.00043979 0.00038442842 0.00061424484 0.00060192967 0.00066187984 0.0007284926 0.00075830147 0.0005594167
0.00051433063 0.00060421333 0.00072993414 0.00085529115 0.0005859462 0.00054940314 0.0006220375 0.0008088435
0.0008456295 0.000714866 0.0006602901 0.0007338759 0.0007882187 0.0007990289 0.0008771742 0.00082348275
0.00077179074 0.0007579666 0.0007798352 0.001374282 0.00138971 0.0014186387 0.0014546467 0.0014787292
0.0012518604 0.0012196006 0.0011775249 0.0011835557 0.0012786114 0.0011307709 0.0010651584 0.0009803833
0.0009998876 0.001179704 0.0010232303 0.000999755 0.0009568746 0.0010202951 0.0010828883 0.0010289268
0.0009471724 0.001006714 0.0010020285 0.0010289865 0.0016143111 0.0013540202 0.0009315944 0.00075725256
0.00088368973 0.0015148938 0.0010776952 0.00062570325 0.00085021765 0.00090294314 0.0013734275 0.0007852768
0.00068814086 0.0011486398 0.0008421732 0.001166898 0.00070992217 0.0009279824 0.0011090221 0.00071043643
0.0010005654 0.0008149628 0.0009950845 0.0008483389 0.0007273965 0.00055854843 0.00052440894 0.0004979824
0.0004855328 0.00051015505 0.00055276236 0.00046909045 0.00042027436 0.0004298635 0.000471142 0.00052186
0.00044050018 0.0004247755 0.00046198364 0.00051517045 0.0005395301 0.000527338 0.0005126245 0.00053224823
0.00058029935 0.000582538 0.0006115612 0.0006446369 0.00059901975 0.0005991213 0.0013064842 0.0010019613
0.0007862335 0.0006979161 0.00070367625 0.0011249118 0.00084046135 0.0006829102 0.0006735579 0.00074423774
0.00091109343 0.00076601695 0.0007498337 0.0008423793 0.0009039496 0.00074972084 0.00074084883 0.00091522635
0.0009527597 0.0009508667 0.00070229993 0.0008464872 0.0008205544 0.0007494951 0.0008007293 0.0005222289
0.00048606095 0.0004939628 0.00052979565 0.0005685602 0.00048412246 0.00045503632 0.00046510145 0.00048679844
0.0005143365 0.0005196755 0.00050898484 0.00048063585 0.00046811393 0.00052078714 0.00057985744 0.0006016084
0.00061152957 0.000602574 0.000585575 0.0005206692 0.00053404993 0.00053129403 0.0005061797 0.00047543735
0.001992752 0.0016274161 0.0013958131 0.0013101249 0.0010939462 0.0017668849 0.0011626524 0.0010177576
0.0009484535 0.00093660527 0.001301517 0.0009219135 0.0008566357 0.0008988471 0.0011194745 0.00115293
0.000920252 0.0007989456 0.0007985839 0.0010601503 0.0011919091 0.00085134007 0.00084880367 0.000841205
0.001057114 0.0006985161 0.00079834467 0.0008593902 0.0007256307 0.0006398956 0.00063247664 0.00071337994
0.0007197784 0.00062301435 0.000608636 0.0005641814 0.0006538577 0.0006747813 0.00065031956 0.0007050194
0.0005717382 0.0006653629 0.0007708551 0.0007786436 0.00076584634 0.0006621672 0.00068985246 0.0007263494
0.0007150375 0.0007131123
00000000: 7cf0 413b 5f8d 253b e435 003b 6a18 f13a
00000010: c1f7 d13a af45 2e3b 9225 153b 49b0 f43a
00000020: 462e ee3a ebff b23a bfb7 133b eca6 f53a
00000030: a5af c23a 0927 a03a 6775 a13a 2511 ff3a
00000040: 2301 c23a b2da 9c3a b104 aa3a c10c 013b
00000050: dd35 cf3a d56a 973a 4667 a63a 891a 0c3b
00000060: 1591 083b ca02 3d3a e12d 233a ee1b 0e3a
00000070: f5e5 d539 f92e d539 a67f 273a 90ca 173a
00000080: 3b77 f539 eb7a 9d39 020c e239 bdcf 1c3a
00000090: 0d44 063a 7417 cc39 9e03 b439 cdae d339
000000a0: 2f1d 143a bf23 023a b627 e939 36ff df39
000000b0: d967 c839 1e14 1d3a de64 083a e07d f239
000000c0: 9d93 e639 1c8d c939 4605 213a d1ca 1d3a
000000d0: 0182 2d3a 50f8 3e3a c0c8 463a d2a5 123a
000000e0: 25d4 063a 1264 1e3a 0d59 3f3a 9e35 603a
000000f0: 2f9a 193a d205 103a 3b10 233a 9208 543a
00000100: 3cad 5d3a d865 3b3a 5217 2d3a 9461 403a
00000110: 76a0 4e3a ec75 513a 2af2 653a fede 573a
00000120: 0052 4a3a 47b2 463a db6d 4c3a 4021 b43a
00000130: ee26 b63a 9ef1 b93a d8a9 be3a ebd1 c13a
00000140: 7715 a43a 01db 9f3a 2e57 9a3a 8a21 9b3a
00000150: 1497 a73a 6036 943a c99c 8b3a 3480 803a
00000160: a90e 833a 4ca0 9a3a e91d 863a 360a 833a
00000170: c4d6 7a3a 6cbb 853a b4ef 8d3a 0edd 863a
00000180: aa4b 783a b7f3 833a 7f56 833a 0fdf 863a
00000190: 4b97 d33a 6179 b13a 3e36 743a 5c82 463a
000001a0: 6aa7 673a 678f c63a 7341 8d3a 3c06 243a
000001b0: 24e1 5e3a 7db3 6c3a 9404 b43a 09db 4d3a
000001c0: 5a64 343a f58d 963a 49c5 5c3a 99f2 983a
000001d0: 121a 3a3a d843 733a 9b5c 913a 953c 3a3a
000001e0: 6725 833a 3aa3 553a 7f6d 823a 0f63 5e3a
000001f0: c1ae 3e3a 8d6b 123a 7d78 093a 088b 023a
00000200: 1c8f fe39 edbb 053a 41e7 103a 41f0 f539
00000210: 4558 dc39 4d5f e139 9c03 f739 6fcd 083a
00000220: eff2 e639 67b4 de39 6536 f239 810c 073a
00000230: 416f 0d3a 0e3d 0a3a a661 063a 9386 0b3a
00000240: 3b1f 183a 77b5 183a 2d51 203a dafc 283a
00000250: 8907 1d3a 5a0e 1d3a 563e ab3a 3e54 833a
00000260: 3d1b 4e3a 5bf4 363a ea76 383a c771 933a
00000270: 6852 5c3a 5405 333a b591 303a f318 433a
00000280: 72d6 6e3a 87ce 483a 7d90 443a 1ed3 5c3a
00000290: 08f7 6c3a ea88 443a 8635 423a cdeb 6f3a
000002a0: 9fc2 793a 9643 793a 8d1a 383a cbe6 5d3a
000002b0: 791a 573a c479 443a 09e8 513a 30e6 083a
000002c0: ffd5 fe39 487d 013a fce1 0a3a 6e0b 153a
000002d0: d1d1 fd39 f191 ee39 dcd8 f339 fb38 ff39
000002e0: 8ad4 063a d53a 083a 656d 053a dafd fb39
000002f0: 306d f539 6f85 083a 9301 183a 42b5 1d3a
00000300: 0e4f 203a 0ef6 1d3a 4681 193a 857d 083a
00000310: 7cff 0b3a 8a46 0b3a 25b1 043a 1f44 f939
00000320: d598 023b 064f d53a b7f3 b63a 7fb8 ab3a
00000330: be62 8f3a d296 e73a 2464 983a 4766 853a
00000340: a3a1 783a 8486 753a aa97 aa3a 91ac 713a
00000350: d98f 603a 9ca0 6b3a 55bb 923a e91d 973a
00000360: 113d 713a 5570 513a 0f58 513a bef4 8a3a
00000370: d539 9c3a 772c 5f3a 4082 5e3a 5084 5c3a
00000380: dc8e 8a3a 9f1c 373a 0148 513a b348 613a
00000390: 4138 3e3a abbe 273a cacc 253a 1e02 3b3a
000003a0: 83af 3c3a c951 233a df8c 1f3a 93e5 133a
000003b0: a667 2b3a cee3 303a 357a 2a3a 0dd1 383a
000003c0: b3e0 153a c06b 2e3a 3613 4a3a e31d 4c3a
000003d0: 14c3 483a 4a95 2d3a 37d7 343a 7c68 3e3a
000003e0: 5b71 3b3a 28f0 3a3a

exp_avg f4 [10]
0.0013155775 -0.0027631137 -0.0058849743 -0.0065074223 0.001380899 0.0017299134 0.0035236622 -0.0020270357
0.004454094 0.003975171
00000000: 756f ac3a 5b15 35bb bed6 c0bb 373c d5bb
00000010: 48ff b43a 43be e23a 3eed 663b 04d8 04bb
00000020: a6f3 913b 2742 823b

exp_avg_sq f4 [10]
0.003239707 0.00072229916 0.0008803902 0.0011921474 0.0022645772 0.00059826876 0.001289648 0.0005768156
0.0024841276 0.00057689473
00000000: 4451 543b ad58 3d3a fcc9 663a d441 9c3a
00000010: 4d69 143b 23d5 1c3a 6809 a93a 7135 173a
00000020: bfcc 223b c03a 173a

exp_avg f4 [20, 10, 5, 5]
-0.002443288 -0.0024866953 0.0010788825 0.0057382532 0.006622561 -0.00020335251 -0.0006855964 -0.0009856179
0.007440766 0.008494438 0.0004245196 0.0022235552 0.0044705165 0.0033263038 0.00459577 -0.00026482003
0.00223531 0.003884686 0.0069455463 0.008096673 0.0061410316 0.003985714 0.00077504443 0.0037894049
0.008919902 -0.0013242416 -4.3916683e-05 0.0008989676 0.001320663 0.0057253614 0.0013471588 0.00021461649
0.0033230335 0.005637369 0.008139283 0.0015759033 0.0007612681 0.0039046106 0.008613273 0.0063241157
-0.002249977 0.002741738 0.006134728 0.008472189 0.0027783737 -0.0004576298 0.0028761143 0.007783809
0.0071044853 0.0022413437 0.0007513815 0.0005686618 -0.002288743 -0.0017781939 0.002592549 -0.00028585517
0.0011585262 -0.0016626059 -0.00027001582 0.0050999383 -0.0025332205 -0.00023741143 -0.0013751574 3.2825235e-05
0.0050717583 -0.0007876776 3.706281e-05 -0.0014702237 -0.002676171 0.008879195 -0.0014365998 -0.002009245
-0.00052650936 -0.0007829729 0.013144527 0.002217651 0.001264476 0.00041403764 0.0006076555 0.001146174
7.702662e-05 0.0008469996 0.0012848576 -0.00035368768 -0.0007081076 -0.003692087 -0.00318291 -0.0011112756
0.00020922582 -0.00021548296 0.0016655434 0.0011240531 0.0011376751 -0.00032879773 0.0025018936 0.0019837383
0.0011832345 0.0021229058 0.0023541609 0.0016839268 -0.002858019 -0.0015534662 0.0011160662 0.00239802
0.009477002 0.0010918452 0.001408981 0.004328084 0.008172979 0.013735255 0.0027340017 -0.0016696783
0.0047175433 0.014643776 0.012084174 0.0017693816 -0.0010054419 0.0045510083 0.016005753 0.008570764
-0.0012151451 0.0006303265 0.006455856 0.015816623 0.0046006865 -0.0021447465 -0.001550996 -0.0012484377
0.0007965542 0.002778014 -0.0025214455 -0.0046511437 -0.0030925996 0.0015415956 0.002562669 -0.000990295
-0.0034732334 -0.0025273543 0.0045291493 0.0038576922 0.002446517 0.002409166 0.0037296384 0.0098419795
0.007441765 0.006099817 0.0017358401 0.0050844676 0.015747968 0.01076126 -0.00094868004 0.00041478805
-0.00013516954 0.00042922597 0.0022189962 -0.0014699918 -0.0013923103 0.00081651844 0.0030241434 0.005347967
0.003123943 0.0036505354 0.0015382312 -0.00064636144 0.003558771 0.00039868176 0.0008069481 0.0021238695
0.0018208202 0.0033803093 0.0013037049 0.0016107125 0.0016958264 0.0011545196 0.0035253353 -0.00039467114
0.0014753579 0.005111777 0.008427673 0.009727844 0.003363716 0.0032888805 0.0071542813 0.012936447
0.009704308 0.0026485552 0.0053969934 0.008979394 0.010783031 0.0038669745 -0.0007884606 0.00084325584
0.005006289 0.0056926683 0.0008717514 0.0006548478 9.149985e-05 0.003041882 0.0015713166 0.0011976194
-0.0023831902 -0.0010265838 0.0013430624 0.0012143865 0.001251043 -0.0026911085 -0.0020459571 0.0006363871
0.0028661666 0.004256984 0.0042829504 0.0036784224 0.0029462331 0.0046595507 0.005989768 0.0012448604
0.0014411544 0.0036421854 0.004388566 0.006126539 0.0027452882 0.0008370152 0.005345615 0.008199296
0.005907457 -0.0011620744 -0.000614366 -0.00253876 0.0009914337 0.0011866612 -0.0005876267 -0.00114368
-0.0054959618 0.00059188117 0.004880356 -0.00026188543 0.00042535504 -0.0035655221 -0.0012189649 0.00689241
0.0011630991 -0.0007139232 0.00042076863 0.0010460884 0.011243048 0.0023751152 0.0011329574 0.00089879485
0.001485638 0.012388317 -0.0005155678 -0.00016782651 0.0011118747 0.0014615246 0.0022655968 -0.0006842503
00000000: 921f 20bb d3f7 22bb 4a69 8d3a f507 bc3b
00000010: 1102 d93b 063b 55b9 98b9 33ba d92f 81ba
00000020: abd1 f33b 412c 0b3c 0e92 de39 11b9 113b
00000030: 697d 923b 1efe 593b 1d98 963b 8bd7 8ab9
00000040: 477e 123b 3796 7e3b 7797 e33b e8a7 043c
00000050: b53a c93b 989a 823b 5a2c 4b3a aa57 783b
00000060: c824 123c 2d92 adba 2e33 38b8 b2a8 6b3a
00000070: 191a ad3a d09b bb3b 2693 b03a ad0a 6139
00000080: 40c7 593b aeb9 b83b a15a 053c 8a8e ce3a
00000090: d68f 473a 7fe4 7f3b af1e 0d3c 873a cf3b
000000a0: 5a74 13bb bbae 333b d405 c93b f0ce 0a3c
000000b0: 6015 363b 08ee efb9 317d 3c3b 530f ff3b
000000c0: becc e83b 82e3 123b 5cf8 443a 3f12 153a
000000d0: bcfe 15bb 4912 e9ba c1e7 293b d5de 95b9
000000e0: b0d9 973a cceb d9ba e990 8db9 621d a73b
000000f0: 6304 26bb a5f1 78b9 a03e b4ba d4ad 0938
00000100: fe30 a63b 267c 4eba e473 1b38 85b4 c0ba
00000110: b362 2fbb 0b7a 113c 4a4c bcba 8aad 03bb
00000120: 7205 0aba 6c40 4dba 245c 573c 0356 113b
00000130: c6bc a53a 3113 d939 124b 1f3a 383b 963a
00000140: 5a89 a138 2e09 5e3a ab68 a83a 286f b9b9
00000150: 4ca0 39ba f1f6 71bb 5e98 50bb 39a8 91ba
00000160: a163 5b39 44f3 61b9 5d4e da3a f754 933a
00000170: 0b1e 953a 7c62 acb9 cff6 233b 9b01 023b
00000180: c316 9b3a 7320 0b3b 4448 1a3b 35b7 dc3a
00000190: 9a4d 3bbb ad9d cbba f848 923a 1928 1d3b
000001a0: 6d45 1b3c 3f1c 8f3a 8fad b83a 9ad2 8d3b
000001b0: f5e7 053c d609 613c f02c 333b 1bd9 daba
000001c0: 9f95 9a3b 73ec 6f3c b3fc 453c 98ea e73a
000001d0: 08c9 83ba a020 953b 7f1e 833c 646c 0c3c
000001e0: 8145 9fba 7f3c 253a a58b d33b dd91 813c
000001f0: 5bc1 963b e08e 0cbb ca4a cbba 9ea2 a3ba
00000200: d9cf 503a 570f 363b d63e 25bb 9f68 98bb
00000210: 36ad 4abb 5d0f ca3a 74f2 273b c9cc 81ba
00000220: 309f 63bb f8a1 25bb 4269 943b 56d1 7c3b
00000230: bf55 203b 19e3 1d3b f36c 743b 4140 213c
00000240: 0dda f33b f9e0 c73b 2185 e33a 9b9b a63b
00000250: e201 813c ff4f 303c d7b0 78ba e977 d939
00000260: 4cbc 0db9 bc09 e139 946c 113b bdac c0ba
00000270: 2e7e b6ba a00b 563a b530 463b 003e af3b
00000280: 11bb 4c3b d23d 6f3b 799e c93a 9570 29ba
00000290: 453a 693b 2906 d139 5f89 533a 9e30 0b3b
000002a0: 96a8 ee3a 2e88 5d3b 14e1 aa3a 8b1e d33a
000002b0: 7e46 de3a 4053 973a 5009 673b ddeb ceb9
000002c0: cc60 c13a b280 a73b 3914 0a3c 8961 1f3c
000002d0: ca71 5c3b 428a 573b 766e ea3b 64f3 533c
000002e0: d1fe 1e3c 6293 2d3b 43d9 b03b 4f1e 133c
000002f0: 4fab 303c 116d 7d3b b2b0 4eba f10d 5d3a
00000300: cc0b a43b 9089 ba3b 3f86 643a 18aa 2b3a
00000310: 9ce3 bf38 505a 473b a3f4 cd3a 70f9 9c3a
00000320: 4c2f 1cbb 708e 86ba b209 b03a 0d2c 9f3a
00000330: 0afa a33a 4f5d 30bb 7715 06bb 37d3 263a
00000340: 4cd6 3b3b 2c7e 8b3b fe57 8c3b b011 713b
00000350: 9715 413b 25af 983b d145 c43b 952a a33a
00000360: 1ee5 bc3a bbb1 6e3b f6cd 8f3b 22c1 c83b
00000370: 4bea 333b 246b 5b3a 452a af3b 5756 063c
00000380: 5793 c13b bf50 98ba 680d 21ba 5361 26bb
00000390: fff2 813a be89 9b3a f60a 1aba 88e7 95ba
000003a0: 7817 b4bb 7928 1b3a 65eb 9f3b ab4d 89b9
000003b0: 3002 df39 89ab 69bb adc5 9fba bad9 e13b
000003c0: 2173 983a 9326 3bba 9c9a dc39 e71c 893a
000003d0: c334 383c d2a7 1b3b be7f 943a 1a9d 6b3a
000003e0: bdb9 c23a 5ef8 4a3c 2b27 07ba 96fa 2fb9
000003f0: 53bc 913a a190 bf3a 687a 143b 435f 33ba
