2020-S/exercise/01_MNIST_classifier/checkpoint/model_epoch2.pth (torch, 269279 bytes, 24 tensors)

conv1.weight f4 [10, 1, 5, 5]
0.05031343 0.11755761 -0.11478012 -0.11627172 -0.07799072 0.0060194633 -0.20248069 -0.13128208
-0.36566734 -0.219683 0.14715485 0.20904502 -0.12698475 -0.41644126 -0.26771384 0.18669927
0.12310001 0.4795707 0.2585673 0.2088368 0.11046403 0.057667963 0.20741625 0.49027005
0.4160003 0.0965738 -0.13636206 -0.2618669 0.2358659 0.2590036 -0.18681356 -0.12731843
-0.2530929 -0.069613166 0.40764832 -0.309774 -0.017223809 -0.16639002 0.12620306 0.43603474
-0.04625121 0.088408306 0.19855411 0.32029414 0.21827428 0.16136576 -0.015988976 -0.061346922
0.13262092 -0.048234276 -0.047026753 0.25355297 -0.025705485 0.15524977 -0.009177285 0.14907937
0.040352862 0.15532659 0.1494451 -0.092497684 0.4551294 0.2885997 0.23721693 -0.22626138
-0.3596248 0.3200425 -0.09772093 -0.007718061 -0.40852666 -0.089713685 0.20269023 -0.20992827
-0.16501522 -0.29663795 -0.1539645 0.26186252 0.18425389 0.113717265 0.078656025 0.25889912
-0.1776469 -0.016169699 0.15006867 -0.046536908 -0.10888309 -0.016230112 -0.22867441 -0.2787519
-0.06578653 -0.03149249 -0.21761616 -0.08812185 -0.019113086 -0.21769704 -0.20323065 0.11980829
-0.14349617 -0.18218763 -0.070720285 -0.06942367 -0.2859241 -0.121590815 -0.11233881 0.32871217
0.170536 -0.29246667 -0.008012227 0.05364089 0.19023107 0.26884902 -0.28228354 -0.0075320546
0.1252961 0.44173512 0.034099687 -0.23897108 0.13057142 0.10460689 0.30412748 0.0042683496
-0.13656412 0.045673046 0.3624969 0.18147881 -0.0139784645 -0.0895568 0.37987074 0.38823345
0.30578515 -0.23316869 -0.098650284 0.16215086 0.36009297 0.22606811 -0.01270386 -0.46337214
-0.22053061 0.27645087 0.335798 -0.029845372 -0.45777547 -0.18042897 -0.13638757 0.364112
0.08484326 -0.04523448 -0.29061767 0.10196404 -0.008705834 0.027847512 0.0335179 -0.26094705
-0.1518526 0.06111199 -0.25309166 0.3103151 0.0358695 -0.23073576 -0.21207309 -0.2851756
0.083367005 -0.029300785 0.14650764 0.13002685 0.05608771 -0.08432128 0.17835207 0.17258243
0.16829965 0.2783539 0.1957084 0.18702117 0.13519189 -0.29960537 -0.1790399 -0.19211744
-0.1730628 -0.33991793 -0.19897002 -0.22958668 -0.03993893 -0.30802414 0.0365042 -0.24237664
0.16363087 -0.07799145 -0.23293097 -0.13832544 -0.10689884 0.37306374 0.016594917 0.16038501
0.17858388 0.23698598 0.32567373 0.019119794 0.04059004 -0.038657922 0.23946753 0.42661372
-0.16154689 -0.1290982 0.11922335 0.20066859 -0.2791134 -0.19495973 0.05381124 -0.042898618
0.19946358 -0.17398308 -0.15997338 0.17120177 0.04009603 0.105028726 0.36279497 0.17787923
0.3043459 0.0977442 0.14775544 0.35054845 -0.16224813 0.024973806 -0.37387973 -0.24703088
-0.1523043 0.06599933 0.013723641 0.11434098 -0.19072753 0.008927485 -0.046126477 0.09493113
0.19539775 -0.34943342 -0.40825334 0.20930481 0.42019024 0.044507895 -0.16430548 -0.023082444
-0.07657513 0.17450987 0.39780304 0.23309062 -0.1206814 -0.2766197 0.13367477 -0.11559493
0.04577416 -0.18752179
00000000: 7515 4e3d 0bc2 f03d d711 ebbd de1f eebd
00000010: 99b9 9fbd eb3e c53b 1957 4fbe cf6e 06be
00000020: c038 bbbe 95f4 60be c3af 163e e60f 563e
00000030: 4a08 02be ca37 d5be ca11 89be 182e 3f3e
00000040: dc1b fc3d 4a8a f53e ef62 843e 50d9 553e
00000050: f73a e23d 3e35 6c3d ed64 543e ad04 fb3e
00000060: fefd d43e 7cc8 c53d 7fa2 0bbe 6b13 86be
00000070: d586 713e 1f9c 843e 0e4c 3fbe c35f 02be
00000080: 6595 81be 5991 8ebd 48b7 d03e b39a 9ebe
00000090: f218 8dbc 2562 2abe 603b 013e f23f df3e
000000a0: e971 3dbd 6a0f b53d c551 4b3e 98fd a33e
000000b0: 4b83 5f3e 113d 253e 50fb 82bc e946 7bbd
000000c0: c7cd 073e 4e91 45bd 209f 40bd b2d1 813e
000000d0: 4f94 d2bc ccf9 1e3e 535c 16bc 43a8 183e
000000e0: 0b49 253d ef0d 1f3e 2308 193e 6d6f bdbd
000000f0: b906 e93e 57c3 933e ffe8 723e 10b1 67be
00000100: be20 b8be 9cdc a33e e921 c8bd cae7 fcbb
00000110: 682a d1be cfbb b7bd 078e 4f3e 70f7 56be
00000120: c0f9 28be eee0 97be dfa8 1dbe d812 863e
00000130: 0dad 3c3e 99e4 e83d 6916 a13d 6d8e 843e
00000140: 12e9 35be 5176 84bc 9aab 193e 7c9d 3ebd
00000150: 19fe debd 03f5 84bc a029 6abe 92b8 8ebe
00000160: 17bb 86bd 45fe 00bd c5d6 5ebe 3a79 b4bd
00000170: 0c93 9cbc f9eb 5ebe b21b 50be 0c5e f53d
00000180: a9f0 12be 658f 3abe ccd5 90bd ff2d 8ebd
00000190: a564 92be 9b04 f9bd e411 e6bd f64c a83e
000001a0: fda0 2e3e 31be 95be b745 03bc 8db6 5b3d
000001b0: efcb 423e 94a6 893e 7887 90be 74cf f6bb
000001c0: 9f4d 003e 1b2b e23e 1dac 0b3d d6b4 74be
000001d0: 84b4 053e 233c d63d 99b6 9b3e 83dd 8b3b
000001e0: 77d7 0bbe a913 3b3d 3299 b93e 95d5 393e
000001f0: ee05 65bc 8e69 b7bd 6b7e c23e 89c6 c63e
00000200: df8f 9c3e c6c3 6ebe 2909 cabd e00a 263e
00000210: 1b5e b83e 667e 673e da23 50bc 1d3f edbe
00000220: c7d2 61be f88a 8d3e b7ed ab3e 487e f4bc
00000230: 8c61 eabe 5fc2 38be 2fa9 0bbe e36c ba3e
00000240: 4ec2 ad3d ca47 39bd d7cb 94be 86d2 d03d
00000250: eaa2 0ebc 7720 e43c 114a 093d da9a 85be
00000260: 3f7f 1bbe 9150 7a3d 3b95 81be 9fe1 9e3e
00000270: e6eb 123d ff45 6cbe b029 59be 8902 92be
00000280: 52bc aa3d 3308 f0bc 1906 163e c225 053e
00000290: 3abc 653d a3b0 acbd eda1 363e 73b9 303e
000002a0: be56 2c3e 6784 8e3e c867 483e 7a82 3f3e
000002b0: be6f 0a3e e065 99be 3c56 37be 6fba 44be
000002c0: 6037 31be b909 aebe ccbe 4bbe c518 6bbe
000002d0: 0197 23bd 57b5 9dbe 6e85 153d 9531 78be
000002e0: da8e 273e fbb9 9fbd 7585 6ebe 2fa5 0dbe
000002f0: c7ed dabd 3602 bf3e 10f2 873c f83b 243e
00000300: b1de 363e 74ac 723e b5be a63e 1da1 9c3c
00000310: be41 263d c557 1ebd fa36 753e 1d6d da3e
00000320: 8c6c 25be 5232 04be 5f2b f43d 117c 4d3e
00000330: f4e7 8ebe 86a3 47be 2d69 5c3d 76b6 2fbd
00000340: 2e40 4c3e 9f28 32be 10d0 23be 844f 2f3e
00000350: bc3b 243d 4d19 d73d 43c0 b93e f925 363e
00000360: 3ad3 9b3e 1c2e c83d 344d 173e 167b b33e
00000370: 6024 26be de95 cc3c 2a6d bfbe aaf5 7cbe
00000380: a9f5 1bbe a82a 873d 1fd9 603c 9b2b ea3d
00000390: 144e 43be 9644 123c 1eef 3cbd 416b c23d
000003a0: 5916 483e f0e8 b2be 9506 d1be 0054 563e
000003b0: 2d23 d73e e94d 363d b23f 28be 6517 bdbc
000003c0: 6cd3 9cbd b7b2 323e d7ac cb3e 4faf 6e3e
000003d0: cf27 f7bd 19a1 8dbe 0ae2 083e 09bd ecbd
000003e0: b07d 3b3d b605 40be

conv1.bias f4 [10]
0.079032175 0.22276294 0.07241636 0.05842028 0.040886205 0.09159005 0.1702973 -0.15879157
0.231447 0.12580808
00000000: 9fdb a13d f81b 643e 074f 943d 1b4a 6f3d
00000010: 4b78 273d 9093 bb3d 6a62 2e3e 429a 22be
00000020: 7100 6d3e d5d3 003e

conv2.weight f4 [20, 10, 5, 5]
-0.0016801623 0.07896278 0.038760282 -0.11910614 -0.2443071 -0.029316947 0.026189875 0.04567661
-0.11103046 -0.09654898 0.048261065 -0.05658443 -0.092608385 -0.04831598 -0.097981624 0.014730228
0.05728526 -0.09551432 -0.08642005 -0.114503555 0.10942256 0.036553096 -0.13502489 -0.026928032
0.02933287 -0.07242473 -0.081606396 -0.06165677 -0.010292743 0.04839794 0.05806668 0.025930082
0.02592165 0.033497397 0.03069991 0.07994712 -0.0058628395 0.07611091 -0.02079298 0.0073973173
0.009031251 0.07269875 0.16742074 0.07590574 -0.058983922 0.06514394 0.047057286 0.088330284
0.10851537 -0.16867985 -0.023791421 -0.12706119 -0.030012326 -0.024802817 0.022076247 0.0018613572
-0.067544915 0.029199714 0.008084694 -0.003836585 0.018729635 -0.045792416 -0.04362598 -0.110053346
0.048883833 -0.0330061 -0.031071242 -0.09934184 0.0070085563 0.12863366 -0.06343711 -0.011097493
0.15194048 0.11593903 0.079934604 -0.01348781 -0.06549559 -0.0032198632 0.08457147 0.08425759
-0.013367144 0.013443161 -0.06473096 -0.030677201 0.06515497 0.013761094 -0.103769474 -0.0761613
-0.1389534 -0.04891252 -0.13275258 -0.01881222 -0.14444783 -0.177353 0.008686002 -0.0459196
-0.06913986 -0.15527493 -0.035943396 -0.05153975 -0.064929366 -0.03064651 -0.04495208 -0.0498817
0.008322197 -0.04586234 -0.04984334 -0.05790872 0.033327054 0.023297334 0.08650373 0.016077824
-0.030949524 0.019648226 0.09818952 0.11144188 0.040453922 0.06010118 0.059792582 -0.019524068
-0.032071486 0.097174756 0.05432682 0.14512137 -0.0830863 -0.14717019 -0.07303904 -0.17594685
-0.17362098 -0.19913717 0.03217901 -0.023527417 0.029201329 0.08585727 -0.066720046 -0.04755226
-0.06097613 0.10514653 0.047068343 0.078497455 -0.03402535 -0.08776845 0.064432666 0.06845036
-0.11332133 0.14332594 0.00021464616 -0.042031147 0.01676419 -0.09122737 -0.034444224 0.018786965
0.0044849426 -0.02302945 -0.113200665 0.0045312922 0.08797269 0.0007994227 0.054980032 -0.043514766
0.12193753 -0.0006481691 -0.08137449 0.03183695 0.043717194 0.018519918 -0.10262031 0.0007599097
0.02180969 0.09871971 0.0022075144 0.023600144 -0.030148465 -0.026150286 0.12894231 -0.005100947
0.08392185 0.028498169 -0.0023492665 0.09280015 0.00901964 -0.05587767 0.0031436018 0.046315912
-0.07536919 0.09036523 -0.1029085 0.031893104 -0.050064173 -0.14660811 -0.07750035 -0.021341056
0.026259342 -0.15238489 -0.23291779 -0.038050774 0.11316263 0.10253784 -0.09629807 -0.14737973
-0.01970458 -0.05693435 -0.09316039 -0.11674393 -0.14485137 -0.038369082 0.020150844 0.009242504
-0.023619499 -0.15651396 0.032088842 0.079575166 0.006041239 -0.08505487 -0.08387036 0.06429698
-0.03609258 -0.023246722 -0.0013094682 0.00018087891 0.059860148 -0.013533774 0.116124906 0.07500897
-0.05629394 -0.03318213 0.026926987 -0.05587113 0.0075525274 -0.13893612 0.015151456 0.024024678
0.13639449 0.15134631 -0.054854386 -0.057032157 -0.0584598 0.04943678 0.11239237 0.0134030795
0.104644395 -0.08140111 -0.066243105 0.07925332 0.063819274 0.03914627 -0.025467452 0.016953643
0.035685707 0.09266294 0.05204495 -0.02471143 0.0020433755 0.0064067943 0.037867453 0.19958611
00000000: e438 dcba 3db7 a13d 1ac3 1e3d eced f3bd
00000010: a42b 7abe 182a f0bc 268c d63c 6617 3b3d
00000020: f063 e3bd 79bb c5bd 65ad 453d 13c5 67bd
00000030: 77a9 bdbd fae6 45bd 97aa c8bd 0e57 713c
00000040: f3a3 6a3d 039d c3bd fffc b0bd d780 eabd
00000050: ef18 e03d b3b8 153d f743 0abe 2d98 dcbc
00000060: 7d4b f03c 6b53 94bd 4121 a7bd cf8b 7cbd
00000070: e5a2 28bc eb3c 463d 54d7 6d3d 536b d43c
00000080: a459 d43c 9134 093d 617e fb3c 51bb a33d
00000090: 101d c0bb 09e0 9b3d 0a56 aabc 3265 f23b
000000a0: d0f7 133c 15e3 943d 5870 2b3e 7874 9b3d
000000b0: 2099 71bd 306a 853d 24bf 403d 82e6 b43d
000000c0: 4e3d de3d 69ba 2cbe 3ae6 c2bc 541c 02be
000000d0: 69dc f5bc 472f cbbc 3fd9 b43c c9f8 f33a
000000e0: fd54 8abd 3d34 ef3c aa75 043c 376f 7bbb
000000f0: e46e 993c d490 3bbd 28b1 32bd a663 e1bd
00000100: 6a3a 483d 6831 07bd 1e89 febc bc73 cbbd
00000110: 08a8 e53b 8bb8 033e 51eb 81bd 42d2 35bc
00000120: 4996 1b3e 7171 ed3d c1b4 a33d fafb 5cbc
00000130: 8d22 86bd 5704 53bb cf33 ad3d 3e8f ac3d
00000140: de01 5bbc b440 5c3c aa91 84bd c14e fbbc
00000150: f86f 853d 3676 613c 1785 d4bd 75fa 9bbd
00000160: cd49 0ebe 7f58 48bd 4bf0 07be 161c 9abc
00000170: 22ea 13be 069c 35be bc4f 0e3c 3116 3cbd
00000180: 3399 8dbd 6400 1fbe 6239 13bd 581b 53bd
00000190: b0f9 84bd 640e fbbc ac1f 38bd c150 4cbd
000001a0: d359 083c 26da 3bbd 8828 4cbd b231 6dbd
000001b0: f381 083d 0dda be3c de28 b13d a4b5 833c
000001c0: db89 fdbc 51f5 a03c 9617 c93d a43b e43d
000001d0: 03b3 253d a82c 763d 11e9 743d f0f0 9fbc
000001e0: 645d 03bd 8f03 c73d cd85 5e3d b29a 143e
000001f0: 2629 aabd c8b3 16be 7e95 95bd 692b 34be
00000200: b3c9 31be 9dea 4bbe 23ce 033d 92bc c0bc
00000210: a037 ef3c f0d5 af3d 85a4 88bd 29c6 42bd
00000220: 1bc2 79bd 1057 d73d bcca 403d 46c3 a03d
00000230: 2a5e 0bbd f2bf b3bd 46f5 833d b42f 8c3d
00000240: 0315 e8bd 09c4 123e a412 6139 da28 2cbd
00000250: 0e55 893c 6ad5 babd 6315 0dbd 1fe7 993c
00000260: 6df6 923b 42a8 bcbc c0d5 e7bd 3c7b 943b
00000270: 072b b43d 5990 513a be32 613d 8a3c 32bd
00000280: 62ba f93d e4e9 29ba aba7 a6bd 7667 023d
00000290: cd10 333d 15b7 973c 992a d2bd ad34 473a
000002a0: 3caa b23c 8f2d ca3d f2ab 103b 1755 c13c
000002b0: eaf9 f6bc 2039 d6bc 7409 043e d825 a7bb
000002c0: 38df ab3d fe74 e93c 27f6 19bb 010e be3d
000002d0: 1dc7 133c fcdf 64bd e304 4e3b c1b5 3d3d
000002e0: 295b 9abd 6811 b93d b1c1 d2bd 58a2 023d
000002f0: 1710 4dbd 7020 16be 81b8 9ebd 70d3 aebc
00000300: d51d d73c c90a 1cbe 0082 6ebe 21db 1bbd
00000310: cfc1 e73d 5cff d13d ec37 c5bd b6ea 16be
00000320: 806b a1bc fe33 69bd e0ca bebd 7117 efbd
00000330: eb53 14be e628 1dbd 6213 a53c df6d 173c
00000340: ae7d c1bc 3245 20be 976f 033d 4ef8 a23d
00000350: 96f5 c53b 3f31 aebd 39c4 abbd 23ae 833d
00000360: d0d5 13bd e96f bebc 76a2 abba 50aa 3d39
00000370: ea2f 753d c3bc 5dbc e5d2 ed3d 4e9e 993d
00000380: 7994 66bd fce9 07bd fc95 dc3c 20d9 64bd
00000390: 317b f73b 4545 0ebe d03d 783c 67cf c43c
000003a0: ffaa 0b3e 87fa 1a3e feae 60bd 8d9a 69bd
000003b0: 8b73 6fbd 397e 4a3d f92d e63d 9798 5b3c
000003c0: cd4f d63d a0b5 a6bd 77aa 87bd 914f a23d
000003d0: aeb3 823d d757 203d 1ea1 d0bc 5ee2 8a3c
000003e0: 2d2b 123d 11c6 bd3d 162d 553d a06f cabc
000003f0: 27ea 053b 16f0 d13b e71a 1b3d 4d60 4c3e

conv2.bias f4 [20]
0.04404839 -0.034774486 -0.00719918 -0.055018086 -0.067679174 -0.065088086 0.058769908 -0.05529888
-0.000113363196 0.0069222897 0.014550549 0.034661736 0.010032151 0.032403186 -0.016349792 -0.03565033
0.038925372 0.00013408897 0.033090696 -0.022045465
00000000: 166c 343d b16f 0ebd 19e7 ebbb a55a 61bd
00000010: 619b 8abd e74c 85bd b7b8 703d 1481 62bd
00000020: 67bd edb8 60d4 e23b 6d65 6e3c 77f9 0d3d
00000030: e45d 243c 34b9 043d 00f0 85bc 1506 12bd
00000040: 3670 1f3d 3c9a 0c39 1c8a 073d b198 b4bc

fc1.weight f4 [50, 320]
0.011426804 -0.013079573 -0.020910978 -0.06752701 0.040020004 -0.020127937 0.049776763 0.11686539
0.059482988 0.09029248 -0.025987435 0.02444302 0.06325253 -0.03742608 -0.10039293 -0.16253813
0.009965794 0.10235672 0.0056358688 0.07598147 0.07546534 0.043840203 0.07175109 0.047460195
-0.0851191 -0.049398985 0.008683309 -0.017853491 -0.019247845 -0.03539371 0.0041736653 -0.10783358
0.0037446877 -0.005305508 0.07381952 -0.002953311 -0.061183445 -0.07770668 0.07023753 -0.0017055252
-0.063126266 -0.06320553 -0.047686424 0.008739189 -0.052616414 -0.059890598 0.07979045 0.18903886
0.075876355 0.004598539 0.032635197 -0.06198272 0.028001126 0.03547191 0.017227508 -0.20056571
-0.0056359824 -0.12573747 -0.067380644 0.06902455 -0.12457305 0.0119356 -0.01431384 0.086561725
0.08194113 0.0068548652 0.0721499 0.049335796 0.10908336 0.04362245 0.034546006 0.09243691
-0.029755438 -0.08225693 -0.018297981 -0.000893882 -0.14759457 -0.044752847 -0.020639112 0.015549787
-0.065978914 -0.003402228 0.044387944 0.031137295 -0.000522443 -0.021953637 0.03463445 0.07369987
0.035746135 0.042642675 0.03095895 0.03750068 -0.06538437 -0.03606394 -0.044143625 -0.07065152
0.0036383204 0.045082103 0.06669335 0.05180365 0.042932864 0.031143425 0.056347623 -0.0063921646
0.011307196 -0.016069863 0.014460815 0.02488615 0.040547732 -0.03568306 -0.056845903 -0.1581499
0.021098977 0.05674761 0.05443544 0.18764535 0.0918373 0.03715139 0.049600426 0.0075621405
-0.080881566 -0.05059242 -0.07730006 -0.049085837 -0.043573506 -0.081303135 -0.0055229804 0.06282139
0.04419906 0.11560305 0.048978828 -0.10581492 0.029604578 0.04827822 -0.04852772 -0.029506214
-0.01721176 -0.06432823 0.039406706 0.025023885 0.11513029 0.0062161945 0.023952931 -0.06943388
-0.084778845 -0.005351653 0.01639144 0.017648498 -0.0019064415 0.007004788 0.04403769 0.054723665
-0.14164615 -0.009239495 -0.039809056 0.033851676 -0.0568785 0.019125849 -0.07780287 0.013808258
0.020578852 0.025975494 0.027490063 -0.033847164 -0.020231199 0.02365166 -0.096345045 -0.03844058
0.018342124 0.033255868 -0.014739856 0.08919231 -0.034249198 0.050181888 -0.013528846 -0.01019974
0.039928738 -0.039306175 0.04389421 0.005895004 -0.0403555 -0.15720665 -0.0784089 0.06638382
-0.10729188 -0.05337029 0.024999542 0.027236205 -0.045083858 -0.031525787 0.08925087 0.13635215
0.025793036 0.05537554 0.04791206 0.042704582 -0.0182318 0.037699975 0.031210097 -0.030554106
0.07207002 0.044364315 0.0062519 -0.1298408 0.07046318 -0.0014523057 -0.05566906 -0.06286829
0.008582612 0.02604911 0.0012953515 0.0997195 -0.022564748 0.027216647 -0.054405987 0.034467716
-0.023172585 0.055871986 0.15420006 -0.0054662656 0.016482113 0.03901426 0.022503285 -0.06740208
-0.031068884 -0.045258284 -0.015980981 0.022240374 0.040880173 -0.07919264 -0.00043945495 0.033516284
-0.047299575 0.0008187354 0.032173946 -0.032345276 0.043464795 0.08572207 -0.007712359 -0.05983549
0.043499205 0.047412794 0.05841483 -0.08368819 -0.0058176024 0.013269249 0.012374869 0.083124176
0.032327723 -0.020321717 0.056594335 0.026462456 -0.0015970408 0.053053703 -0.14432213 -0.119244926
00000000: 7d37 3b3c b54b 56bc 804d abbc 9a4b 8abd
00000010: 04ec 233d 58e3 a4bc b8e2 4b3d 1f57 ef3d
00000020: 6fa4 733d 44eb b83d 9ae3 d4bc ba3c c83c
00000030: 8b8a 813d 174c 19bd cf9a cdbd 6570 26be
00000040: 9247 233c 66a0 d13d 18ad b83b 2c9c 9b3d
00000050: 928d 9a3d c991 333d 3cf2 923d 9f65 423d
00000060: ec52 aebd 9756 4abd 7044 0e3c 7c41 92bc
00000070: a8ad 9dbc fff8 10bd 3ec3 883b dad7 dcbd
00000080: 6f69 753b d4d9 adbb b02e 973d 568c 41bb
00000090: 7e9b 7abd ae24 9fbd b2d8 8f3d ee8b dfba
000000a0: 5848 81bd e771 81bd d752 43bd d12e 0f3c
000000b0: 4f84 57bd d84f 75bd 2d69 a33d 6793 413e
000000c0: 1065 9b3d 57af 963b 7cac 053d 98e1 7dbd
000000d0: 9e62 e53c fe4a 113d b420 8d3c 1961 4dbe
000000e0: 0cae b8bb 53c1 00be ddfe 89bd be5c 8d3d
000000f0: 2820 ffbd 898d 433c 9984 6abc 4647 b13d
00000100: c0d0 a73d c79e e03b 54c3 933d 5514 4a3d
00000110: 1967 df3d 74ad 323d 1d80 0d3d 904f bd3d
00000120: adc1 f3bc 5276 a8bd a6e5 95bc 6853 6aba
00000130: 0823 17be c34e 37bd 5b13 a9bc 89c4 7e3c
00000140: f41f 87bd eaf7 5ebb 22d0 353d a413 ff3c
00000150: 8ef4 08ba 1dd8 b3bc dadc 0d3d f5ef 963d
00000160: 8a6a 123d 16aa 2e3d a09d fd3c 509a 193d
00000170: 3ee8 85bd c8b7 13bd f2cf 34bd beb1 90bd
00000180: e370 6e3b 03a8 383d 8696 883d 1030 543d
00000190: 5fda 2f3d 7f20 ff3c c4cc 663d 5d75 d1bb
000001a0: d141 393c f2a4 83bc 0eed 6c3c 0ade cb3c
000001b0: 6115 263d 6628 12bd 40d7 68bd 0cf2 21be
000001c0: c3d7 ac3c 2f70 683d b2f7 5e3d 1a26 403e
000001d0: 3215 bc3d 0e2c 183d d129 4b3d d5cb f73b
000001e0: 3ca5 a5bd ff39 4fbd 7e4f 9ebd 3b0e 49bd
000001f0: 227a 32bd 4282 a6bd 1efa b4bb 80a8 803d
00000200: 130a 353d 4bc1 ec3d 069e 483d 7eb5 d8bd
00000210: 4d85 f23c 62bf 453d 01c5 46bd 04b7 f1bc
00000220: adff 8cbc 85be 83bd ed68 213d e4fe cc3c
00000230: 6ec9 eb3d 38b1 cb3b f038 c43c 5a33 8ebd
00000240: 88a0 adbd eb5c afbb 5747 863c 9593 903c
00000250: 90e1 f9ba 6c88 e53b dd60 343d ec25 603d
00000260: b00b 11be 4061 17bc d20e 23bd 0ea8 0a3d
00000270: 6ef9 68bd d0ad 9c3c 1c57 9fbd 083c 623c
00000280: fb94 a83c 8fca d43c d732 e13c 53a3 0abd
00000290: e6bb a5bc 20c1 c13c 8d50 c5bd df73 1dbd
000002a0: 3942 963c 4e37 083d 707f 71bc 75aa b63d
000002b0: e348 0cbd 868b 4d3d 18a8 5dbc cf1c 27bc
000002c0: 518c 233d 83ff 20bd 6aca 333d e12a c13b
000002d0: cf4b 25bd c8fa 20be d894 a0bd 3df4 873d
000002e0: d8bb dbbd ce9a 5abd d7cb cc3c 761e df3c
000002f0: daa9 38bd 2f21 01bd 29c9 b63d e69f 0b3e
00000300: eb4b d33c 76d1 623d 703f 443d 00eb 2e3d
00000310: db5a 95bc 4a6b 1a3d 51ac ff3c 9b4c fabc
00000320: 7299 933d 5bb7 353d bddc cc3b fdf4 04be
00000330: 004f 903d 4b5b beba 3e05 64bd 17c1 80bd
00000340: 159e 0c3c f164 d53c c9c8 a93a bd39 cc3d
00000350: b5d9 b8bc 72f5 de3c d0d8 5ebd 052e 0d3d
00000360: 6fd4 bdbc 06da 643d 9fe6 1d3e 5c1e b3bb
00000370: 7f05 873c 6bcd 1f3d cf58 b83c 1a0a 8abd
00000380: 2c84 febc c060 39bd 8cea 82bc 7231 b63c
00000390: f871 273d c02f a2bd a566 e6b9 5f48 093d
000003a0: 33bd 41bd 67a0 563a d4c8 033d 7b7c 04bd
000003b0: 2408 323d 0d8f af3d f5b7 fcbb 0f16 75bd
000003c0: 392c 323d eb33 423d 6444 6f3d b764 abbd
000003d0: 96a1 bebb 4467 593c f6bf 4a3c 023d aa3d
000003e0: 136a 043d bb79 a6bc 76cf 673d cbc7 d83c
000003f0: cc53 d1ba d74e 593d 2ec9 13be af36 f4bd

fc1.bias f4 [50]
0.066415004 0.028636381 0.0055951118 0.037403416 0.03389506 -0.0044511748 0.06059082 0.038571145
0.08721695 0.04907401 0.0066476557 0.013606561 0.08496491 0.11948963 0.062392578 -0.045055475
0.04496806 0.06484887 -0.010433873 0.008471932 0.0269809 0.046125084 0.03642844 0.038701337
0.13530962 0.09712233 0.0068822596 0.103280164 0.14406922 0.14357138 0.072038695 0.053142186
0.05625311 0.011590941 -0.01393724 0.052505556 0.1314241 -0.02976919 0.08953876 0.023060251
0.054476965 -0.04943212 -0.034601916 -0.012968054 0.092661835 0.032086458 0.04571402 0.06340964
0.022408243 0.15735021
00000000: 9704 883d d896 ea3c 3357 b73b 5334 193d
00000010: 8cd5 0a3d 29db 91bb 142e 783d c7fc 1d3d
00000020: cd9e b23d d401 493d 94d4 d93b 0eee 5e3c
00000030: 1502 ae3d fbb6 f43d 5c8f 7f3d 178c 38bd
00000040: 6e30 383d 7ccf 843d d6f2 2abc dccd 0a3c
00000050: 0c07 dd3c a8ed 3c3d fd35 153d 4b85 1e3d
00000060: 9b8e 0a3e 12e8 c63d 9484 e13b 8d84 d33d
00000070: e286 133e 6004 133e 0689 933d 9fab 593d
00000080: a969 663d eee7 3d3c 0559 64bc 1110 573d
00000090: 0a94 063e 84de f3bc 1960 b73d dae8 bc3c
000000a0: 3d23 5f3d 5679 4abd bdba 0dbd f677 54bc
000000b0: 7dc5 bd3d 176d 033d a03e 3b3d eadc 813d
000000c0: 7e91 b73c 6a20 213e

fc2.weight f4 [10, 50]
0.08141586 -0.05273746 0.10087523 -0.24736278 -0.028797468 0.095438294 -0.1675932 -0.2850683
-0.21030171 -0.21032792 0.1498518 -0.11522365 0.09376668 -0.05832162 0.17169179 -0.15217082
0.15008011 0.1636899 -0.34919727 -0.31171647 -0.21471381 0.069655135 -0.015220258 0.08701827
-0.24532512 -0.23794514 0.100190654 -0.1929957 0.063110754 0.16598971 -0.20519249 0.035456207
0.08967461 -0.25559315 -0.120788276 -0.17910302 -0.33728954 -0.114112146 0.14599904 0.01685422
-0.27826113 -0.06750026 -0.23746163 -0.20253825 -0.08784808 0.14861192 0.12354206 0.13710909
0.0038669305 0.094004005 0.07907455 -0.15527545 -0.0916118 -0.10327326 0.15148723 0.09241147
0.15453357 0.061891906 0.10614999 0.13207582 -0.08281301 -0.07582984 0.07338603 0.18900098
-0.15668328 -0.14025673 -0.16822192 0.07021322 -0.1874224 -0.21244957 0.16704194 0.04155763
0.16025046 -0.2668326 0.10933543 0.08664805 -0.25962806 0.16658495 0.06595175 0.09954394
0.1103599 -0.25516564 -0.10632506 -0.13700758 -0.1253548 0.11257049 0.07096467 -0.16803952
-0.11418523 -0.28021854 0.13365664 -0.08987827 -0.1604223 0.071781754 0.1129183 -0.20039691
-0.16433701 -0.16131894 -0.20212972 0.10219249 0.10486219 0.04389033 0.09008569 -0.17162248
0.106376864 -0.13641608 0.2098588 0.022004623 0.14021859 -0.021172848 0.15855949 0.06451102
-0.13269994 0.01302057 -0.033170104 0.09354062 0.13369195 0.080211855 -0.1008514 -0.13442428
-0.04228708 0.076861314 -0.056095444 -0.13438766 -0.15054117 0.11650082 0.088604726 0.1516521
-0.085765 -0.065898165 0.058397718 -0.09585621 0.16567542 -0.24539928 -0.028092885 0.11270173
-0.2385598 -0.07194448 -0.13594796 -0.048583664 -0.22468999 0.090536095 0.13085051 0.11541941
-0.009325659 0.08471041 0.09447821 -0.085845195 -0.21603388 -0.06564287 -0.058004014 -0.14076506
0.086172104 -0.20869026 -0.22161846 0.16157947 0.019024445 -0.03749973 0.11270598 0.12654375
0.12516676 0.012029698 -0.062018998 -0.18581754 0.02159315 0.054494604 -0.055264484 -0.18480173
0.14146739 0.05520483 -0.19086245 0.050319336 -0.09942099 -0.16545123 0.12467193 0.105348766
0.07697601 -0.11006795 0.07312081 -0.25194204 -0.17505994 0.08092961 0.15109567 -0.057024464
-0.023022609 0.1383726 0.10968279 -0.1180367 -0.18184172 0.07047592 0.04649744 -0.16432418
0.05031814 0.11678678 0.03704192 -0.07414578 0.10560658 -0.29004812 -0.06934451 0.081392474
-0.0043076957 0.20500146 0.10066258 0.12695573 0.13893242 -0.23883224 -0.18097277 -0.1542997
-0.009507591 -0.08540748 -0.12682733 -0.049623102 -0.10858321 0.18866672 -0.27402154 0.09191691
0.039519787 -0.05391153 -0.16458327 0.053591143 0.1801194 -0.25113147 0.16687927 0.06789912
-0.117672265 -0.05096717 0.033734594 -0.07022372 -0.13945706 -0.14362398 -0.025956793 -0.15302733
-0.0067205355 -0.060124293 0.18376024 0.15350486 0.084178254 0.20054579 -0.20916365 -0.048016105
0.13116734 0.060489483 -0.18712647 0.10447806 -0.10292567 -0.21003024 -0.31769422 0.14545055
0.071937665 -0.2230542 -0.20198461 -0.013012919 -0.2759604 -0.10268187 -0.106211364 0.17239916
00000000: 5cbd a63d 3c03 58bd ac97 ce3d ab4c 7dbe
00000010: abe8 ebbc 2775 c33d 8d9d 2bbe 79f4 91be
00000020: 5559 57be 3460 57be c072 193e 61fa ebbd
00000030: bf08 c03d a7e2 6ebd f9cf 2f3e abd2 1bbe
00000040: 9aae 193e 539e 273e fcc9 b2be 4d99 9fbe
00000050: f0dd 5bbe 5aa7 8e3d 645e 79bc a236 b23d
00000060: 8236 7bbe e4a7 73be c230 cd3d aaa0 45be
00000070: 3640 813d 35f9 293e fb1d 52be 873a 113d
00000080: 52a7 b73d 1bdd 82be d85f f7bd c866 37be
00000090: 37b1 acbe a1b3 e9bd c680 153e dc11 8a3c
000000a0: 3e78 8ebe 943d 8abd 2429 73be 3066 4fbe
000000b0: b2e9 b3bd b92d 183e 9f03 fd3d 5366 0c3e
000000c0: 546c 7d3b 2c85 c03d d6f1 a13d 8700 1fbe
000000d0: f89e bbbd ee80 d3bd 781f 1b3e 3a42 bd3d
000000e0: 0c3e 1e3e 5e82 7d3d 2a65 d93d e23e 073e
000000f0: de99 a9bd ad4c 9bbd 6a4b 963d 7989 413e
00000100: 9571 20be 769f 0fbe 5e42 2cbe f3cb 8f3d
00000110: a8eb 3fbe 618c 59be 0b0d 2b3e 5538 2a3d
00000120: b218 243e 489e 88be 41eb df3d 8874 b13d
00000130: f8ed 84be 3f95 2a3e b611 873d b1dd cb3d
00000140: 5f04 e23d 12a5 82be f4c0 d9bd b74b 0cbe
00000150: 025d 00be 5b8b e63d ed55 913d 8d12 2cbe
00000160: f2d9 e9bd ce78 8fbe 49dd 083e 1912 b8bd
00000170: be45 24be 5002 933d b641 e73d d934 4dbe
00000180: f647 28be cb30 25be 18fb 4ebe 4c4a d13d
00000190: fdc1 d63d 59c6 333d d97e b83d cebd 2fbe
000001a0: 1ddc d93d a8b0 0bbe 3ae5 563e 0a43 b43c
000001b0: 7695 0f3e ae72 adbc 6b5d 223e 5b1e 843d
000001c0: 7ee2 07be 3b54 553c 60dd 07bd 3992 bf3d
000001d0: 8be6 083e 1d46 a43d 2e8b cebd 85a6 09be
000001e0: 3835 2dbd 7769 9d3d 56c4 65bd eb9c 09be
000001f0: 7727 1abe fb97 ee3d 6576 b53d b04a 1b3e
00000200: 8fa5 afbd 9ef5 86bd 7232 6f3d 4350 c4bd
00000210: d1a6 293e f349 7bbe 0d23 e6bc 2ad0 e63d
00000220: 0549 74be a157 93bd f135 0bbe aaff 46bd
00000230: 2215 66be fd6a b93d adfd 053e 0361 ec3d
00000240: a6ca 18bc a77c ad3d cb7d c13d 9bcf afbd
00000250: fc37 5dbe c56f 86bd 9e95 6dbd b724 10be
00000260: 007b b03d e6b2 55be f3ef 62be 1775 253e
00000270: 27d9 9b3c 5199 19bd 65d2 e63d af94 013e
00000280: b72b 003e 3618 453c a207 7ebd f446 3ebe
00000290: 1ee4 b03c bc35 5f3d 035d 62bd aa3c 3dbe
000002a0: d4dc 103e 761e 623d 7271 43be a61b 4e3d
000002b0: 3b9d cbbd 0c6c 29be ff53 ff3d 18c1 d73d
000002c0: 99a5 9d3d 4e6b e1bd 5dc0 953d 8cfe 80be
000002d0: ea42 33be 6cbe a53d d3b8 1a3e 7c92 69bd
000002e0: e999 bcbc 8cb1 0d3e 5fa1 e03d 3abd f1bd
000002f0: b734 3abe ae55 903d 1a74 3e3d 9944 28be
00000300: 651a 4e3d e82d ef3d 45b9 173d bed9 97bd
00000310: 4348 d83d 3081 94be 7f04 8ebd 19b1 a63d
00000320: 9227 8dbb e7eb 513e 2f28 ce3d af00 023e
00000330: 4d44 0e3e 7090 74be ed50 39be be00 1ebe
00000340: bac5 1bbc 1eea aebd 06df 01be 9841 4bbd
00000350: e060 debd d931 413e 8d4c 8cbe ef3e bc3d
00000360: 80df 213d 56d2 5cbd 8488 28be 6382 5b3d
00000370: 3871 383e 4e94 80be 66e2 2a3e b20e 8b3d
00000380: 28fe f0bd f4c2 50bd 492d 0a3d 74d1 8fbd
00000390: d5cd 0ebe 2a12 13be 57a3 d4bc 32b3 1cbe
000003a0: f037 dcbb e444 76bd a52b 3c3e 6130 1d3e
000003b0: a665 ac3d e05b 4d3e ff2e 56be 89ac 44bd
000003c0: bb50 063e d2c3 773d 159e 3fbe 98f8 d53d
000003d0: b2ca d2bd 2b12 57be d1a8 a2be fdf0 143e
000003e0: 0e54 933d 5268 64be 0ed5 4ebe 2334 55bc
000003f0: ae4a 8dbe df4a d2bd 5885 d9bd 6889 303e

fc2.bias f4 [10]
0.13211116 0.2282409 -0.042335384 -0.17071518 0.026567323 0.088265106 -0.056106295 -0.057983104
0.23923473 0.034076042
00000000: 2648 073e fcb7 693e de67 2dbd f6cf 2ebe
00000010: b7a3 d93c 56c4 b43d b7cf 65bd b17f 6dbd
00000020: f3f9 743e 5293 0b3d

exp_avg f4 [10, 1, 5, 5]
0.010619284 0.0063353493 0.0056323796 0.008031085 0.00799642 0.0030280836 0.0024676754 0.006805341
0.0110292025 0.009891924 -0.0025428107 -0.0002495994 0.0047921897 0.009953283 0.006346627 -0.00080376246
-0.0008240674 0.00041996947 0.001728276 0.0037267453 -0.0026313465 -0.004151745 -0.0010542617 -0.0010579077
0.00064598065 -0.005972493 -0.005001381 -0.0038621332 -0.00127177 0.00345009 -0.004035044 -0.0017478361
0.0002637289 0.0029181119 0.0035985431 -0.004601809 -0.0018036477 -0.0010237519 0.00045136161 0.003415232
-0.0052012242 -0.0052274163 -0.0033680815 -0.001494539 0.00042841907 -0.007193553 -0.0064920355 -0.0045650452
0.00027277166 -0.00026809395 0.0011913704 -0.00041986277 -0.0010392847 -0.0031749322 -0.0026679845 0.012172945
0.005809248 0.004515183 0.0006468131 -0.00087879127 0.011898576 0.0086567905 0.0041578766 -0.0014862616
-0.0018300673 0.012698473 0.012026122 0.0015222888 -0.005895341 -0.005957932 0.011660452 0.01405549
0.0007105644 -0.0070920284 -0.008100927 0.006536651 0.0039257575 0.0062697153 0.0052101794 0.0035079534
0.0048952685 0.0056004096 0.006549646 0.0048397337 0.0005175327 0.0034691114 0.003171601 0.00677181
0.0063773803 0.003675443 0.0023279118 0.0028254595 0.0078642685 0.008355518 0.0058829626 0.0025728424
0.0043788864 0.006905075 0.008441332 0.006338556 -0.0041845464 -0.0063420846 -0.0025292581 0.00068807707
-0.000404703 -0.002023258 -0.0035634672 0.0012214336 0.005273943 0.0007218657 -0.0041937707 -0.0010628377
0.0048051453 0.004891196 0.00045302417 -0.0042655007 -0.0010031993 0.0039810417 0.004648196 -0.0012911082
-0.004845635 -0.0024869507 0.0037029376 0.005696242 0.001246397 -0.0027827756 -0.0055917026 -0.0064720693
-0.0074197147 -0.0040249527 -0.001991005 -0.005050515 -0.0072502354 -0.003882806 -0.00038605763 -0.0024989974
-0.005358311 -0.0037345637 -0.0014511746 0.0033690224 -0.0009868261 -0.0053471825 -0.0040457416 -0.00080362987
0.0020106214 -0.0063490444 -0.007369557 -0.0021548336 -0.00079913496 -0.0038542901 0.0033181189 0.004108408
0.0072368374 0.008381209 0.009315151 0.00060314353 0.0018169951 0.0061669536 0.007099142 0.007967341
0.001295317 0.0008499272 0.003997951 0.004734832 0.005250897 2.741336e-06 0.002180708 0.0056960704
0.0044794413 0.0054970244 0.000109915185 0.0021168094 0.004208517 0.0051113996 0.0055950694 0.0022999295
-0.0012855985 -0.00055439543 0.0025782324 0.009208012 0.0032217323 0.0012706959 0.00042513732 0.0013438116
0.008165144 0.006709847 0.0026254687 -0.0023055 0.0014890291 0.005400095 0.008751255 -0.00022359274
-0.0048129354 0.0010377594 0.0059330687 0.006194717 -0.0007903178 -0.0054521025 6.3814194e-05 0.006026297
0.0016090441 0.0077235536 0.010950177 0.0075367936 0.0071802395 0.002436031 0.007926207 0.0070220637
0.005894479 0.0039168214 -0.0023938823 0.00066332327 0.0042945514 0.0034403584 -0.0016249911 -0.008158574
-0.001799596 0.0037396043 0.0044673607 -0.0038715096 -0.0060851956 -1.3595718e-05 0.005190055 0.0060772467
-0.0005192592 -0.0008196031 -0.00075365143 0.0001520012 -0.00045671067 -0.0016485377 -0.0013142856 0.00047015926
0.0007257943 -0.0007584764 -0.0019880855 -0.003941168 -0.0019522229 -0.00022711769 -0.00043903405 -0.00033684925
-8.055079e-05 0.0034169296 8.5378546e-05 -0.0010870527 -0.0025216565 0.0028706267 0.00364915 -0.003483199
-0.010039713 -0.007602334
00000000: 81fc 2d3c c398 cf3b d38f b83b d094 033c
00000010: 6b03 033c d072 463b b9b8 213b 57ff de3b
00000020: d4b3 343c bd11 223c 49a5 26bb aadc 82b9
00000030: cd07 9d3b 1813 233c 5ef7 cf3b 96b3 52ba
00000040: 3a06 58ba 592f dc39 5287 e23a 693c 743b
00000050: ab72 2cbb 5c0b 88bb 272f 8aba 7ea9 8aba
00000060: 0757 293a e7b4 c3bb a0e2 a3bb d81b 7dbb
00000070: 85b1 a6ba e81a 623b 6738 84bb a617 e5ba
00000080: 1845 8a39 cb3d 3f3b 89d5 6b3b c6ca 96bb
00000090: 6068 ecba 6a2f 86ba bba4 ec39 16d2 5f3b
000000a0: 086f aabb bf4a abbb 08bb 5cbb 68e4 c3ba
000000b0: 6f9d e039 e5b7 ebbb 24bb d4bb 6096 95bb
000000c0: cb02 8f39 f68e 8cb9 c227 9c3a 0721 dcb9
000000d0: 9c38 88ba 8612 50bb 5ad9 2ebb 0871 473c
000000e0: 815b be3b 1af4 933b e48e 293a af5e 66ba
000000f0: 3ff2 423c 36d5 0d3c cc3e 883b aace c2ba
00000100: dede efba 420d 503c 3609 453c 8987 c73a
00000110: b42d c1bb c23a c3bb 7b0b 3f3c ff48 663c
00000120: 2b45 3a3a 3f64 e8bb c0b9 04bc 6731 d63b
00000130: a4a3 803b 2f72 cd3b 27ba aa3b b1e5 653b
00000140: 7d68 a03b a483 b73b 6a9e d63b a196 9e3b
00000150: 08ab 073a 085a 633b a3da 4f3b 0fe6 dd3b
00000160: 58f9 d03b b3df 703b e18f 183b 582b 393b
00000170: 22d9 003c 95e5 083c dec5 c03b 229d 283b
00000180: c37c 8f3b f843 e23b 834d 0a3c a9b3 cf3b
00000190: 851e 89bb 43d1 cfbb e9c1 25bb 1260 343a
000001a0: 512e d4b9 a398 04bb 0f89 69bb 8318 a03a
000001b0: 0ad1 ac3b 963b 3d3a e66b 89bb ea4e 8bba
000001c0: 7b74 9d3b 5346 a03b e083 ed39 9dc5 8bbb
000001d0: c87d 83ba 6673 823b e54f 983b 673a a9ba
000001e0: 22c8 9ebb 1cfc 22bb fcac 723b 8ba7 ba3b
000001f0: 255e a33a 3a5f 36bb 9a3a b7bb a713 d4bb
00000200: 1421 f3bb c0e3 83bb 857b 02bb ca7e a5bb
00000210: 6293 edbb ad76 7ebb c767 cab9 38c6 23bb
00000220: c594 afbb 95bf 74bb 5735 beba d1ca 5c3b
00000230: 6458 81ba 6b37 afbb 2492 84bb b0aa 52ba
00000240: a1c4 033b a50b d0bb 537c f1bb 1c38 0dbb
00000250: 0a7d 51ba 4298 7cbb cc74 593b d39f 863b
00000260: fe22 ed3b 5751 093c 939e 183c 471c 1e3a
00000270: 3d28 ee3a 2814 ca3b eb9f e83b 7389 023c
00000280: a0c7 a93a a6cd 5e3a 3e01 833b a626 9b3b
00000290: b70f ac3b cbf7 3736 36ea 0e3b 1aa6 ba3b
000002a0: 47c8 923b 6220 b43b 4482 e638 2bba 0a3b
000002b0: 99e7 893b 877d a73b d856 b73b 6aba 163b
000002c0: 8781 a8ba d954 11ba 90f7 283b 34dd 163c
000002d0: b323 533b 7b8d a63a f7e4 de39 d622 b03a
000002e0: 19c7 053c 47de db3b 0e10 2c3b df17 17bb
000002f0: 872b c33a 48f3 b03b 6d61 0f3c 3874 6ab9
00000300: d4b5 9dbb 6d05 883a 306a c23b 0dfd ca3b
00000310: 542d 4fba 8da7 b2bb fcd3 8538 3e78 c53b
00000320: 90e6 d23a dd15 fd3b 5f68 333c 35f7 f63b
00000330: 3748 eb3b d1a5 1f3b ecdc 013c 5719 e63b
00000340: 7926 c13b ae58 803b aee2 1cbb dfe2 2d3a
00000350: 4fb9 8c3b a377 613b a7fd d4ba 8aab 05bc
00000360: 6ce0 ebba 2614 753b f062 923b 27b9 7dbb
00000370: 5266 c7bb 2a19 64b7 5611 aa3b a423 c73b
00000380: e51e 08ba a2da 56ba b190 45ba 8362 1f39
00000390: ab72 efb9 bf13 d8ba 1b44 acba b57f f639
000003a0: 3b43 3e3a 7dd4 46ba 8a4a 02bb ea24 81bb
000003b0: bbe1 ffba 7126 6eb9 272e e6b9 249b b0b9
000003c0: 60ed a8b8 91ee 5f3b 420d b338 707b 8eba
000003d0: 6042 25bb 2021 3c3b 9426 6f3b 6246 64bb
000003e0: 9c7d 24bc 001d f9bb

exp_avg_sq f4 [10, 1, 5, 5]
0.0011445527 0.001024696 0.00081284926 0.00073842035 0.0007148004 0.00093382836 0.0007762111 0.0006026461
0.00062422804 0.00057543657 0.0006750419 0.0005377275 0.0004163258 0.00040218624 0.0004352242 0.00047304315
0.0003946784 0.00036226006 0.00042813382 0.0005660039 0.0004091732 0.00035927413 0.00045875594 0.00066901784
0.0005735395 0.0003193872 0.00026474064 0.00021047397 0.00016824671 0.00021599051 0.00029516948 0.00025681857
0.0001939073 0.00015317931 0.00020869852 0.00029927777 0.00026283783 0.00018981361 0.00016801475 0.00017476272
0.00031629743 0.00028627441 0.0002168011 0.00018668968 0.00017459446 0.00033181766 0.00029266143 0.00022941275
0.00021558863 0.00018843656 0.00023428384 0.0002770491 0.00032843143 0.00034291137 0.00030101129 0.00023309742
0.00027805896 0.00032416315 0.00029752264 0.00028303888 0.00024742208 0.0002862687 0.00028943224 0.00026808764
0.00026520138 0.00028939536 0.0002883995 0.00028681537 0.00027787604 0.00027083562 0.00035864592 0.000341657
0.00029040303 0.00026269892 0.0002714041 0.0004792985 0.00045361088 0.00046092673 0.00047868444 0.00051138323
0.00039207758 0.00036169818 0.0003721053 0.00039431785 0.0004111802 0.00034425163 0.0003268304 0.00033789917
0.0003608966 0.00036895755 0.0003149181 0.00031164213 0.00033958678 0.00035157794 0.000341558 0.00032964553
0.0003381681 0.00035457642 0.00034563246 0.0003393036 0.00048035465 0.0003884006 0.0002799798 0.00023832962
0.00024603435 0.00041087638 0.0002776415 0.00018358299 0.0002406048 0.00024097732 0.000346329 0.00019960557
0.00021139006 0.00031103357 0.00021181085 0.00030806917 0.00022328836 0.0003065242 0.0002943937 0.00017797864
0.00027489322 0.0002724478 0.00030000985 0.00022611163 0.00022642787 0.00025145145 0.00023258108 0.0002095196
0.00018395261 0.0002027085 0.00028940188 0.00023235397 0.0001879709 0.00015689991 0.00018203171 0.00026961722
0.00020789567 0.00019980119 0.00019436724 0.00019822342 0.0002564999 0.00022611933 0.00021907946 0.00022502556
0.00022949786 0.0002697152 0.00025865386 0.000262169 0.00024057597 0.00023998294 0.00051821535 0.0004670724
0.0004231534 0.00040538452 0.0003900704 0.00043580445 0.00038736325 0.00036908768 0.00036832545 0.00038315958
0.00039352642 0.00036414477 0.00035703334 0.00039227263 0.00039310489 0.00034048845 0.0003472142 0.00040508213
0.00040398462 0.00037862762 0.0003321384 0.00036578698 0.00035954776 0.0003224585 0.00033553745 0.00024487596
0.00021904186 0.00022167222 0.00026260773 0.00035754452 0.00022948188 0.00021265079 0.00022758286 0.0002794402
0.00043807895 0.00027991284 0.00027435727 0.00031069055 0.00038628292 0.00050034 0.00034068045 0.00039608384
0.00046554333 0.00048387892 0.0004911178 0.00031514114 0.00035203173 0.00038802094 0.00040279794 0.00039370137
0.0005439023 0.00057557283 0.00062022905 0.00059598446 0.00047366682 0.00052325986 0.0004949905 0.00045930195
0.0004023011 0.00034713026 0.00046547528 0.00040571776 0.00037654763 0.0003510505 0.0003539783 0.00044383336
0.00040820386 0.0003870449 0.00034787183 0.00037176633 0.00045513563 0.0004357394 0.00039799392 0.00036517126
0.00036727698 0.00041876046 0.00051005936 0.0005735318 0.0005053648 0.0004256731 0.00038247486 0.00045002
0.00047985694 0.00042104966 0.00040921275 0.0003885747 0.00042401045 0.00042183945 0.00043345502 0.00047965345
0.00037500262 0.00042041548 0.00043469816 0.00044527533 0.00046899676 0.00037820742 0.00042361766 0.00040992963
0.00039216666 0.00041380202
00000000: d104 963a 184f 863a 6415 553a 8d92 413a
00000010: 7161 3b3a 29cc 743a a57a 4b3a e5fa 1d3a
00000020: 3ca3 233a e5d8 163a 4cf5 303a 48f6 0c3a
00000030: 4e46 da39 86dc d239 ce2e e439 c702 f839
00000040: d7ec ce39 b9ed bd39 2677 e039 e15f 143a
00000050: 4c86 d639 f55c bc39 2e85 f039 0761 2f3a
00000060: 9659 163a 6d73 a739 e3cc 8a39 adb2 5c39
00000070: 626b 3039 837b 6239 fac0 9a39 9ba5 8639
00000080: 9853 4b39 c29e 2039 15d6 5a39 62e8 9c39
00000090: 7fcd 8939 b408 4739 1e2d 3039 8340 3739
000000a0: b9d4 a539 1a17 9639 1a55 6339 21c2 4339
000000b0: 5813 3739 d0f7 ad39 5a70 9939 848e 7039
000000c0: a20f 6239 0e97 4539 17aa 7539 e740 9139
000000d0: 5231 ac39 c9c8 b339 0dd1 9d39 9d6b 7439
000000e0: 71c8 9139 71f4 a939 d0fc 9b39 d664 9439
000000f0: 6eb8 8139 5616 9639 f0be 9739 1d8e 8c39
00000100: ba0a 8b39 fdb9 9739 5334 9739 b55f 9639
00000110: e4af 9139 f1fe 8d39 a408 bc39 6d20 b339
00000120: 3c41 9839 daba 8939 3e4b 8e39 5b4a fb39
00000130: 9fd2 ed39 8aa8 f139 f0f7 fa39 590e 063a
00000140: c38f cd39 4fa2 bd39 2117 c339 72bc ce39
00000150: ac93 d739 ac7c b439 6f5a ab39 0f28 b139
00000160: b936 bd39 a570 c139 981b a539 e663 a339
00000170: 910a b239 fe53 b839 2413 b339 46d4 ac39
00000180: 274c b139 71e6 b939 0136 b539 8fe4 b139
00000190: 1cd8 fb39 3fa2 cb39 41ca 9239 1fe8 7939
000001a0: 2cfe 8039 e56a d739 6990 9139 2f80 4039
000001b0: dc4a 7c39 dbae 7c39 7e93 b539 364d 5139
000001c0: 96a8 5d39 3812 a339 8b19 5e39 5884 a139
000001d0: 8322 6a39 fbb4 a039 db58 9a39 c79f 3a39
000001e0: 8b1f 9039 53d7 8e39 a44a 9d39 6118 6d39
000001f0: 456d 6d39 3ed5 8339 02e1 7339 7db2 5b39
00000200: 67e3 4039 268e 5439 ddba 9739 0ba4 7339
00000210: 0e1a 4539 8085 2439 c4df 3e39 695b 8d39
00000220: 92fe 5939 b981 5139 0fcf 4b39 32da 4f39
00000230: d57a 8639 721a 6d39 b2b8 6539 d7f4 6b39
00000240: 5da5 7039 9068 8d39 ef9b 8739 ba73 8939
00000250: 1f43 7c39 eea3 7b39 d8d8 073a 65e1 f439
00000260: b0da dd39 ca89 d439 5d82 cc39 af7c e439
00000270: 0417 cb39 1c82 c139 ce1b c139 cfe2 c839
00000280: 3952 ce39 afea be39 3430 bb39 f1a9 cd39
00000290: a519 ce39 9683 b239 4d0a b639 3461 d439
000002a0: e6cd d339 8a82 c639 dd22 ae39 19c7 bf39
000002b0: af81 bc39 a60f a939 13eb af39 b262 8039
000002c0: 9aae 6539 af70 6839 9dae 8939 d074 bb39
000002d0: 13a1 7039 03fb 5e39 4fa3 6e39 d481 9239
000002e0: f6ad e539 44c1 9239 9cd7 8f39 2ee4 a239
000002f0: 0486 ca39 4029 033a 5b9d b239 79a9 cf39
00000300: 2b14 f439 21b1 fd39 5cbe 003a 8739 a539
00000310: e690 b839 4a6f cb39 a02e d339 b469 ce39
00000320: aa94 0e3a 0ae2 163a de96 223a d73b 1c3a
00000330: 7c56 f839 602b 093a 40c2 013a 77ce f039
00000340: f1eb d239 09ff b539 090b f439 84b6 d439
00000350: 5e6b c539 330d b839 2a96 b939 4eb2 e839
00000360: 3204 d639 4aec ca39 9162 b639 a2e9 c239
00000370: 459f ee39 f473 e439 d7a9 d039 7574 bf39
00000380: 158f c039 148d db39 81b5 053a 1159 163a
00000390: 757a 043a e02c df39 e886 c839 a9f0 eb39
000003a0: 4f95 fb39 54c0 dc39 9b8b d639 9db9 cb39
000003b0: b84d de39 552a dd39 5941 e339 ff79 fb39
000003c0: 009c c439 366b dc39 33e8 e339 d873 e939
000003d0: aee3 f539 244a c639 0019 de39 d3eb d639
000003e0: b89b cd39 91f3 d839

exp_avg f4 [10]
-0.011677269 0.00522207 0.011137791 -0.0059419447 0.0037603942 -0.0017123683 -0.005665004 0.003187734
-0.0019635465 0.0049920967
00000000: 0452 3fbc e61d ab3b 487b 363c a5b4 c2bb
00000010: f270 763b 8c71 e0ba 7fa1 b9bb 4de9 503b
00000020: d8ae 00bb be94 a33b

exp_avg_sq f4 [10]
0.0011555217 0.0002500235 0.00028139868 0.0004627237 0.00057236245 0.00021659731 0.0004418606 0.00021848286
0.00058254955 0.000304801
00000000: e074 973a 9615 8339 b188 9339 b999 f239
00000010: 980a 163a 661e 6339 87a9 e739 8c18 6539
00000020: 3db6 183a b3cd 9f39

exp_avg f4 [20, 10, 5, 5]
0.002241438 0.0052424814 0.0063085896 0.0016252787 0.0016248871 -0.0030297465 0.00047499823 0.005277616
0.0043087327 0.0033551557 -8.6167594e-05 -0.0009833758 -0.0015471099 -0.0008686419 -0.0005739119 0.0055949287
0.0020698435 -0.00055193104 -0.0035968325 -0.003033483 0.0063203205 0.0042473143 0.002473949 0.00042890818
-0.0025432208 -0.00016646364 -0.003803447 -0.0011080567 0.00022727114 0.0028902695 -5.4678047e-05 -0.0020466163
0.0007601076 0.00018045426 0.0030738323 0.00058974413 0.0010734447 0.0019324298 0.0022948773 0.003322447
0.001920288 0.0017964103 0.002584815 -0.00027561822 -0.00050766754 0.0029234388 -0.001254521 -0.0025384377
-0.0028544078 -0.0015772544 0.002501268 -0.0007359524 -0.0016560956 -0.0028402072 -0.0016043119 0.00081997365
-0.0013858248 -0.00011684954 0.0003101687 -0.0011771355 0.0005315197 -0.0005621349 0.00020750661 0.002263345
0.0016158161 -0.002084911 -0.00091359945 0.00038471032 0.0041017532 0.002859451 -0.0026928755 -1.9390343e-05
0.002063757 0.0027712102 0.0015798389 0.0008422754 -2.7406846e-05 0.00055189297 0.0005934392 0.00047771088
0.0016560154 -0.00041740324 -0.0012194782 -0.00022030697 -0.00018146595 0.0030406164 0.0027586578 0.0010000056
-0.000698485 -0.000683603 -0.0012144627 2.6278422e-05 0.00050088693 0.002045709 0.0028817963 -0.0009976223
-0.0010652138 0.0010779593 0.0027193576 0.0048859324 -0.0007482291 -0.0041820537 -0.0050974074 0.0014559766
0.001754465 0.00048107372 -0.0019154047 0.0003253327 0.000990719 0.0017500581 0.001887308 0.0013376276
0.00173739 0.0042348695 0.002150925 0.0009095919 0.004263332 0.0018803177 0.0012676659 -0.00033684378
0.0021428016 0.0019599223 -0.00033014576 -0.0017050488 -0.0017932471 -0.0005419469 -0.0016485883 -0.0049870973
-0.0014701674 -0.00046472842 0.0004336504 0.00066614564 -0.0024333543 0.00033687838 -0.00041888098 0.00078298274
0.0003436424 0.0015130846 0.002249935 -0.00037326507 0.0006501565 -0.00085325364 -0.00014771603 0.00054299895
0.0005762413 0.004667881 0.0028959976 -0.0014753129 -0.0005911197 -0.00049764855 0.0009790758 0.0012745772
0.0023240354 0.00115114 -1.0844874e-05 -0.00078698865 0.0001649083 0.0030330028 0.0029021467 0.002409115
-0.0017443382 -0.0019113016 -0.00010895717 0.0011122781 0.0005114182 0.0012129523 0.0018062985 -7.325734e-05
-0.0012824768 -0.0019687398 0.0028705492 0.0023839315 0.0008829249 -0.00044977767 -0.0020195418 0.00025650594
0.0007478718 0.004107621 0.0026534281 0.003295764 0.00013889509 0.0017328146 0.0030050508 0.0032778103
0.003930122 -0.0006293771 0.0013708438 0.0021037664 0.0014733751 0.0013945877 0.0041844444 0.0038021454
0.0015877965 -0.00029062593 -0.0013628185 0.003920791 0.0022017541 -0.0006200725 -0.0011876944 -0.0014899515
0.00047999466 -0.0012076043 -0.0017731505 0.00017842247 0.0016529004 0.00052069675 0.00078495196 -0.000108431166
0.001812937 0.0011950426 -0.0023640022 -0.0011312998 0.0015059949 0.0014137569 0.0022096133 -0.00045036394
0.00080177764 0.0010625104 0.0012946003 0.00048128827 0.0023187466 0.0018837744 -0.0020045182 -0.0032401339
-0.001230175 0.0011944164 0.0023684688 -0.001109587 -0.002755742 -0.0015980615 0.00039235505 0.00071540347
0.00025656226 0.0015577476 -0.00016124801 -0.0010906713 -0.0013472788 -0.000110446636 0.0008013792 -0.000108617955
0.0015277223 0.0022052363 -0.00039393542 -0.00055002247 -0.0009738416 0.0020014106 0.0033486637 0.00037011865
0.00038634142 -0.0026405726 -0.002377308 -0.0010407582 -6.6395536e-05 0.0007216934 -0.0012617508 -0.002641397
00000000: 17e5 123b 1fc9 ab3b 49b8 ce3b 4e07 d53a
00000010: 2afa d43a b68e 46bb 2f09 f939 daef ac3b
00000020: 4530 8d3b 2ce2 5b3b e0b4 b4b8 9ee4 80ba
00000030: 65c8 caba 92b5 63ba 9372 16ba aa55 b73b
00000040: 36a6 073b 77af 10ba d6b8 6bbb 66cd 46bb
00000050: b11a cf3b 0e2d 8b3b fa21 223b 15df e039
00000060: 2aac 26bb be8c 2eb9 4043 79bb 373c 91ba
00000070: a24f 6e39 ad6a 3d3b 1b56 65b8 8620 06bb
00000080: f541 473a 5238 3d39 5972 493b 0f99 1a3a
00000090: d4b2 8c3a 9649 fd3a a765 163b 69bd 593b
000000a0: 2cb2 fb3a 8775 eb3a 0066 293b da80 90b9
000000b0: fe14 05ba 2a97 3f3b bd6e a4ba eb5b 26bb
000000c0: 0411 3bbb e0bb ceba 50ec 233b eeec 40ba
000000d0: 5911 d9ba c522 3abb c647 d2ba 80f3 563a
000000e0: 90a4 b5ba 1e0d f5b8 239e a239 1d4a 9aba
000000f0: af55 0b3a 3c5c 13ba 2296 5939 a154 143b
00000100: cbc9 d33a 01a3 08bb 9f7e 6fba f2b2 c939
00000110: 0068 863b a165 3b3b f47a 30bb 72a8 a2b7
00000120: 1940 073b 319d 353b 9912 cf3a 25cc 5c3a
00000130: c1e7 e5b7 e9ac 103a 0891 1b3a 4575 fa39
00000140: a80e d93a ead6 dab9 e6d6 9fba 3402 67b9
00000150: e547 3eb9 1445 473b 99ca 343b 9f12 833a
00000160: 891a 37ba d233 33ba 9b2e 9fba 7b70 dc37
00000170: f44d 033a 4d11 063b 85dc 3c3b a6c2 82ba
00000180: a59e 8bba 504a 8d3a 4037 323b 2c1a a03b
00000190: ce24 44ba 9c09 89bb 2708 a7bb 78d6 be3a
000001a0: 14f6 e53a 9f38 fc39 510e fbba 6a91 aa39
000001b0: 03db 813a 3562 e53a 8c5f f73a 5653 af3a
000001c0: 22b9 e33a a9c4 8a3b 89f6 0c3b ae71 6e3a
000001d0: 6cb3 8b3b fe74 f63a cf27 a63a 689a b0b9
000001e0: 3f6e 0c3b 0a72 003b 6a17 adb9 f27b dfba
000001f0: 630b ebba 7111 0eba 7215 d8ba ce6a a3bb
00000200: a2b2 c0ba cba6 f3b9 925b e339 47a0 2e3a
00000210: e978 1fbb 0d9f b039 419d dbb9 1541 4d3a
00000220: e72a b439 b252 c63a a573 133b cab2 c3b9
00000230: 446f 2a3a e2ac 5fba 38e4 1ab9 0b58 0e3a
00000240: e60e 173a 06f5 983b c7ca 3d3b 495f c1ba
00000250: 5ff5 1aba a174 02ba 5554 803a b70f a73a
00000260: d84e 183b d9e1 963a 61f2 35b7 ea4d 4eba
00000270: 3ceb 2c39 58c5 463b f131 3e3b 3ee2 1d3b
00000280: 47a2 e4ba a484 faba ef7f e4b8 dcc9 913a
00000290: b210 063a edfb 9e3a 52c1 ec3a bca1 99b8
000002a0: c818 a8ba f905 01bb d31f 3c3b bc3b 1c3b
000002b0: 1674 673a 23d0 ebb9 4a5a 04bb a57b 8639
000002c0: d40c 443a 3999 863b 23e5 2d3b bffd 573b
000002d0: 5ea4 1139 9c1f e33a 63f0 443b 88d0 563b
000002e0: 41c8 803b c8fc 24ba e3ad b33a 58df 093b
000002f0: 441e c13a 99ca b63a aa1d 893b 6a2d 793b
00000300: 9c1d d03a 275f 98b9 9aa0 b2ba fb79 803b
00000310: 4e4b 103b 5c8c 22ba 69ac 9bba 7a4a c3ba
00000320: cba7 fb39 7a48 9eba 0f69 e8ba eb16 3b39
00000330: 22a6 d83a 5e7f 083a 3cc5 4d3a 8a65 e3b8
00000340: 12a0 ed3a faa2 9c3a 60ed 1abb 1f48 94ba
00000350: ce64 c53a cf4d b93a 29cf 103b d31e ecb9
00000360: 632e 523a ef43 8b3a 94af a93a 6b55 fc39
00000370: 1df6 173b fbe8 f63a 3c5e 03bb 6d58 54bb
00000380: d33d a1ba f78d 9c3a 5038 1b3b 906f 91ba
00000390: ae99 34bb 0c76 d1ba 01b5 cd39 ea89 3b3a
000003a0: 3483 8639 562d cc3a af14 29b9 dbf4 8eba
000003b0: 2d97 b0ba 969f e7b8 a613 523a d2c9 e3b8
000003c0: db3d c83a ba85 103b 1e89 ceb9 622f 10ba
000003d0: 6749 7fba 192a 033b 4175 5b3b 7c0c c239
000003e0: de8d ca39 750d 2dbb 9ccc 1bbb 0d6a 88ba
000003f0: d53d 8bb8 0630 3d3a 5561 a5ba 4a1b 2dbb
