2020-S/exercise/01_MNIST_classifier/checkpoint/model_epoch7.pth (torch, 269279 bytes, 24 tensors)

conv1.weight f4 [10, 1, 5, 5]
0.08026684 0.15782177 -0.017061867 -0.02502132 0.037256893 0.056555342 -0.19298391 -0.1841233
-0.4364809 -0.23607306 0.14414304 0.14494771 -0.19449484 -0.46680072 -0.29799703 0.20293461
0.14628875 0.5477268 0.3378493 0.24235113 0.07859637 -0.086868115 0.15468462 0.51472616
0.43108192 0.2433235 0.002203771 -0.2127575 0.10559199 0.2284705 -0.10786894 -0.06518969
-0.24874383 -0.15017574 0.45471075 -0.27876756 -0.05246689 -0.20251958 0.098498404 0.45113128
-0.06979767 0.035606865 0.11364006 0.21398298 0.10747657 0.2628546 0.07417577 -0.06268341
0.0022543087 -0.08860871 0.052412692 0.30225825 0.0483519 0.19383438 0.00054597016 0.05211051
0.0994507 0.18062484 0.031246157 -0.25245526 0.4082751 0.33576736 0.1901129 -0.32735935
-0.42557466 0.38421544 -0.10802356 -0.055100333 -0.3839912 -0.07109387 0.120021045 -0.2559008
-0.14509435 -0.2222974 -0.11782719 0.25795275 0.21580935 0.1818179 0.15628876 0.30853778
-0.26699996 -0.016661676 0.19848494 0.05084356 -0.041460365 -0.07954888 -0.2322219 -0.2867677
-0.048104838 -0.039280202 -0.16291907 -0.09449815 -0.078608125 -0.23515756 -0.21110442 0.20736459
-0.1032194 -0.19881134 -0.050590012 0.009017305 -0.2940205 -0.12970497 -0.14172243 0.2966298
0.18851252 -0.32253292 -0.03032584 0.040413186 0.24846978 0.33212566 -0.3264682 -0.026760899
0.16258693 0.4586516 0.08017874 -0.30389208 0.05809151 0.13193391 0.28957808 -0.006036786
-0.17134312 -0.07280478 0.28321013 0.1829153 0.034799293 0.021208327 0.43795884 0.39843926
0.16561116 -0.36071855 -0.19170383 0.087223016 0.43080774 0.20109463 -0.084719874 -0.51636267
-0.20461121 0.38989413 0.40896514 -0.030190624 -0.49187055 -0.1945424 -0.14056139 0.34134543
0.05776557 -0.02095252 -0.31535023 -0.029628102 -0.022610476 0.06718446 0.011859039 -0.3175473
-0.1644516 0.09317127 -0.22390068 0.31555447 0.06330936 -0.23142421 -0.19362701 -0.29835236
0.053347733 -0.02174159 0.126581 0.18287326 0.1529927 -0.18006225 0.12538198 0.1659743
0.16861808 0.3486556 0.21039864 0.13638765 0.06896704 -0.34434363 -0.12064997 -0.07450745
-0.081491895 -0.30741218 -0.17978372 -0.31426975 0.010748761 -0.24211937 0.05215056 -0.18993309
0.06937932 -0.10368773 -0.2167476 -0.11547988 -0.060377967 0.34238076 -0.03776977 0.09125307
0.14012624 0.15673631 0.27003744 0.012805871 0.03591459 0.010600166 0.20622215 0.4110369
-0.064252034 -0.13227536 0.10743487 0.19309452 -0.2993774 -0.15782571 0.010890958 -0.0708521
0.14222926 -0.1632856 -0.09045189 0.13892993 0.03586079 0.10228561 0.41360116 0.3082173
0.3323745 0.1625603 0.19661444 0.38625947 -0.21370076 -0.10513227 -0.44844204 -0.34657764
-0.2308308 0.046571527 -0.021443764 0.13836859 -0.23339333 -0.017069006 -0.06509913 0.13363339
0.1943894 -0.41268036 -0.43789956 0.060844734 0.43438622 0.1085871 -0.21463574 -0.08734594
-0.16727386 0.21975973 0.44043428 0.16886507 -0.16833965 -0.25027305 0.1007749 -0.060276184
0.111246765 -0.15994424
00000000: f162 a43d 089c 213e 54c5 8bbc 83f9 ccbc
00000010: af9a 183d 93a6 673d 939d 45be d18a 3cbe
00000020: 6d7a dfbe 23bd 71be 3c9a 133e 2c6d 143e
00000030: a829 47be 8100 efbe 1193 98be 17ce 4f3e
00000040: b8cc 153e d337 0c3f 95fa ac3e e52a 783e
00000050: 22f7 a03d e9e7 b1bd a565 1e3e 18c5 033f
00000060: c5b6 dc3e cc29 793e 246d 103b 1add 59be
00000070: 9d40 d83d 2cf4 693e 64ea dcbd 2c82 85bd
00000080: b4b6 7ebe abc7 19be d9cf e83e 9fba 8ebe
00000090: 86e7 56bd 4b61 4fbe 88b9 c93d aefa e63e
000000a0: 15f2 8ebd 81d8 113d 1fbc e83d 5b1e 5b3e
000000b0: ad1c dc3d e194 863e 77e9 973d 2960 80bd
000000c0: 06bd 133b 7c78 b5bd b1ae 563d 98c1 9a3e
000000d0: a40c 463d 857c 463e 701f 0f3a d571 553d
000000e0: cfac cb3d b8f5 383e f1f7 ff3c d141 81be
000000f0: 6f09 d13e b3e9 ab3e f5ac 423e a59b a7be
00000100: ece4 d9be e3b7 c43e 753b ddbd e3b0 61bd
00000110: 7f9a c4be aa99 91bd 98cd f53d 6e05 83be
00000120: 9d93 14be eea1 63be 624f f1bd 6212 843e
00000130: 20fd 5c3e 792e 3a3e 290a 203e aaf8 9d3e
00000140: 38b4 88be 117e 88bc a33f 4b3e 5641 503d
00000150: 58d2 29bd 86ea a2bd 94cb 6dbe 37d3 92be
00000160: 9409 45bd 47e4 20bd 42d4 26be 3f88 c1bd
00000170: 4cfd a0bd 25cd 70be c22b 58be 6257 543e
00000180: b164 d3bd 3395 4bbe 7937 4fbd 52bd 133c
00000190: db89 96be 61d1 04be af1f 11be dcdf 973e
000001a0: 6d09 413e 0923 a5be e56d f8bc 4c88 253d
000001b0: dd6e 7e3e 600c aa3e d726 a7be ac39 dbbc
000001c0: 307d 263e 62d4 ea3e c034 a43d be97 9bbe
000001d0: 5df1 6d3d af19 073e 9443 943e 3bd0 c5bb
000001e0: 9274 2fbe ac1a 95bd eb00 913e 264e 3b3e
000001f0: b489 0e3d 16bd ad3c 243c e03e 3b00 cc3e
00000200: f995 293e 1ab0 b8be 024e 44be fba1 b23d
00000210: d592 dc3e c0eb 4d3e 9d81 adbd 5830 04bf
00000220: 9a85 51be 34a0 c73e e163 d13e 5452 f7bc
00000230: 75d6 fbbe 1f36 47be 53ef 0fbe d4c4 ae3e
00000240: 979b 6c3d 9fa4 abbc 9675 a1be a2b6 f2bc
00000250: 9b39 b9bc 0298 893d 6a4c 423c 8f95 a2be
00000260: 0066 28be 94d0 be3d 3846 65be 5b90 a13e
00000270: 56a8 813d 78fa 6cbe 2946 46be a4c1 98be
00000280: 2783 5a3d 6b1b b2bc 739e 013e 2143 3b3e
00000290: 1eaa 1c3e 3d62 38be 2264 003e 2bf5 293e
000002a0: 38aa 2c3e fd82 b23e be72 573e 34a9 0b3e
000002b0: 973e 8d3d cf4d b0be 5517 f7bd 5d97 98bd
000002c0: 39e5 a6bd 2165 9dbe 3919 38be f7e7 a0be
000002d0: 921b 303c 24ee 77be d39b 553d d27d 42be
000002e0: bf16 8e3d 3c5a d4bd 15f3 5dbe b780 ecbd
000002f0: e34e 77bd 884c af3e 79b4 1abd e4e2 ba3d
00000300: 417d 0f3e 7c7f 203e 5942 8a3e b7cf 513c
00000310: 2d1b 133d 52ac 2d3c e62b 533e 6e73 d23e
00000320: 9296 83bd 3173 07be d006 dc3d 92ba 453e
00000330: ff47 99be 109d 21be fd6f 323c e81a 91bd
00000340: 8ca4 113e 5734 27be d73e b9bd a643 0e3e
00000350: c4e2 123d 1e7b d13d 88c3 d33e a8ce 9d3e
00000360: fe2c aa3e 3576 263e 4c55 493e cdc3 c53e
00000370: 5fd4 5abe 964f d7bd 329a e5be a072 b1be
00000380: e95e 6cbe c9c1 3e3d d5aa afbc 7fb0 0d3e
00000390: a9fe 6ebe 4dd4 8bbc b152 85bd 31d7 083e
000003a0: 040e 473e d74a d3be 5f34 e0be 5438 793d
000003b0: df67 de3e ea62 de3d 79c9 5bbe 6ee2 b2bd
000003c0: d749 2bbe b208 613e 9a80 e13e f7ea 2c3e
000003d0: 3b61 2cbe ca23 80be 1263 ce3d 29e4 76bd
000003e0: 58d5 e33d 6cc8 23be

conv1.bias f4 [10]
0.028951086 0.052420963 -0.070851326 -0.10571314 -0.03678254 -0.14915323 0.099474706 -0.3707395
0.07687659 -0.10545009
00000000: d42a ed3c 5db7 563d 801a 91bd 2180 d8bd
00000010: 4aa9 16bd a0bb 18be 65b9 cb3d 91d1 bdbe
00000020: 7971 9d3d 37f6 d7bd

conv2.weight f4 [20, 10, 5, 5]
-0.0073385146 0.08116789 0.08011666 -0.040737838 -0.2654233 0.045324896 0.054531567 0.03821501
-0.1456797 -0.14946754 0.13754949 0.0217277 -0.09707801 -0.13678306 -0.21443377 0.025732553
0.058784816 -0.19834626 -0.13576418 -0.124352254 0.14194936 0.02523089 -0.17308867 -0.06588755
-0.014728267 -0.08961367 -0.064855166 -0.09322835 -0.047767326 0.03285443 0.03142398 0.016174614
-0.0010414553 0.048646163 -0.0018817333 0.09214707 -0.01938381 0.08872716 -0.02940018 -0.062499788
0.010065668 0.18131404 0.16436808 0.059699554 -0.07067906 0.13750325 0.08914515 0.13534594
0.22538738 -0.121978134 -0.15620714 -0.14409113 -0.06154295 -0.010607012 -0.018818557 -0.005192158
-0.022926511 -0.015420227 -0.007632266 -0.032155927 0.072348535 -0.08489165 -0.16699862 -0.09719785
0.012485076 0.014679602 -0.20467599 -0.008623206 0.055578407 0.08365355 -0.093097165 0.061851952
0.3023461 0.08161485 0.082275055 -0.03896352 -0.13590825 -0.0039802203 0.16215822 0.17119099
-0.01683762 0.009732399 -0.004849937 0.07228131 0.070516 0.05615978 -0.12529707 -0.1722712
-0.0859184 -0.040036313 -0.13498534 -0.09779737 -0.19019188 -0.23550455 -0.052326676 -0.08412355
-0.083083905 -0.1840609 -0.12483743 -0.14005823 -0.087326035 -0.10882514 -0.06094642 -0.031271115
0.017534312 -0.07174198 -0.10402945 -0.116363 0.06704661 0.074946724 0.06868236 -0.06550032
-0.04742206 0.024767052 0.13624942 0.08605709 0.06655601 0.03878715 0.062167656 0.117479645
-0.10209851 0.10308729 0.07641867 0.24507779 0.07213517 -0.10857391 -0.14646043 -0.34616715
-0.33900467 -0.37838247 -0.016509753 -0.103175655 0.03930255 0.13344848 -0.0888305 -0.094773896
-0.040677965 0.13203347 0.11401834 0.19921316 -0.08522839 -0.072013244 0.0718095 0.023652006
-0.029797476 0.17158937 -0.0153152 -0.039389893 -0.007947394 -0.17566866 -0.02734273 0.061155666
-0.020504503 -0.10940639 -0.16425961 0.03696689 0.10064042 0.028485898 0.12237566 -0.09743494
0.20410979 0.036544897 -0.08126793 -0.0015413249 -0.033521656 0.040971365 -0.089226305 0.046631813
0.09314027 0.08740849 0.10960807 0.038033955 -0.058193278 -0.04233461 0.107747704 -0.059692472
0.074695736 0.06902809 0.056248367 0.13369218 0.035803203 -0.08010843 0.018117422 0.0913379
-0.11179621 0.099769235 -0.095388584 0.01860213 -0.049227327 -0.2055363 -0.13179424 -0.0874671
-0.01962529 -0.159125 -0.33625424 -0.05962407 0.0685629 0.16293368 0.027950821 -0.20195386
-0.051105723 -0.06550387 -0.041521315 -0.100924015 -0.23296008 -0.04647916 0.024287758 0.040583137
-0.050874203 -0.21900506 0.024062324 0.07446626 -0.091611736 -0.09110497 -0.17044508 0.09802895
-0.054372814 -0.001097612 -0.038954902 -0.07074902 0.1471169 -0.003072032 0.12827542 -0.009493534
-0.046476066 -0.037075523 -0.00088699383 -0.09685106 -0.025173713 -0.25902715 0.03861141 -0.0029332875
0.12861678 0.18421218 -0.017829262 0.003625543 0.00252491 0.12658879 0.16006272 0.0048941188
0.19057854 -0.06423734 0.03416241 0.08890626 0.066245705 0.03369215 -0.058427617 0.032251086
-0.0016683252 0.060804155 0.10653432 -0.07968186 -0.07722577 0.032127585 0.07265473 0.245135
00000000: ec77 f0bb 5a3b a63d 3414 a43d b8dc 26bd
00000010: 90e5 87be 99a6 393d 7e5c 5f3d 5887 1c3d
00000020: 0f2d 15be 050e 19be c6d9 0c3e 4afe b13c
00000030: d6d0 c6bd dc10 0cbe 8794 5bbe 13cd d23c
00000040: 59c8 703d 481b 4bbe c405 0bbe 65ac febd
00000050: 2c5b 113e 03b1 ce3c 283e 31be 0df0 86bd
00000060: d44e 71bc 5f87 b7bd c9d2 84bd 81ee bebd
00000070: aca7 43bd 5e92 063d 6eb6 003d a080 843c
00000080: 7181 88ba 3341 473d 7ea4 f6ba 9ab7 bc3d
00000090: ccca 9ebc 96b6 b53d a5d8 f0bc c7ff 7fbd
000000a0: 79ea 243c 63aa 393e 1b50 283e 8587 743d
000000b0: 2fc0 90bd a7cd 0c3e bb91 b63d 2098 0a3e
000000c0: f3cb 663e accf f9bd c4f4 1fbe a08c 13be
000000d0: 7614 7cbd 08c9 2dbc 6029 9abc fa22 aabb
000000e0: 61d0 bbbc 1fa5 7cbc 1618 fabb efb5 03bd
000000f0: 782b 943d acdb adbd b001 2bbe ab0f c7bd
00000100: 348e 4c3c b782 703c 9596 51be 5948 0dbc
00000110: 2fa6 633d 8d52 ab3d baa9 bebd 7958 7d3d
00000120: 1ccd 9a3e b025 a73d d37f a83d 3698 1fbd
00000130: 882b 0bbe 826c 82bb ce0c 263e b14c 2f3e
00000140: 0cef 89bc a474 1f3c 38ec 9ebb 3908 943d
00000150: b16a 903d cc07 663d e04d 00be dd67 30be
00000160: fcf5 afbd 1efd 23bd 9939 0abe fd49 c8bd
00000170: a9c1 42be 1b28 71be 7f54 56bd f848 acbd
00000180: e527 aabd 767a 3cbe c4aa ffbd 6d6b 0fbe
00000190: fed7 b2bd b7df debd f4a2 79bd 2416 00bd
000001a0: 1ea4 8f3c 76ed 92bd 640d d5bd b94f eebd
000001b0: bc4f 893d ab7d 993d 56a9 8c3d 0825 86bd
000001c0: a23d 42bd 46e4 ca3c f884 0b3e b33e b03d
000001d0: 844e 883d 46df 1e3d 83a3 7e3d 2b99 f03d
000001e0: 0619 d1bd 6e1f d33d 6481 9c3d acf5 7a3e
000001f0: 9bbb 933d 005c debd b9f9 15be d23c b1be
00000200: 0592 adbe 59bb c1be 763f 87bc c24d d3bd
00000210: b6fb 203d b8a6 083e c4ec b5bd d118 c2bd
00000220: f09d 26bd c833 073e 7382 e93d 89fe 4b3e
00000230: 398c aebd ae7b 93bd dc10 933d dac1 c13c
00000240: d619 f4bc 20b5 2f3e 9bec 7abc 4c57 21bd
00000250: c935 02bc 7ce2 33be dcfd dfbc 5d7e 7a3d
00000260: 0ff9 a7bc 7510 e0bd ac33 28be 986a 173d
00000270: 911c ce3d 425b e93c 17a0 fa3d f88b c7bd
00000280: 2802 513e 1ab0 153d cd6f a6bd 4806 caba
00000290: 014e 09bd 97d1 273d 48bc b6bd 0001 3f3d
000002a0: 53c0 be3d 3903 b33d 327a e03d 7ec9 1b3d
000002b0: 135c 6ebd 0e67 2dbd d4aa dc3d 1880 74bd
000002c0: 14fa 983d 995e 8d3d b064 663d 9ae6 083e
000002d0: 61a6 123d e30f a4bd fd6a 943c 5d0f bb3d
000002e0: 69f5 e4bd d053 cc3d 175b c3bd 7e63 983c
000002f0: 98a2 49bd 1c78 52be 12f5 06be f321 b3bd
00000300: 37c5 a0bc aaf1 22be 8429 acbe 5e38 74bd
00000310: b56a 8c3d 16d8 263e 1ff9 e43c fecc 4ebe
00000320: 3c54 51bd e526 86bd 4112 2abd 40b1 cebd
00000330: 168d 6ebe ef60 3ebd 1ff7 c63c 813a 263d
00000340: 7861 50bd dd42 60be 5a1e c53c c481 983d
00000350: ef9e bbbd 3e95 babd 2889 2ebe 67c3 c83d
00000360: 07b6 5ebd bfdd 8fba 2d8f 1fbd dde4 90bd
00000370: d0a5 163e 2554 49bb a25a 033e c58a 1bbc
00000380: b05d 3ebd 81dc 17bd 2685 68ba d959 c6bd
00000390: 1a39 cebc 359f 84be ff26 1e3d 663c 40bb
000003a0: 1eb4 033e 1ea2 3c3e ac0e 92bc 859a 6d3b
000003b0: f678 253b 7ea0 013e 7be7 233e d85e a03b
000003c0: 0527 433e de8e 83bd e2ed 0b3d 7c14 b63d
000003d0: d4ab 873d c800 0a3d cc51 6fbd b719 043d
000003e0: b4ab daba c70d 793d aa2e da3d 3e30 a3bd
000003f0: 8b28 9ebd 3798 033d 01cc 943d ab04 7b3e

conv2.bias f4 [20]
0.13492584 -0.03473908 -0.03870802 -0.07022228 -0.096830525 -0.1485349 0.19121344 -0.034742787
0.064740084 -0.061864983 -0.064269796 0.009034078 0.06027014 0.06657019 -0.023285167 -0.03379701
0.015275978 0.007114561 0.02925388 -0.040637143
00000000: 002a 0a3e 914a 0ebd 4d8c 1ebd b3d0 8fbd
00000010: 154f c6bd 8819 18be 75cd 433e 744e 0ebd
00000020: 7396 843d 2366 7dbd e29f 83bd ab03 143c
00000030: d3dd 763d f455 883d 89c0 bebc bc6e 0abd
00000040: 1848 7a3c 4321 e93b d5a5 ef3c 2273 26bd

fc1.weight f4 [50, 320]
0.11619579 0.048874017 -0.014306228 -0.064469196 0.05622029 -0.06716678 0.03465242 0.1494071
0.10770938 0.107291214 -0.062988095 -0.0019301836 0.11342672 0.004986953 -0.10451152 -0.23524566
0.11650174 0.13208638 0.066065535 0.108382806 0.05717367 0.077759795 0.10134551 0.027384074
-0.1863416 -0.047145333 0.09939513 -0.08578131 -0.05161407 0.020920275 -0.094040714 -0.16792998
-0.011939155 0.0508055 0.15557434 -0.06615548 -0.114817016 -0.09879302 0.07097915 0.05544983
-0.15450054 -0.079841286 -0.06814125 0.081432015 -0.022630498 0.001394657 0.16698451 0.26867536
0.050476287 0.088230595 0.024847297 -0.23438811 0.07020901 0.02827191 -0.05097854 -0.41951287
0.047873486 -0.1702772 -0.1274786 0.064197086 -0.06814657 0.066275395 0.028793264 0.13678016
0.13687664 0.022390028 0.050324455 0.04675296 0.09690314 0.06356552 -0.025624555 0.073474556
-0.07827375 -0.11861951 -0.018610755 -0.0964107 -0.24620497 -0.029393267 0.023825413 -0.0055228192
0.007600953 -0.015839774 0.12581564 0.09761472 -0.048942234 0.00670915 0.078313634 0.107968725
0.062630475 0.062496707 0.18502963 0.11877993 -0.018751187 -0.0052426816 0.018077893 -0.025591748
0.082675494 0.13276017 0.0111230705 0.033300214 0.018102547 0.035067745 0.02472986 -0.032822218
0.14770508 0.057978507 0.01915914 0.07139098 0.104286425 -0.033644184 -0.06678298 -0.16313368
0.067626685 0.03796312 0.03902569 0.17884184 0.03490803 0.051548112 0.08391871 -0.045695238
-0.09192003 -0.06080878 -0.0648251 -0.11491824 -0.06194925 -0.14154953 -0.0053167706 0.12060289
0.1440938 0.19336118 0.09578147 -0.09963103 0.077465005 0.091629244 -0.048696194 -0.092832625
0.038791966 -0.06929915 0.056518808 0.07219788 0.0580262 0.09695985 0.08920525 -0.068473525
-0.050922953 0.030795772 0.025522375 0.018093294 0.008376416 0.028795548 0.033926092 0.09742002
-0.18406923 0.09074385 -0.06324537 0.0051173344 -0.07660446 -0.030942319 -0.067202315 0.05340066
0.017628513 0.03404971 0.025478983 -0.018647918 0.03153257 -0.0025459055 -0.18926698 -0.15210664
0.1038717 0.029185237 -0.122390345 0.08300891 -0.019618798 -0.016232211 -0.0049583386 0.04722226
0.0639301 0.00889024 0.053316753 -0.0057283575 -0.11073366 -0.17690113 -0.076686494 0.08804256
-0.08089036 -0.13298255 0.039413266 0.105789535 0.005314664 -0.022199325 0.081054695 0.10872027
0.024773987 -0.023073893 -0.015980717 -0.013451123 -0.037935648 0.013267142 0.0723671 0.042015262
0.06268763 0.09418686 -0.006994666 -0.12798238 0.08777441 0.08556242 -0.14061902 -0.18373996
0.034770913 0.012137123 -0.07539641 0.098353796 -0.04813436 0.02004883 -0.11565424 0.022030644
0.020733932 0.06605972 0.1545359 0.029251719 0.008438206 0.07153455 0.0297019 -0.18080087
-0.039197832 0.03676389 -0.042018514 0.0047776448 0.02829314 -0.07857073 -0.020299323 0.065658376
-0.022623332 0.010077679 0.0039755655 0.0077084624 0.083996885 0.06259269 -0.03247554 -0.081818216
0.16796458 0.047272217 0.055383235 -0.102382615 -0.025360217 0.023236256 0.01934633 0.033486415
0.023686286 0.011203828 0.03689395 0.059504613 0.074438214 0.096750885 -0.13879563 -0.11454023
00000000: 0ff8 ed3d 1f30 483d ab64 6abc 6d08 84bd
00000010: 3f47 663d bd8e 89bd b2ef 0d3d 2dfe 183e
00000020: bc96 dc3d 7fbb db3d e7ff 80bd 37fe fcba
00000030: 454c e83d 9869 a33b 230a d6bd 3de4 70be
00000040: 7798 ee3d a741 073e 5e4d 873d cef7 dd3d
00000050: f02e 6a3d 8740 9f3d 3c8e cf3d 9154 e03c
00000060: 55d0 3ebe 771b 41bd ad8f cb3d 1dae afbd
00000070: 4669 53bd ff60 ab3c 6b98 c0bd d6f5 2bbe
00000080: 729c 43bc 6e19 503d e14e 1f3e 867c 87bd
00000090: 2f25 ebbd ff53 cabd 845d 913d 5c1f 633d
000000a0: 6435 1ebe d483 a3bd a48d 8bbd d4c5 a63d
000000b0: 9863 b9bc eccc b63a fdfd 2a3e d18f 893e
000000c0: 39c0 4e3d 3eb2 b43d 8f8c cb3c 7003 70be
000000d0: bec9 8f3d 7e9a e73c e0ce 50bd 64ca d6be
000000e0: fd16 443d 255d 2ebe c089 02be c379 833d
000000f0: 6e90 8bbd 65bb 873d dadf eb3c 1910 0c3e
00000100: 6429 0c3e 4b6b b73c 0421 4e3d 0880 3f3d
00000110: 2775 c63d a42e 823d 96ea d1bc d479 963d
00000120: fd4d a0bd c9ee f2bd 9575 98bc f972 c5bd
00000130: 281d 7cbe 26ca f0bc 832d c33c c4f8 b4bb
00000140: 6a11 f93b 6ac2 81bc d1d5 003e 3aea c73d
00000150: a777 48bd 6ed8 db3b e662 a03d b51e dd3d
00000160: 6844 803d 8cfc 7f3d 6878 3d3e e442 f33d
00000170: 179c 99bc cdca abbb 1718 943c c9a5 d1bc
00000180: c551 a93d 48f2 073e 8a3d 363c ce65 083d
00000190: cb4b 943c 32a3 0f3d 4696 ca3c 9770 06bd
000001a0: 0040 173e df7a 6d3d a1f3 9c3c 6f35 923d
000001b0: 1f94 d53d 7cce 09bd 84c5 88bd 840c 27be
000001c0: dc7f 8a3d 377f 1b3d 67d9 1f3d 5122 373e
000001d0: b9fb 0e3d 1d24 533d 93dd ab3d ee2a 3bbd
000001e0: 9240 bcbd a112 79bd 06c3 84bd 415a ebbd
000001f0: 7fbe 7dbd 5cf2 10be 4e38 aebb a6fe f63d
00000200: 538d 133e 7900 463e 1329 c43d 5a0b ccbd
00000210: f9a5 9e3d 1da8 bb3d a975 47bd 081f bebd
00000220: 53e4 1e3d b6ec 8dbd 4480 673d 7bdc 933d
00000230: e1ac 6d3d e392 c63d 3eb1 b63d d93b 8cbd
00000240: 9694 50bd 6a47 fc3c 4d14 d13c 6338 943c
00000250: 3c3d 093c a4e4 eb3c 16f6 0a3d 2684 c73d
00000260: a57c 3cbe e9d7 b93d ca86 81bd 50af a73b
00000270: cde2 9cbd bf7a fdbc 5ea1 89bd a7ba 5a3d
00000280: ac69 903c b577 0b3d 4db9 d03c 85c3 98bc
00000290: 4c28 013d 35d9 26bb 34cf 41be d8c1 1bbe
000002a0: b0ba d43d e115 ef3c caa7 fabd 9300 aa3d
000002b0: 9ab7 a0bc 6af9 84bc 8f79 a2bb 216c 413d
000002c0: c9ed 823d 5fa8 113c ab62 5a3d f2b4 bbbb
000002d0: 54c8 e2bd 9225 35be cf0d 9dbd a84f b43d
000002e0: d8a9 a5bd 942c 08be ce6f 213d 2fa8 d83d
000002f0: a226 ae3b 5cdb b5bc 0100 a63d bca8 de3d
00000300: d1f2 ca3c 7605 bdbc fee9 82bc 1962 5cbc
00000310: 6962 1bbd 6d5e 593c 3435 943d 3218 2c3d
00000320: 5f62 803d 0ae5 c03d 8333 e5bb d00d 03be
00000330: 12c3 b33d 5a3b af3d 6ffe 0fbe 5426 3cbe
00000340: f26b 0e3d c9da 463c 6f69 9abd b76d c93d
00000350: 8928 45bd 723d a43c 21dc ecbd 9c79 b43c
00000360: 35da a93c 524a 873d a93e 1e3e 4da1 ef3c
00000370: 6740 0a3c b580 923d 6651 f33c dd23 39be
00000380: e88d 20bd bc95 163d 9b1b 2cbd ca8d 9c3b
00000390: 04c7 e73c b1e9 a0bd c44a a6bc e677 863d
000003a0: 9154 b9bc d91c 253c 7645 823b 4597 fc3b
000003b0: 8f06 ac3d 9930 803d 1205 05bd 4f90 a7bd
000003c0: e8fe 2b3e 83a0 413d 88d9 623d faad d1bd
000003d0: 3bc0 cfbc f659 be3c 327c 9e3c 0d29 093d
000003e0: be09 c23c 4390 373c 1c1e 173d 1cbb 733d
000003f0: 1073 983d 5425 c63d 7120 0ebe 1194 eabd

fc1.bias f4 [50]
0.25157845 0.08131968 -0.078283876 0.058173146 0.18503481 0.038772248 0.24528925 0.11770808
0.18791571 0.18631896 0.11076464 0.02286695 0.23992889 0.3125415 0.13926153 -0.025347367
0.043965146 0.28052175 -0.09995204 0.052552223 0.20601398 0.15965973 0.21256793 0.07774887
0.21867704 0.18154003 0.15148556 0.21749857 0.3391221 0.36745012 0.19654141 0.06348834
0.07926328 0.06622306 0.05173276 0.062015746 0.20642352 -0.033477668 0.12705037 0.027314913
0.18225382 -0.011973744 -0.066244304 0.08090348 0.18506569 0.082113065 0.09772117 0.14729328
0.030009063 0.4122914
00000000: e4ce 803e ef8a a63d 4c53 a0bd f746 6e3d
00000010: c479 3d3e a6cf 1e3d 1b2d 7b3e ef10 f13d
00000020: fa6c 403e 66ca 3e3e 92d8 e23d 7853 bb3c
00000030: ebaf 753e 7105 a03e 939a 0e3e 48a5 cfbc
00000040: cc14 343d 8ca0 8f3e a8b3 ccbd 0041 573d
00000050: 54f5 523e d77d 233e 68ab 593e cd3a 9f3d
00000060: e0ec 5f3e a1e5 393e 081f 1b3e f2b7 5e3e
00000070: 69a1 ad3e 6c22 bc3e 2742 493e 2d06 823d
00000080: c954 a23d f59f 873d bbe5 533d 3904 7e3d
00000090: b060 533e e11f 09bd 7e19 023e 86c3 df3c
000000a0: bfa0 3a3e 862d 44bc 18ab 87bd b9b0 a53d
000000b0: dc81 3d3e e52a a83d 0922 c83d 0dd4 163e
000000c0: 91d5 f53c dc17 d33e

fc2.weight f4 [10, 50]
0.08787424 -0.042022444 0.08998123 -0.27534333 -0.06191955 0.030127015 -0.30000505 -0.34571555
-0.29507625 -0.30497923 0.124151394 -0.11652452 0.12059382 -0.029569358 0.19972292 -0.23989186
0.18058047 0.12674637 -0.42801365 -0.4183726 -0.26693222 0.058153763 -0.20680088 0.08566756
-0.31795445 -0.32335347 0.063265964 -0.19656473 0.0951058 0.16150723 -0.28588268 0.05632146
0.020262536 -0.15916598 -0.20946445 -0.25346127 -0.4510911 -0.1961799 0.15077473 0.021335283
-0.3361485 -0.20786378 -0.319521 -0.26246324 -0.2758828 0.13843037 0.10198541 0.17780131
0.024152473 0.13806276 0.105836734 -0.26736438 -0.15834105 0.017647069 0.13595201 0.14238481
0.18902981 0.010901909 0.12837741 0.12046182 -0.13412505 -0.18463384 0.093183555 0.19862254
-0.23693676 -0.17267102 -0.23758918 0.08598808 -0.3334214 -0.2478721 0.15117759 0.008628149
0.17281316 -0.3192342 0.0826988 0.11557532 -0.22559233 0.1911708 0.063642934 0.1518467
0.0832623 -0.29439884 -0.15419075 -0.25618753 -0.109503694 0.11837165 0.094861515 -0.20984153
-0.21359827 -0.2975975 0.19072528 -0.34764403 -0.2277855 0.06280514 0.15859519 -0.24885033
-0.1422197 -0.2436525 -0.3437089 0.098224215 0.12101425 0.08301392 0.10475201 -0.19839574
0.14068863 -0.23355994 0.21449372 0.047433645 0.15299544 -0.12645303 0.14311624 0.11177043
-0.19261041 -0.017994141 -0.10845664 0.12364675 0.13989544 0.1292637 -0.1756187 -0.1407852
-0.05560017 0.0807971 -0.12822288 -0.24058844 -0.20122412 0.14632745 0.11107197 0.1979691
-0.1815618 -0.15579847 0.11893215 -0.03765217 0.17216432 -0.27871725 -0.11182702 0.10565849
-0.2853124 -0.059715364 -0.20984027 -0.026635366 -0.23395567 -0.054085184 0.13577467 0.13081901
-0.04766449 0.13151675 0.10203328 -0.05898504 -0.28224915 -0.15808956 -0.11800309 -0.23661168
0.09141158 -0.26048312 -0.29515213 0.17828804 -0.0056370655 0.008428169 0.12981153 0.17118259
0.12256597 -0.081779346 -0.1721622 -0.22629945 -0.038329586 0.058392096 -0.08536341 -0.2267093
0.11305555 0.064066336 -0.2130497 0.049294855 -0.13828215 -0.24658765 0.14134595 0.11292836
0.10803278 -0.14356525 0.0988402 -0.27765492 -0.15953344 0.09121052 0.19216835 -0.13844739
-0.0008930436 0.14147525 0.096570894 -0.09068129 -0.19457544 0.07662173 -0.01821653 -0.18388167
0.093596995 0.12994877 0.012333619 -0.13608335 0.10709553 -0.31396383 -0.15662453 0.13285321
-0.01961912 0.21033862 0.07494466 0.14016888 0.13572717 -0.25866273 -0.13940044 -0.09115092
-0.077004746 -0.023520317 -0.19813044 -0.05804707 -0.10684082 0.21618636 -0.35741466 0.124439284
0.055911176 -0.061795644 -0.14763115 0.05152155 0.18139835 -0.28264952 0.1734256 0.094727784
-0.18980749 0.0012922133 0.08667116 -0.0780717 -0.15132225 -0.13067873 -0.12164054 -0.14789298
-0.022958795 -0.10199702 0.19264965 0.15528569 0.08933925 0.18498458 -0.2795205 -0.107059166
0.15450734 -0.15734926 -0.2287296 0.11244279 -0.06273833 -0.1651694 -0.30622646 0.16419198
0.08308989 -0.2878805 -0.14487597 -0.004272051 -0.33643273 -0.14895535 -0.19381139 0.20122498
00000000: 69f7 b33d ba1f 2cbd 1448 b83d cdf9 8cbe
00000010: 5b9f 7dbd eecc f63c 439a 99be a101 b1be
00000020: 3c14 97be 3d26 9cbe 1643 fe3d 68a4 eebd
00000030: e5f9 f63d 703b f2bc 2a84 4c3e 36a6 75be
00000040: 16ea 383e cdc9 013e 9b24 dbbe ef34 d6be
00000050: 57ab 88be a432 6e3d 9cc3 53be 7972 af3d
00000060: edca a2be 968e a5be 9691 813d 4448 49be
00000070: d4c6 c23d 2762 253e 375f 92be 55b1 663d
00000080: 9efd a53c 68fc 22be d97d 56be adc5 81be
00000090: 6af5 e6be 62e3 48be b164 1a3e 55c7 ae3c
000000a0: a81b acbe 3eda 54be 4298 a3be 9561 86be
000000b0: 8340 8dbe b1c0 0d3e badd d03d 8c11 363e
000000c0: 68db c53c 5360 0d3e eec0 d83d fce3 88be
000000d0: 2824 22be 9690 903c 0137 0b3e 53cd 113e
000000e0: 0891 413e ec9d 323c 5e75 033e b0b4 f63d
000000f0: 1458 09be a710 3dbe 05d7 be3d b563 4b3e
00000100: 8d9f 72be acd0 30be 944a 73be 851a b03d
00000110: 36b6 aabe 2fd2 7dbe 4cce 1a3e 145d 0d3c
00000120: eff5 303e aa72 a3be fd5d a93d c1b2 ec3d
00000130: ad01 67be 47c2 433e 3a57 823d b47d 1b3e
00000140: 6d85 aa3d 72bb 96be 2ee4 1dbe 032b 83be
00000150: 7943 e0bd d66c f23d c146 c23d b3e0 56be
00000160: 81b9 5abe b35e 98be 7d4d 433e 66fe b1be
00000170: 9a40 69be fb9f 803d c766 223e 9fd2 7ebe
00000180: 0ba2 11be 0a80 79be 9dfa afbe c729 c93d
00000190: 52d6 f73d 3403 aa3d 3988 d63d 4128 4bbe
000001a0: ae10 103e 562a 6fbe 3ea4 5b3e c849 423d
000001b0: d6aa 1c3e e77c 01be 108d 123e e5e7 e43d
000001c0: aa3b 45be 7368 93bc 841e debd 823a fd3d
000001d0: c040 0f3e b45d 043e 63d5 33be ff29 10be
000001e0: 01bd 63bd f378 a53d dc4c 03be d15c 76be
000001f0: b20d 4ebe ddd6 153e b379 e33d 69b8 4a3e
00000200: 56eb 39be a289 1fbe b392 f33d 2939 1abd
00000210: d84b 303e 07b4 8ebe 9105 e5bd 7a63 d83d
00000220: 7814 92be 1998 74bd 5ee0 56be 6932 dabc
00000230: 1392 6fbe 6d88 5dbd 8408 0b3e 6bf5 053e
00000240: d73b 43bd 54ac 063e d3f6 d03d 4c9a 71bd
00000250: f682 90be 3be2 21be 9bab f1bd 554a 72be
00000260: ff35 bb3d 0b5e 85be 2e1e 97be 2491 363e
00000270: 22b7 b8bb 4e16 0a3c 50ed 043e 7d4a 2f3e
00000280: de03 fb3d ee7b a7bd 4a4b 30be 0bbb 67be
00000290: 7cff 1cbd 8d2c 6f3d 03d3 aebd 7c26 68be
000002a0: ab89 e73d 3635 833d b329 5abe 67e9 493d
000002b0: d699 0dbe 7981 7cbe febc 103e fc46 e73d
000002c0: 4a40 dd3d c502 13be bb6c ca3d c928 8ebe
000002d0: bc5c 23be 95cc ba3d c8c7 443e 27c5 0dbe
000002e0: 241b 6aba e3de 103e f6c6 c53d 1db7 b9bd
000002f0: c93e 47be dbeb 9c3d d53a 95bc 7a4b 3cbe
00000300: c8af bf3d 4a11 053e f312 4a3c 6f59 0bbe
00000310: e754 db3d debf a0be 2e62 20be ac0a 083e
00000320: 47b8 a0bc 0263 573e 967c 993d 6e88 0f3e
00000330: 10fc 0a3e 716f 84be fdbe 0ebe 55ad babd
00000340: aab4 9dbd aead c0bc b5e2 4abe c4c2 6dbd
00000350: 5ccf dabd f55f 5d3e 0eff b6be 06da fe3d
00000360: 1e03 653d 6e1d 7dbd 9f2c 17be 4308 533d
00000370: 7dc0 393e 70b7 90be 7b96 313e a400 c23d
00000380: e55c 42be 7c5f a93a a680 b13d 0ee4 9fbd
00000390: 38f4 1abe a5d0 05be ad1e f9bd 4271 17be
000003a0: 1514 bcbc d0e3 d0bd f345 453e 3603 1f3e
000003b0: 7ff7 b63d 996c 3d3e 501d 8fbe d641 dbbd
000003c0: 2c37 1e3e 2a20 21be 1838 6abe 6848 e63d
000003d0: f47c 80bd 2b22 29be b7c9 9cbe f121 283e
000003e0: 082b aa3d 1365 93be 5e5a 14be 90fc 8bbb
000003f0: e940 acbe c087 18be 7e76 46be ec0d 4e3e

fc2.bias f4 [10]
0.37109065 0.5369123 -0.0861746 -0.32086325 -0.050122276 -0.0009875584 -0.07270789 -0.13523845
0.30592015 -0.01649058
00000000: 98ff bd3e 1673 093f 4f7c b0bd 3048 a4be
00000010: 044d 4dbd f670 81ba e0e7 94bd f37b 0abe
00000020: 91a1 9c3e 4117 87bc

exp_avg f4 [10, 1, 5, 5]
0.0004190355 -0.0065127774 -0.010835179 -0.010671961 -0.010802598 -0.0057014893 -0.0140847135 -0.013892225
-0.013127 -0.01044052 -0.0083758235 -0.010100308 -0.010713673 -0.008827434 -0.0045959624 -0.01230887
-0.01062918 -0.009270418 -0.004689337 -0.0010828188 -0.0105886115 -0.0005972363 0.00024342387 0.0030196665
0.004441352 -0.0017261957 -0.0021726282 -0.00093876576 -0.000550072 -0.002504229 0.0021022542 0.00073598843
0.002511152 0.0013627999 -0.0019121653 0.003766205 0.0037048021 0.005847681 0.0020237165 -0.0019861285
0.005219 0.005551094 0.0050667073 0.0015549869 0.0034244072 0.00010407946 0.0010589848 0.0026855464
0.0041573425 0.009503034 0.0043623387 0.002532381 0.0030094413 0.001034188 0.0051385597 0.007399065
0.0035940264 0.004141209 0.004228414 0.0076987813 0.007946555 0.005537506 0.003046691 0.0055272384
0.005401694 0.00344765 0.0055821263 0.0051761856 0.004740149 0.0051531577 0.002082364 0.006903737
0.009228137 0.009626772 0.0049028057 -0.0080328435 -0.0054185544 -0.0026603923 -0.00675357 -0.0090984395
-0.007510878 -0.0053522517 -0.0053362586 -0.0064143986 -0.008350992 -0.006973417 -0.0026810956 -0.00031503843
-0.0039930423 -0.0068339654 -0.0048245788 -0.0015582965 -0.0015217116 -0.004688803 -0.008093612 -0.0027708258
-0.0017052663 -0.0027651438 -0.0030093472 -0.0020900518 0.0021182555 0.0040267473 -0.0020785297 -0.0044945264
-0.004929647 0.0081161475 0.009000408 0.005545922 -0.0013801432 -0.0064967233 0.007970942 0.007981975
0.006277814 -0.00052897003 -0.0065548066 0.0059439884 0.004094571 -0.00068767875 -0.0028989513 -0.00076046854
0.0059410403 0.003106253 -0.00035539226 0.004381231 0.0074272375 0.003956712 0.0022686278 0.0047810255
0.0017531965 0.0047737127 -0.0031623074 -0.0018462335 0.0043548667 0.007574428 0.009110842 -0.0077028973
-0.006351564 -0.0018533447 0.0034222894 0.010693922 -0.011055689 -0.010971564 -0.011367817 -0.005576024
0.0041001956 -0.016316246 -0.01540196 -0.013576602 -0.010256967 -0.0056767766 0.001823315 0.0033000824
0.0007445557 -1.7027854e-05 0.0015780217 0.0008545845 -0.0013316395 0.002393045 0.007536091 0.0064588543
-0.0008377523 -0.0033369742 0.0056240056 0.010780763 0.007367484 8.6232714e-05 -0.00019786386 0.009650815
0.01284799 0.008917667 0.0045556556 0.00670399 0.010574064 0.010059449 0.0064847968 -0.007230068
-0.007204285 -0.004487313 -0.0053763636 -0.002473245 -0.003898952 -0.0032421602 -0.0063191894 -0.006828322
-0.0051944773 0.0012334306 0.00041852807 -0.0018749677 -0.003251106 -0.0029650445 0.003402178 0.0036400594
0.0020413785 -0.00083211105 -0.0025565866 0.0062972596 0.007437773 0.0047828425 0.0026906396 0.0010021528
-0.0023406274 -0.0034641137 -0.0007855326 -0.0010599534 -0.0042080646 -0.0017668173 -0.0026436804 0.0017507949
0.0030453862 0.00014167848 0.001036732 0.0009103477 -0.0017284458 -0.0034351412 -0.0037188004 0.0036764345
0.0007851122 -0.0046021286 -0.008598215 -0.0070600575 0.006453575 0.0037866128 -0.004580162 -0.007971437
-0.006157972 0.00872731 0.0065267044 0.007997713 0.011973533 0.016237712 0.011124102 0.007691003
0.010892501 0.015103733 0.016457586 0.011367021 0.006864705 0.010320294 0.010881568 0.01620535
0.0061211893 0.00015086506 0.005506875 0.011336585 0.01686934 0.0009703821 -0.0027293744 0.0026360343
0.008361665 0.015910378
00000000: feb1 db39 2369 d5bb 0986 31bc 73d9 2ebc
00000010: 61fd 30bc 8fd3 babb 92c3 66bc 379c 63bc
00000020: a112 57bc b70e 2bbc c03a 09bc c37b 25bc
00000030: 6788 2fbc f1a0 10bc ba99 96bb 25ab 49bc
00000040: 0326 2ebc f4e2 17bc 03a9 99bb 5fed 8dba
00000050: db7b 2dbc da8f 1cba 993f 7f39 99e5 453b
00000060: c388 913b 8441 e2ba a762 0ebb 8117 76ba
00000070: b532 10ba fe1d 24bb f9c5 093b 59ef 403a
00000080: 2492 243b fa9f b23a 9fa1 faba 6fd2 763b
00000090: 44cc 723b e79d bf3b 54a0 043b b529 02bb
000000a0: 2504 ab3b f4e5 b53b 9f06 a63b b4d0 cb3a
000000b0: 056c 603b 3c45 da38 a2cd 8a3a feff 2f3b
000000c0: 513a 883b 9db2 1b3c f3f1 8e3b 4ef6 253b
000000d0: 0c3a 453b 978d 873a 5d61 a83b db73 f23b
000000e0: c289 6b3b fbb2 873b 828e 8a3b 0f46 fc3b
000000f0: 4432 023c f873 b53b feaa 473b d61d b53b
00000100: b200 b13b f8f1 613b 45ea b63b fe9c a93b
00000110: 4053 9b3b d2db a83b 4578 083b be38 e23b
00000120: 9d31 173c 9cb9 1d3c b7a7 a03b 309c 03bc
00000130: 218e b1bb fa59 2ebb 0d4d ddbb 9f11 15bc
00000140: d01d f6bb f161 afbb c8db aebb e02f d2bb
00000150: 99d2 08bc 4381 e4bb 52b5 2fbb be2b a5b9
00000160: 11d8 82bb 75ef dfbb 8017 9ebb c13f ccba
00000170: 2b74 c7ba 88a4 99bb 129b 04bc be96 35bb
00000180: 3e83 dfba 6a37 35bb 7838 45bb 40f9 08bb
00000190: 6ed2 0a3b cef2 833b f137 08bb d246 93bb
000001a0: e088 a1bb 97f9 043c 7376 133c 91ba b53b
000001b0: ece5 b4ba 77e2 d4bb 8e98 023c d4c6 023c
000001c0: 1fb6 cd3b 94aa 0aba b4c9 d6bb cac5 c23b
000001d0: c02b 863b 5745 34ba 55fc 3dbb 2e5a 47ba
000001e0: 0fad c23b 4792 4b3b f153 bab9 6e90 8f3b
000001f0: 2f60 f33b 4ea7 813b 42ad 143b 26aa 9c3b
00000200: 83cb e53a ce6c 9c3b b73e 4fbb 51fd f1ba
00000210: 45b3 8e3b e832 f83b a445 153c 9668 fcbb
00000220: c820 d0bb eeeb f2ba 7d48 603b 8f35 2f3c
00000230: ec22 35bc 13c2 33bc 1540 3abc 14b7 b6bb
00000240: ef5a 863b a6a9 85bc 8158 7cbc 6570 5ebc
00000250: d60c 28bc 4104 babb 4dfc ee3a 3246 583b
00000260: 4a2e 433a 0ad7 8eb7 9fd5 ce3a 3206 603a
00000270: 688a aeba a2d4 1c3b 50f1 f63b cca4 d33b
00000280: 9b9c 5bba 23b1 5abb 9449 b83b cca1 303c
00000290: ef6a f13b d6d7 b438 ad79 4fb9 741e 1e3c
000002a0: 6080 523c 681b 123c 9c47 953b 25ad db3b
000002b0: d73e 2d3c 63d0 243c 6b7e d43b 35ea ecbb
000002c0: ec11 ecbb 4f0a 93bb 352c b0bb 2a16 22bb
000002d0: 8f85 7fbb 6c7a 54bb 3411 cfbb 1ec0 dfbb
000002e0: 6f36 aabb 10ab a13a e36d db39 7ac1 f5ba
000002f0: 8210 55bb 3151 42bb 13f7 5e3b 108e 6e3b
00000300: a6c8 053b 0722 5aba 688c 27bb 3e59 ce3b
00000310: 90b8 f33b 64b9 9c3b 7155 303b ab5a 833a
00000320: 3665 19bb 2f06 63bb 33ec 4dba 22ee 8aba
00000330: cee3 89bb 8d94 e7ba 9941 2dbb ee7a e53a
00000340: 1a95 473b 878f 1439 f4e2 873a 66a4 6e3a
00000350: 048d e2ba 1b20 61bb 1eb7 73bb 56f0 703b
00000360: fdcf 4d3a 74cd 96bb 87df 0cbc 0e58 e7bb
00000370: 8378 d33b d228 783b 2f15 96bb a19a 02bc
00000380: d0c8 c9bb fefc 0e3c f7dd d53b d708 033c
00000390: a32c 443c f304 853c de41 363c cf04 fc3b
000003a0: 7676 323c a675 773c 0fd2 863c be3c 3a3c
000003b0: 52f1 e03b 7316 293c 9b48 323c 15c1 843c
000003c0: 4294 c83b 8831 1e39 0473 b43b 15bd 393c
000003d0: 9231 8a3c 3e61 7e3a 4edf 32bb 51c1 2c3b
000003e0: 5dff 083c 7b56 823c

exp_avg_sq f4 [10, 1, 5, 5]
0.0028085045 0.0022880493 0.0017317664 0.0016971637 0.0015131211 0.0024638737 0.0019564643 0.0015384047
0.0016158805 0.0012801996 0.0020073121 0.0015701451 0.0012989051 0.0011578946 0.0011482264 0.0016383557
0.0012724677 0.0011221791 0.0012312529 0.0017021779 0.0013703426 0.001080642 0.0012223857 0.0018877792
0.0017758295 0.0006448827 0.000580392 0.0004984621 0.0003446638 0.00032234483 0.00057855365 0.0005400599
0.0004190399 0.00024972777 0.0003444825 0.00055332173 0.00048200815 0.00034867204 0.00030071623 0.0003302467
0.00051644247 0.00045772028 0.00039981768 0.00038103887 0.00033224802 0.0005176719 0.00045959337 0.00040482622
0.00036912962 0.00035088824 0.00054812373 0.0005444907 0.0006101365 0.00069459085 0.0006872912 0.00048377193
0.00046986883 0.00057200616 0.00068130135 0.00074862986 0.00054202974 0.00051242666 0.00058911566 0.00076747406
0.0007877895 0.00067115563 0.0006390341 0.0007221818 0.0007724853 0.00078130723 0.0008710415 0.00080157846
0.00077371864 0.0007503581 0.00076434534 0.0011482544 0.0010906743 0.0010589624 0.0010371335 0.0010902636
0.0010003975 0.00093046087 0.00084062904 0.00081974076 0.00091958133 0.00085676316 0.00078552775 0.0007003989
0.0007164981 0.0008572397 0.0007486899 0.000729859 0.00072633015 0.00077427615 0.0008148819 0.0008106625
0.00076309964 0.00081013225 0.00079139794 0.00075811625 0.0014505452 0.0012072555 0.00083395635 0.00068312616
0.000789527 0.0013246888 0.0009472271 0.0005573459 0.0007413984 0.00080435665 0.0011976344 0.0006994541
0.0006143481 0.0010071043 0.000733133 0.0009948037 0.00058831694 0.000783488 0.00093735516 0.0006103339
0.00083142763 0.0006811657 0.0008078863 0.0006786507 0.0006010475 0.00050728716 0.0005104948 0.0004802616
0.00047284673 0.0004894947 0.000503727 0.00045257597 0.00039677435 0.0004197362 0.0004682224 0.0004936049
0.00043782458 0.00040347868 0.00043212064 0.0004945406 0.0005109691 0.00050915906 0.00048716163 0.00047471625
0.00054851105 0.00058134104 0.00059240015 0.00058637647 0.00051070034 0.0005631372 0.0011968507 0.0009347952
0.00077099283 0.00069987786 0.0006952796 0.0009788031 0.0007871167 0.0006673267 0.00066212483 0.0007050382
0.00083169213 0.00073880254 0.0007232759 0.00083282316 0.0008718856 0.000727272 0.0007506492 0.0009108147
0.00094273075 0.0008971877 0.00069230376 0.0008708824 0.000861413 0.000726292 0.0007280987 0.00045239547
0.0004330026 0.00045041987 0.0004802779 0.0005285358 0.0004279039 0.0004010227 0.00041925046 0.00044625154
0.0005006345 0.00046025493 0.00043755272 0.00040086964 0.00038076378 0.00043090456 0.00050041033 0.00050309557
0.00046194872 0.00044114553 0.00044856523 0.00044078514 0.00042911817 0.00039354703 0.0003816183 0.0003871273
0.0016692359 0.0014539827 0.0013273786 0.0011711179 0.0009228096 0.0015620939 0.0011128276 0.00094152393
0.00081533164 0.0007952369 0.0011829872 0.0008357339 0.000768698 0.00078425586 0.0009838595 0.00096252654
0.00078384095 0.0006940552 0.0007108326 0.00092101394 0.0009800256 0.0007423692 0.0007290626 0.0007221623
0.0008729143 0.0006539767 0.0007202076 0.0007943046 0.0006949015 0.00063284347 0.0006012457 0.00063601654
0.0006764383 0.00063037814 0.00064484903 0.00055950007 0.0005769093 0.0006294446 0.0006714409 0.00072594744
0.00055062573 0.0006087032 0.0007389963 0.00073513755 0.0007183456 0.0005960142 0.00063834793 0.00069412775
0.00069827645 0.00069165434
00000000: e30e 383b 19f3 153b 70fc e23a 5d73 de3a
00000010: eb53 c63a f178 213b 0638 003b 4ca4 c93a
00000020: f4cb d33a 5fcc a73a 1c8d 033b 54cd cd3a
00000030: 0640 aa3a 7fc4 973a 1680 963a 18be d63a
00000040: eec8 a63a 1516 933a fe61 a13a 9d1b df3a
00000050: 119d b33a 54a4 8d3a 7538 a03a 5c6f f73a
00000060: f3c2 e83a 580d 293a 7325 183a 3aab 023a
00000070: feb3 b439 6400 a939 14aa 173a ce92 0d3a
00000080: 95b2 db39 e5ed 8239 a99b b439 cb0c 113a
00000090: 0ab6 fc39 f8cd b639 73a9 9d39 f624 ad39
000000a0: de61 073a 2dfa ef39 9f9e d139 2cc6 c739
000000b0: 9331 ae39 60b4 073a 94f5 f039 db3e d439
000000c0: bd87 c139 6cf7 b739 f6af 0f3a 27bc 0e3a
000000d0: 91f1 1f3a 3415 363a 552b 343a c5a2 fd39
000000e0: ba58 f639 aff2 153a 5c99 323a b33f 443a
000000f0: 0017 0e3a 5f54 063a e26e 1a3a 5030 493a
00000100: a983 4e3a 7ef0 2f3a da84 273a cd50 3d3a
00000110: 9c80 4a3a a4d0 4c3a 9b56 643a 0521 523a
00000120: 61d3 4a3a aeb3 443a 595e 483a 0681 963a
00000130: f5f4 8e3a e2cc 8a3a 6df0 873a 2de7 8e3a
00000140: c51f 833a 2cea 733a a95d 5c3a dfe3 563a
00000150: 0f10 713a 6798 603a e0eb 4d3a f99a 373a
00000160: 60d3 3b3a 62b8 603a bb43 443a 0254 3f3a
00000170: 3167 3e3a cbf8 4a3a cc9d 553a a482 543a
00000180: c00a 483a 0e5f 543a d175 4f3a 52bc 463a
00000190: 3820 be3a c63c 9e3a dd9d 5a3a d213 333a
000001a0: 43f8 4e3a 2ea1 ad3a 564f 783a da1a 123a
000001b0: 685a 423a 76db 523a f1f9 9c3a 925b 373a
000001c0: 340c 213a d000 843a b92f 403a 1364 823a
000001d0: 4839 1a3a fd62 4d3a d7b8 753a d1fe 1f3a
000001e0: 2af4 593a 4290 323a 55c8 533a 7ae7 313a
000001f0: 9d8f 1d3a 77fb 043a bad2 053a 9fcb fb39
00000200: 6ae8 f739 6f51 003a 8c0c 043a b847 ed39
00000210: 2706 d039 0a10 dc39 bf7b f539 4465 013a
00000220: d28b e539 fe89 d339 408e e239 0fa4 013a
00000230: 8ef2 053a 1679 053a ba69 ff39 56e3 f839
00000240: f4c9 0f3a 2365 183a 4d4b 1b3a 0fb7 193a
00000250: 85e0 053a 7f9f 133a a5df 9c3a 0b0d 753a
00000260: 741c 4a3a 0278 373a 6d43 363a 2f4b 803a
00000270: 8256 4e3a 89ef 2e3a 7292 2d3a 50d2 383a
00000280: ea05 5a3a 33ac 413a 399a 3d3a d151 5a3a
00000290: 418f 643a 66a6 3e3a 37c7 443a bdc3 6e3a
000002a0: 9721 773a 3f31 6b3a b87b 353a ee4b 643a
000002b0: 73d0 613a a264 3e3a e0dd 3e3a 7e2f ed39
000002c0: a004 e339 5526 ec39 cfcd fb39 708d 0a3a
000002d0: 4a58 e039 5b40 d239 d8ce db39 def6 e939
000002e0: 033d 033a 5f4e f139 5567 e539 d02b d239
000002f0: 40a1 c739 08eb e139 f82d 033a 2ce2 033a
00000300: b531 f239 8d49 e739 682d eb39 2e19 e739
00000310: 44fb e039 fd54 ce39 f113 c839 59f7 ca39
00000320: 43ca da3a 9093 be3a 6ffb ad3a 3280 993a
00000330: b4e8 713a 2cbf cc3a 4cdc 913a 9ad0 763a
00000340: fbbb 553a 7277 503a 770e 9b3a 2715 5b3a
00000350: 7382 493a 8596 4d3a d9f4 803a 1052 7c3a
00000360: ad7a 4d3a 42f1 353a 2b57 3a3a 3370 713a
00000370: 3474 803a 8e9b 423a 901e 3f3a 7e4f 3d3a
00000380: 49d4 643a a26f 2b3a 50cc 3c3a e138 503a
00000390: 0d2a 363a 68e5 253a ea9c 1d3a 59ba 263a
000003a0: 0253 313a f63f 253a 160b 293a 6aab 123a
000003b0: ba3b 173a 5001 253a a303 303a 824d 3e3a
000003c0: de57 103a 6191 1f3a 34b9 413a 3fb6 403a
000003d0: 5b4f 3c3a d63d 1c3a ce56 273a 20f6 353a
000003e0: 8a0c 373a 2350 353a

exp_avg f4 [10]
0.011709429 -0.0038146114 0.00035470282 -7.9536345e-05 -0.008128329 -0.0029362417 6.687979e-05 -3.9115665e-05
0.0062670256 -0.0047533493
00000000: e8d8 3f3c 8ffe 79bb 68f7 b939 c0cc a6b8
00000010: af2c 05bc f66d 40bb d041 8c38 2010 24b8
00000020: 9f5b cd3b fcc1 9bbb

exp_avg_sq f4 [10]
0.0027667324 0.0006487608 0.0008206588 0.00093154307 0.0020134079 0.0005700832 0.0011489716 0.00053732365
0.0020589798 0.0005900392
00000000: 1152 353b 9a11 2a3a 7b21 573a cc32 743a
00000010: 61f3 033b a371 153a 1799 963a 2edb 0c3a
00000020: f3ef 063b dcac 1a3a

exp_avg f4 [20, 10, 5, 5]
0.0015769877 -0.00017256409 -0.00065998366 -2.9883975e-05 0.0006343713 0.0011284206 0.0033137784 0.0021968835
0.00044051453 0.0009411617 0.0018826858 0.0027322758 0.0036979325 -0.00010716712 0.0003526515 -0.001761539
0.0006228391 0.001356682 0.00048083684 -0.0012513521 -0.005209454 -0.0055657867 -0.0044293306 0.00020204681
0.0024322616 -0.0018935932 -0.0002546221 0.0003433616 0.002751673 0.0012307188 -0.00074675755 -0.0015609427
0.0003060672 0.0013863423 0.0006488597 7.403168e-05 -0.00090237084 0.001931445 0.0017555002 0.00021255737
-0.00054847373 0.0011892064 -0.0005163652 0.00055831746 -0.00020710968 -0.0013648361 -0.00039857032 -0.0020242028
-0.0020304306 -0.0010426184 0.0046793343 0.0010115159 -0.0027778586 -0.0026202255 0.002207898 -7.730207e-05
-0.0010129875 -0.00080157747 -0.001813123 0.0031859644 -0.00037238048 -0.0008617271 -0.0017854117 0.0005303634
0.004925071 -0.0002581978 -3.0477873e-05 0.00032477707 0.0049097305 0.0040532877 0.00090018456 -0.0018319291
0.00021211054 0.0027285845 -0.0017270972 -0.0025892432 -0.0009656461 0.0004189982 -0.001304809 -0.0008711213
-0.0008603171 -0.0013947827 -0.0010044628 -0.0003023589 2.1083108e-05 -0.0008446971 -0.0010334288 -0.0022570435
-0.0007740581 -0.00022214232 -0.0018385922 -0.0029956882 -0.0021763162 -0.0010431898 0.0015731839 0.0029745293
0.0031822547 0.003032042 0.0021407104 -0.0004033249 -0.0007413827 -0.001830844 -0.0011493408 0.0041434257
0.0029121437 -0.0012232298 -0.0017697439 -2.4251144e-06 0.0032730296 0.0026440772 -0.000899194 -0.0012295716
0.0032546092 0.0015603128 -1.0841815e-06 -0.0017641746 0.0014950687 0.003820994 0.00065157993 -0.00129244
-0.0016881645 0.0010278278 0.0012135986 -0.004462346 -0.0019145807 -0.002813481 -0.00454069 -0.0005623269
0.0020363596 0.0015617049 0.00024812363 -0.003807262 -0.0044857874 0.0004857022 0.0018516805 -0.0010825722
0.00039661652 -0.0019857623 -0.002601309 -2.7977809e-05 -0.00021229274 -0.0013882566 0.0026245583 -0.0030326613
-0.00067656784 -0.0012280766 -0.00025646092 0.0042614527 0.0008492981 -0.0007131453 -0.00013691583 -7.32624e-05
-0.0007343855 0.00055904937 0.0013131883 0.0002325374 0.0004954834 -0.00076715916 -0.00015654796 3.400204e-05
-0.0005710908 0.0004129197 0.00087639806 0.0007739313 0.0008278041 -0.00020505115 -0.00011319438 -0.0009021309
-0.001086924 -0.0008560163 -0.0036787079 -0.002639784 -0.0008072221 -0.00045176412 -0.0006050908 -0.00020142966
0.00027223775 0.0021534069 0.0030421482 0.0026467957 0.0012694671 0.0016236398 0.0026101768 0.0019894997
0.0003080713 -2.1135236e-05 0.0017176133 0.0023582908 0.0008681612 -0.00024347013 -0.002287791 0.0003168893
0.0003734323 -0.000481732 -0.00039172117 -0.0016037 -0.0015858389 -0.002872159 -0.0015832355 0.00082966534
-0.0010590111 -0.0020303044 -0.0011525443 0.000114260685 0.0013395873 0.00072104327 -0.0017139376 -0.00045854386
-0.00035937608 -2.0634652e-05 -0.00049476285 0.00014408155 -0.0009488341 0.0023947016 0.0011164839 0.0033379092
0.0046511544 0.0029726715 0.0005177875 -0.0005562422 -0.0046497993 -0.003908424 0.00053984876 0.00018902674
-0.00012888025 0.0022598957 -0.0012786203 -0.0035935373 -0.0009997382 0.0015317635 -0.0006225908 0.0005274012
-0.0018872275 -0.0019302283 0.0005440112 -0.00015106524 -0.00024367296 -0.0002477322 -0.0006370356 0.00019144433
-0.0018840194 -0.0005948221 -2.701508e-05 0.0012214275 -0.000844474 -0.0048824847 -0.0038889288 -0.003095517
0.00049695553 0.0008652021 -0.0042490456 -0.0006414016 -0.0014860336 -0.0029839475 -0.0029655928 -0.0042999117
00000000: edb2 ce3a 52f2 34b9 c102 2dba 59af fab7
00000010: f04b 263a 83e7 933a fa2b 593b 97f9 0f3b
00000020: dcf4 e639 4bb8 763a 74c4 f63a fb0f 333b
00000030: 0359 723b e9be e0b8 15e4 b839 71e3 e6ba
00000040: 0646 233a b2d2 b13a d418 fc39 6904 a4ba
00000050: 11b4 aabb 3461 b6bb eb23 91bb 87dc 5339
00000060: 9466 1f3b 7232 f8ba cd7e 85b9 3705 b439
00000070: 6a55 343b 1250 a13a 0dc2 43ba 8c98 ccba
00000080: a577 a039 eeb5 b53a 3d18 2a3a 7541 9b38
00000090: 158d 6cba 8a28 fd3a d018 e63a efe1 5e39
000000a0: 73c7 0fba 25df 9b3a af5c 07ba 0d5c 123a
000000b0: 952b 59b9 4de4 b2ba 34f7 d0b9 7da8 04bb
000000c0: f910 05bb 78a8 88ba 1a55 993b d794 843a
000000d0: bc0c 36bb 17b8 2bbb 62b2 103b 3c1d a2b8
000000e0: 38c6 84ba f420 52ba 50a6 edba 9dcb 503b
000000f0: 103c c3b9 87e5 61ba 7a04 eaba 1608 0b3a
00000100: 7d62 a13b b95e 87b9 bcaa ffb7 d746 aa39
00000110: cee1 a03b 71d1 843b 5dfa 6b3a 571d f0ba
00000120: fd69 5e39 0dd2 323b c45f e2ba 4bb0 29bb
00000130: 6a23 7dba fdac db39 2006 abba f65b 64ba
00000140: e786 61ba 24d1 b6ba 2ea8 83ba ed85 9eb9
00000150: a1db b037 aa6e 5dba 1e74 87ba e8ea 13bb
00000160: 29ea 4aba e0ee 68b9 ebfc f0ba 4f53 44bb
00000170: 87a0 0ebb a4bb 88ba 4b33 ce3a 52f0 423b
00000180: 608d 503b 39b5 463b 294b 0c3b 5a75 d3b9
00000190: 5a59 42ba eef8 efba 7aa5 96ba 93c5 873b
000001a0: aad9 3e3b c854 a0ba c0f6 e7ba 26bf 22b6
000001b0: 5380 563b 4148 2d3b e3b7 6bba 9429 a1ba
000001c0: 484b 553b 6983 cc3a 3184 91b5 e03b e7ba
000001d0: 2ef6 c33a a469 7a3b cace 2a3a 1767 a9ba
000001e0: 6745 ddba 2eb8 863a 9d11 9f3a df38 92bb
000001f0: abf2 faba 6162 38bb 12ca 94bb 1f69 13ba
00000200: 7274 053b 1fb2 cc3a 9716 8239 4283 79bb
00000210: 83fd 92bb d9a5 fe39 16b4 f23a 18e5 8dba
00000220: f8f0 cf39 9023 02bb b97a 2abb e3b1 eab7
00000230: e69a 5eb9 29f6 b5ba c800 2c3b 9dbf 46bb
00000240: b35b 31ba 6af7 a0ba 9a75 86b9 a8a3 8b3b
00000250: 6ea3 5e3a 5ff2 3aba 1091 0fb9 74a4 99b8
00000260: c783 40ba 2b8d 123a 4a1f ac3a 48d5 7339
00000270: 54e3 013a 2e1b 49ba 0627 24b9 6a9d 0e38
00000280: 41b5 15ba 257d d839 14be 653a a6e1 4a3a
00000290: fe00 593a 0003 57b9 c562 edb8 fb7c 6cba
000002a0: 1e77 8eba 4866 60ba 7a16 71bb 3a00 2dbb
000002b0: c29b 53ba c1da ecb9 f59e 1eba dd36 53b9
000002c0: 22bb 8e39 2c20 0d3b c75e 473b dd75 2d3b
000002d0: 3f64 a63a 50d0 d43a 800f 2b3b 4462 023b
000002e0: a184 a139 934b b1b7 8a21 e13a 8e8d 1a3b
000002f0: 5095 633a 044c 7fb9 c4ee 15bb 2924 a639
00000300: 3cc9 c339 f990 fcb9 ed5f cdb9 3e33 d2ba
00000310: ecdb cfba d53a 3cbb 9184 cfba e67d 593a
00000320: 84ce 8aba db0e 05bb f810 97ba 3d9f ef38
00000330: 1795 af3a 6504 3d3a 34a6 e0ba b768 f0b9
00000340: a46a bcb9 9418 adb7 f9b2 01ba 9914 1739
00000350: 2ebb 78ba 6df0 1c3b fc56 923a d3c0 5a3b
00000360: b668 983b 27d1 423b 22bc 073a c8d0 11ba
00000370: 585d 98bb 3d12 80bb a384 0d3a 7b35 4639
00000380: 0724 07b9 c21a 143b 6197 a7ba 8d81 6bbb
00000390: a609 83ba 74c5 c83a 5c35 23ba 4c41 0a3a
000003a0: d95c f7ba b7ff fcba f99b 0e3a 4467 1eb9
000003b0: 7682 7fb9 0ee2 81b9 bcfe 26ba 72be 4839
000003c0: 33f1 f6ba d6ed 1bba 719e e2b7 4e18 a03a
000003d0: b15f 5dba 40fd 9fbb 66dd 7ebb 28de 4abb
000003e0: 1f46 023a bbce 623a 943b 8bbb bc23 28ba
000003f0: 03c7 c2ba 558e 43bb 645a 42bb 46e6 8cbb
