2020-S/exercise/01_MNIST_classifier/checkpoint/model_epoch1.pth (torch, 269279 bytes, 24 tensors)

conv1.weight f4 [10, 1, 5, 5]
00000000: 363a 2a3d 05f2 f43d e0f1 10be edbf 06be
00000010: 2a8b cabd 2dcb 4cba 4017 3cbe c74b abbd
00000020: 835d 9bbe a249 17be 7fda 153e 0f2c 7a3e
00000030: 86dc 95bd 80ed adbe 0aad 47be 5f12 3b3e
00000040: ca9a de3d fea2 cd3e 7fab 543e 389b 533e
00000050: bb3e 303e 8c47 c33d 0568 113e 6ad9 d63e
00000060: 7860 c43e 5cf4 bb3d b569 08be 2bbe 83be
00000070: 456d 7e3e 271c 893e 80db 32be 16d8 e7bd
00000080: 7011 76be fb4f 96bd 47cf bc3e 64e1 8fbe
00000090: 82a3 873c 5611 1cbe 8b9e da3d c360 cf3e
000000a0: 37c7 e6bc 970a b73d 9d38 473e fe95 a33e
000000b0: 0394 673e 04f5 f13d 11d2 aebd bc21 e1bd
000000c0: d586 e63d a794 85bd 6894 cebd c04e 4f3e
000000d0: 4e5c adbd 8f8e ec3d b020 29bd 8a1a 0f3e
000000e0: 9b95 c9bc e79a ed3d b944 393e e036 0abd
000000f0: 75d9 db3e 49ac 743e 77d4 7f3e c168 27be
00000100: aaaa a0be 4388 943e 0db7 d5bd f5f1 213d
00000110: 6cd1 b3be 9663 50bd 1ce6 513e 4496 49be
00000120: c986 0cbe 35ea 84be da15 11be 4474 6a3e
00000130: a89d 0e3e 4f27 5c3d 9756 6e3b 9eeb 303e
00000140: 1539 41be a6d3 62bd 58ee ce3d db77 e7bd
00000150: 0f43 27be 2804 66bc 9f91 79be 362a 91be
00000160: c01c c1bd 9995 39bd 7bdd 80be 3032 ebbd
00000170: e146 b7bc 6ff5 80be c654 6fbe e070 853d
00000180: b1bf 49be df6b 6bbe 7a80 0abe c737 08be
00000190: 01a0 83be 8b98 b2bd 4738 abbd acaa a53e
000001a0: 9766 2f3e bc30 86be 62a8 da3c 39fb 343d
000001b0: 5897 f83d d985 5c3e ac6f 85be f7c8 ff3b
000001c0: 35d7 b83d 5608 c13e 3673 e0bb a019 5cbe
000001d0: b079 193e a387 853d e3a5 7c3e 2af4 16bd
000001e0: 1bb5 0bbe 7445 613d 5639 a73e c5b3 ab3d
000001f0: 6f59 8dbd c407 00be c911 9b3e 71d4 9b3e
00000200: 067c 973e 86c1 46be 5884 54bd 182e 3a3e
00000210: 5fd2 993e 3059 3c3e d538 2d3d 6234 cabe
00000220: 63cb 2fbe f86e 823e e00e 913e d79f 02bd
00000230: 1ea8 d0be 362e ffbd 6235 d2bd 02aa b03e
00000240: f3a6 413d 0a4e 1bbd 60ca 7fbe 4d92 253e
00000250: 1431 95bc 3f13 b6bc 33a2 013d 1416 6abe
00000260: 154c e7bd e4c3 893d 639e 89be 09d5 8b3e
00000270: 8b03 0b3d ccbc 46be 778b 3fbe cc04 93be
00000280: fdf3 8b3d 4af0 c4bc e7b4 323e e8a1 f23d
00000290: 0c10 46bc 4b7a 91bd c118 403e ae70 2c3e
000002a0: 7a71 0d3e aa02 5b3e 6a3a 3e3e 6068 523e
000002b0: b751 283e ab14 94be 6e46 5cbe 80ff 80be
000002c0: 7c72 54be 5096 a2be a3eb 18be 8611 3cbe
000002d0: d7a3 5ebd e7fa a5be e9d2 1b3d af7e 79be
000002e0: db3c 3a3e 1a69 5bbd 3999 5dbe 974f 20be
000002f0: ec29 04be 741a b63e c87d 423d 5984 393e
00000300: 0b95 283e e0b0 5e3e 3b1d 9b3e 35e2 c93c
00000310: 665d e43c f3ab 9cbd 18ac 553e de63 ce3e
00000320: 6d15 30be 417c edbd 7d0e 043e a525 513e
00000330: be7c 84be 431f 49be 8a13 903d 2f81 8dbc
00000340: f60f 4d3e f861 48be e5bb 30be fc0a 333e
00000350: 67af 6e3d 4374 af3d 210e 963e 8ce3 f53d
00000360: 5938 8b3e 6ca9 dc3d 56db 133e ff60 983e
00000370: 3545 45be 4a0a 643d 685c 9fbe 1479 3abe
00000380: f535 01be ca20 4a3d b398 0dbc cbab b43d
00000390: 44ee 44be a67b 9b3b bd76 8ebd 2974 213d
000003a0: a8ff 463e 92de 9fbe f79c c1be a6d7 5f3e
000003b0: 7dcc bd3e 029d f53c 9af4 f0bd 8858 c13b
000003c0: 3f0e 93bc 94d4 243e 9276 be3e 8f70 833e
000003d0: e357 cbbd 3f2d 72be 4f5f 223e 6506 febd
000003e0: 4eab ce3c 8532 4ebe
0.04155942 0.11960224 -0.14154768 -0.13159151 -0.09889825 -0.0007812258 -0.18368244 -0.08364063
-0.3034478 -0.14774182 0.14634131 0.2443087 -0.07317452 -0.3397026 -0.19499603 0.18268727
0.108693674 0.40163416 0.20768546 0.2066468 0.1721143 0.09535131 0.14199837 0.4196275
0.3835485 0.09177467 -0.13321574 -0.25731024 0.2484637 0.2677929 -0.17466545 -0.11320512
-0.2403009 -0.07339474 0.3687689 -0.28101647 0.016557459 -0.15240988 0.10674771 0.4050351
-0.028171165 0.08937567 0.1945519 0.31950372 0.22615056 0.11814311 -0.08536161 -0.109927624
0.11256186 -0.06522494 -0.100869 0.20244884 -0.08464871 0.115506284 -0.04129094 0.13974968
-0.02460747 0.11601811 0.18092622 -0.03374374 0.42939344 0.23893847 0.24983393 -0.16348554
-0.31380206 0.2901021 -0.10435305 0.03953739 -0.35120714 -0.050876223 0.20497936 -0.19686228
-0.13723291 -0.25959936 -0.14168492 0.22895914 0.13927329 0.053748425 0.003636753 0.17277381
-0.18869431 -0.055377625 0.10104054 -0.113021575 -0.16334175 -0.014039077 -0.24371956 -0.28352517
-0.09429312 -0.045308683 -0.25168976 -0.11484182 -0.022372665 -0.2518725 -0.23372182 0.0651567
-0.1970203 -0.22990368 -0.13525572 -0.13302527 -0.2570801 -0.087205015 -0.083603434 0.32356775
0.17128979 -0.26209056 0.02669162 0.044184897 0.121382415 0.21535434 -0.2606176 0.0078059393
0.090254225 0.37701672 -0.0068496717 -0.2149415 0.14987826 0.06520011 0.24672656 -0.036853947
-0.13643305 0.054997876 0.3266093 0.08383898 -0.06901824 -0.12502962 0.30287006 0.30435517
0.2958681 -0.19409761 -0.051884025 0.18181646 0.30043313 0.18393397 0.042290527 -0.3949309
-0.1716743 0.25475287 0.2833166 -0.031890716 -0.40753263 -0.12459986 -0.10264088 0.34504706
0.047278356 -0.03791622 -0.24979544 0.1616909 -0.018211879 -0.022225974 0.031648826 -0.22859985
-0.11293808 0.06726816 -0.26878652 0.2731097 0.033938926 -0.19407958 -0.18705545 -0.28714597
0.068336464 -0.02404036 0.17451821 0.118472874 -0.012088787 -0.07103404 0.18759443 0.16839859
0.13812819 0.21387735 0.1857697 0.20547628 0.16437422 -0.28922018 -0.21511242 -0.2519493
-0.20746797 -0.31755304 -0.14933638 -0.1836606 -0.05435547 -0.32417986 0.038042936 -0.24364732
0.18187277 -0.05356703 -0.21640481 -0.15655361 -0.12906617 0.35567057 0.047483236 0.18116893
0.16463105 0.2174716 0.3029574 0.024643997 0.027876567 -0.07649984 0.2086643 0.40310568
-0.17195673 -0.11595965 0.12896152 0.20424516 -0.2587642 -0.19640832 0.07034977 -0.017273514
0.2002562 -0.19568622 -0.17259176 0.17484659 0.058272745 0.08567097 0.29307655 0.12006292
0.27191427 0.10774502 0.14439139 0.29761502 -0.19264682 0.055673875 -0.31125188 -0.1821025
-0.12618239 0.049347676 -0.008642363 0.088218294 -0.19231516 0.0047449647 -0.06956241 0.03941742
0.19433463 -0.31224495 -0.37815067 0.21859607 0.37070075 0.029982094 -0.11765404 0.0059004463
-0.017951129 0.16096717 0.37199837 0.25671813 -0.099288724 -0.23650073 0.1585667 -0.124035634
0.025228169 -0.20136459

conv1.bias f4 [10]
00000000: baba 923d d2f8 8a3e 125e c23d 0873 e13d
00000010: b90d 5b3d 5b5c 073e f0e0 443e 295b b1bd
00000020: 6506 8b3e 202e 373e
0.071645215 0.2714296 0.09490599 0.110082686 0.053479884 0.13218825 0.19226432 -0.086599655
0.27153316 0.17888689

conv2.weight f4 [20, 10, 5, 5]
00000000: cc9a b4ba 7ef7 cc3d 6939 923d 0d7e 8fbd
00000010: f3c0 3abe ac10 44bd 56a0 a93c 0ee1 833d
00000020: 76c9 5ebd ec2a 3cbd 8c32 eaba b2d1 9bbd
00000030: 7aa9 c2bd 8c82 12bd 1564 73bd f575 783c
00000040: 1446 443d 2130 2fbd d1c9 66bd 7dc8 f6bd
00000050: 6444 a63d 8949 0b3d c121 89bd 4e9a dabc
00000060: 78d9 373b 4efe 09bd 225d 8ebd a5e6 16bd
00000070: 569e dcbc a152 2a3d 6272 a43d beb1 f93a
00000080: d806 ce3c dabe 1f3d 6dc4 ef3c 15a8 6e3d
00000090: 7034 07bd 0d6a 833d b5e3 91bc 139b 473c
000000a0: a38a af3b 835b c93c 50a8 1e3e e806 b03d
000000b0: 9937 27bd dbcf 4b3d dc2e fc3b 8404 a03d
000000c0: 9e46 b13d 7f1f 0dbe c540 d6bc 85c5 cdbd
000000d0: db8f dc3b 9e81 fcbc 4ea7 1a3c 0fa8 a9bc
000000e0: 31fa 60bd 1bcf 073d b890 0d3b c17f ca3c
000000f0: 8bf4 ea3c 28cc 15bc 8dce e6bc 2dd5 bfbd
00000100: 6185 903d 06c0 03bd 2c39 8c3c 19a4 edbd
00000110: c902 60bc 693a 173e 70dd 48bd 25d3 a5bc
00000120: ed62 7f3d 850a 073e fb48 e73d 5688 e7bc
00000130: 699a 98bd c7df d63a 9179 b53d 40a6 a33d
00000140: c7cb 08bd 67a1 c53b 28c8 71bd a2b2 4bbd
00000150: a324 443d d3e6 b93c 50cf b3bd f9fd 18bd
00000160: 223c 0ebe 7f25 4ebd 7540 dbbd 9208 623c
00000170: 3bdd c8bd f149 20be 2dbe fb3c 5e85 38bd
00000180: 2087 52bd c001 10be 4dbd 8ebc 2feb 82bc
00000190: e7f2 0b3b 0433 723a c1df 18bd 4696 8abd
000001a0: fd0b bcbc 9a9d 08bc cc0d 10bd 9a9e 11bd
000001b0: cac9 e33c 75df f03b 5b81 903d cf39 b53c
000001c0: 786f 3ebd f16f 953c a6f1 9e3d a791 b33d
000001d0: ab1b 343c b300 fb3c 30f3 883d 26b3 45bd
000001e0: 5514 16bd f61a 7a3d 992e e23c 205f 033e
000001f0: 5412 c1bd 52b3 b5bd b7e2 5abd 1dd8 06be
00000200: b691 febd c336 15be 272f 983d 4ab9 fa3a
00000210: b7f3 083b 94e6 513d 8315 96bd 7253 1bbc
00000220: ff97 0dbd fddf b33d 2451 3c3d 82e5 9d3d
00000230: 6b51 2dbd 49b2 c6bd 5cc7 623d e3f7 dd3d
00000240: 5bee aebd bf71 ad3d ad49 b4bc 1d3d bcbc
00000250: c7c6 2c3d b4a0 61bd 7b73 35bd 68e0 203d
00000260: e4bf 463c 7bb5 4a3c 9ac8 32bd 1c05 7fbc
00000270: b48d 9e3d 1557 803c acb4 aa3d 307e 4c3b
00000280: c137 a73d f9e2 b03a c0df b8bd 2345 843c
00000290: 8915 993d 61a1 29bc b596 afbd e242 9abc
000002a0: 677f c03c 1370 ba3d 2c13 e1bc e6d4 ee3b
000002b0: 8407 56bc aa4d 613b 5d31 cd3d c300 5cbc
000002c0: 74d3 6e3d 0d95 ba3c 353a 9dbc 3c7d b13d
000002d0: a4cb ecbb b53b 93bd 933d 5c3c dc8a 953d
000002e0: 1496 44bd 74ed 883d 7264 f9bd f229 aa3c
000002f0: f7f3 fdbc 976a debd c51d 79bd 2ec6 8dbc
00000300: be3d 503d f220 e0bd 5092 2abe fa58 3dbd
00000310: 77af eb3d 4f4d fa3d 655d bbbd bc7e e1bd
00000320: b156 85bc b24b 5bbd 7831 a8bd 3412 e2bd
00000330: 58e1 08be ca7e 3bbc afcb e63c 677d 8e3c
00000340: 82d8 a23c 3a36 f8bd 48a7 f63c 7acb 773d
00000350: 020f d33c 3e83 56bd 7761 07bd 583c f13c
00000360: 1fea 0bbd e4aa e0bc a113 8a3c 4e68 3a3d
00000370: 1db9 243d 5573 04bc d771 cb3d aea3 e53d
00000380: bd54 3dbd 780b bcbc 4839 8f3d ee9c e4bc
00000390: 35d1 bb3c efca bfbd 8762 023d 6449 573d
000003a0: 18ae fe3d 50ad 0e3e d5c7 eabc e6a0 32bd
000003b0: 78b1 0cbd f5ef 79bb 87aa 903d b70d 133d
000003c0: c558 6f3d 762d 90bd e043 ccbd ed72 9e3d
000003d0: a9d8 923d 7ead 3ab9 ccf0 7fbb b031 953c
000003e0: 0441 2d3d 25ed a93d bd7f 813c 1f12 13bd
000003f0: 5b5c 32bd e32e ed3a a00e a63d 6352 2f3e
-0.0013779043 0.10008143 0.07139856 -0.07006464 -0.18237667 -0.047867462 0.020706337 0.0643941
-0.054391347 -0.04593937 -0.0017867847 -0.076083556 -0.09504981 -0.03576903 -0.059421618 0.015164842
0.047918394 -0.04277051 -0.05634481 -0.12049959 0.08118513 0.034005675 -0.06695891 -0.026684906
0.0028053205 -0.03368979 -0.069513574 -0.036841054 -0.02693097 0.041582707 0.08029629 0.0019050164
0.025149748 0.03900037 0.029268468 0.058265764 -0.033008993 0.06416712 -0.017808774 0.012182969
0.005357103 0.024579769 0.15493894 0.08595067 -0.040824506 0.049758773 0.0076960158 0.07813361
0.08656047 -0.13781546 -0.026153931 -0.100474395 0.006731016 -0.030823525 0.009439303 -0.02071002
-0.0549261 0.033156496 0.0021601152 0.024719121 0.02868106 -0.009142913 -0.028174663 -0.09366832
0.0705669 -0.03216555 0.017117105 -0.11603565 -0.013672539 0.14768375 -0.049039304 -0.020242283
0.062350202 0.13187607 0.11293217 -0.028263252 -0.074513264 0.0016393595 0.088610776 0.07990694
-0.033397462 0.0060312035 -0.059028774 -0.049730904 0.047886502 0.022693073 -0.08779776 -0.037351582
-0.13890126 -0.050328728 -0.107056536 0.013795989 -0.09807821 -0.15653206 0.030730331 -0.045049064
-0.051398396 -0.14063168 -0.01742425 -0.015981285 0.0021354498 0.00092391693 -0.037322763 -0.06766944
-0.022954935 -0.008338356 -0.035169408 -0.035551645 0.027806181 0.007350857 0.070559226 0.022122292
-0.046493024 0.018241854 0.077609345 0.08768015 0.010992925 0.030639982 0.06687009 -0.048266552
-0.036640484 0.06106087 0.02761011 0.12829256 -0.09427324 -0.08872093 -0.05343887 -0.13168378
-0.12430136 -0.14571671 0.074308686 0.0019128707 0.0020897218 0.051245287 -0.07328322 -0.009480344
-0.034568783 0.08782957 0.04597582 0.07709791 -0.042313974 -0.09701974 0.055365905 0.10838296
-0.085415564 0.08468961 -0.022007788 -0.02297836 0.042181756 -0.0550849 -0.044299584 0.03927651
0.012130711 0.01237237 -0.04364834 -0.015565183 0.077418715 0.015666524 0.08335242 0.0031203143
0.08164931 0.0013495377 -0.09027052 0.016146248 0.07474811 -0.010353417 -0.08573667 -0.01883072
0.02349825 0.09103408 -0.027474962 0.007288563 -0.013063315 0.0034378567 0.10019181 -0.013427916
0.058307126 0.022776151 -0.019192794 0.08666465 -0.0072264243 -0.071891226 0.013442415 0.07301876
-0.04799469 0.066859156 -0.121773615 0.020771954 -0.03100012 -0.10860174 -0.060819406 -0.017306414
0.050840132 -0.10943784 -0.16657376 -0.046227433 0.11508077 0.12221777 -0.09148673 -0.11010501
-0.01627669 -0.053538986 -0.082125604 -0.11038628 -0.13367212 -0.011443803 0.028173296 0.01739378
0.01987863 -0.12119718 0.030109063 0.060496785 0.025763992 -0.052371256 -0.033051934 0.02944772
-0.034158822 -0.027425237 0.016855063 0.04550963 0.0402156 -0.008084138 0.099338226 0.1121286
-0.04622339 -0.022954687 0.069933474 -0.027906861 0.022926906 -0.093648784 0.031832244 0.052560225
0.124355495 0.13933301 -0.02865974 -0.043610476 -0.034348935 -0.003813741 0.070637755 0.03590175
0.058434267 -0.07039921 -0.09973884 0.07736764 0.07170231 -0.00017802973 -0.0039053438 0.01821217
0.04229833 0.08297185 0.01580798 -0.035905953 -0.04354511 0.0018095638 0.08108258 0.17121272

conv2.bias f4 [20]
00000000: 69a2 213d 56cf 47bd f395 63bc aec4 4abd
00000010: 83a4 47bd 3464 65bd 0c94 573d 7c4a 4cbd
00000020: ad81 46bc 55db 593b a1c0 7e3c cf2b 103d
00000030: b861 1e3c 5553 a63c ab55 58bc 069b 19bd
00000040: 2e4a fd3c 915e f0bb 766b 183d 618e e3bc
0.039461527 -0.048781715 -0.013890731 -0.049503975 -0.048740875 -0.056003764 0.052631423 -0.04987572
-0.012115878 0.0033242304 0.015548856 0.03519803 0.009666853 0.020303408 -0.013204019 -0.037501357
0.03091916 -0.007335492 0.037211858 -0.027777852

fc1.weight f4 [50, 320]
00000000: dc4a 8abc 7da3 85bd 5f18 2aba f2ea 43bd
00000010: 7998 023c 237d 8bbc 12c9 783d 3cfc f93d
00000020: d9ee 3f3d 4202 bc3d 2f63 11bd b691 183d
00000030: 6362 0d3d c224 b1bc 68a8 62bd b9a0 aabd
00000040: a25d 8bbc de68 753d edc9 a33b c833 913d
00000050: 397e 6b3d 8337 943c 2bec 493d 5d5d ae3c
00000060: c563 dbbc a1f1 16bd 1716 1abc 7ee9 1ebd
00000070: 413b 593c 5259 03bd 1d24 a9bb dc2f 9cbd
00000080: d947 263d c115 113c b52c 763d c260 973b
00000090: 38cb 21bd ca42 55bd 77b5 a23d d80c 12ba
000000a0: 78be 4fbd 2aab 81bd aaea 1dbd 6e06 a13c
000000b0: d7cf 5fbd 81e5 77bd bc93 8f3d fb8b 363e
000000c0: 19df d73d 0410 57bc 075f 3a3c f79e a23b
000000d0: 12ef 373d 29b6 313d 449c 8c3b 3b21 13be
000000e0: bfe5 6abc e219 b5bd 6bd2 7ebd ca7d 443d
000000f0: fd3f 87bd 9a96 0b3d fc7d 813b 60bc e23d
00000100: 7e87 203d 50c1 813c 594f ad3d 6544 703d
00000110: 4416 e23d 47be 353d 0918 e53c 808b 273d
00000120: 3b33 8dbb a445 b1bd 456e 55bc b225 d5bc
00000130: 5368 8fbd 9a82 8cbc 1ce3 e6bc 4493 233c
00000140: 6618 4ebd 8edf 2d3d ccfa 7e3d d291 f83c
00000150: 8832 b13c b093 c8bc ce39 4a3b 7e34 583d
00000160: 5547 723d 3e72 123d 1c96 b13b d079 033d
00000170: 23d4 6abd 6cc4 04bc f6a9 cdbc d884 62bd
00000180: 343b 3d37 31c3 c33c 5ee2 513d 4867 513d
00000190: 8091 c73d eb9f 703b dd1c 8b3d 6e45 38bc
000001a0: 517b e43c 6d0b b4bc 799b 2ebc 5292 063d
000001b0: 4661 043c 8e6c 2abd 4ae1 9bbd 9bdd e6bd
000001c0: b63c 4dbc 9a3d 5c3d 47e3 163d 2105 203e
000001d0: 2538 d53d ee2d 6b3d 13c8 813c d24b b6bb
000001e0: 078b efbd c352 49bd 3068 afbd 4631 2ebd
000001f0: 5891 84bd 486f b0bd 13db 80bc 6bf7 143d
00000200: 32a8 593a 91d1 803d 3a72 333d 192c 9cbd
00000210: cd88 5a3c cf8b bc3b d17b d6bc df3c 0cbd
00000220: c29c c7bc 26ae 25bd 4cb9 563d 5c0b 93bc
00000230: 1d1d 703d 626c 603b 7be5 c83c e465 7cbd
00000240: 0865 80bd 1646 8a3c d5a4 073c d95a 04bd
00000250: 48fc 6b3b 98a1 b53c 5d65 863d 254f ee3c
00000260: 8ff2 96bd 0f98 09bd 9bed 35bd 18ab 1d3d
00000270: 91f7 2d3b caf6 f03c 13b0 93bd f42b 413b
00000280: 9acc 4d3c 9c4b f23a 721c 9f3c aace 20bd
00000290: d4d6 69bd ff73 ca3c 5b21 89bd 5047 a2bc
000002a0: 17a9 443b 482f 163d cee7 4abc 8b7b a23d
000002b0: 1a1f 33bd 75b4 d83c 300d 13bc 3e83 56bc
000002c0: 4ccb 393d ed48 21bd a26c 583d 8257 62bc
000002d0: 67d9 dbbb 52f3 e7bd d1fc 88bd 0837 4b3d
000002e0: 43c3 d7bd 54bf 7dbd de91 cf3b 3e72 62bb
000002f0: ae09 62bd 351c 3abd 95b5 873d d0b5 c93d
00000300: de27 b13c 52b5 2d3d 03f2 7e3d f8b7 823d
00000310: 50d0 82bd aab2 523d e293 27bb c07d 25bd
00000320: 655f 043d 61d6 a13d f9cd 47bc d9f0 e8bd
00000330: de96 883d 045d cd3b 0722 81bd 2150 9ebc
00000340: 29b7 023c 06e2 7d3c ddbc 513b b605 a83d
00000350: fddb c8bc a173 733c 14fb 3fbd 14c8 9e3d
00000360: 24a1 86bc f1c5 a43d 8c1d 193e 7a0d 713a
00000370: 81d4 093c 229d 673d 4fa0 223c cfc9 cbbc
00000380: f8f1 073c d783 0abd 83b3 42bc a331 f6bb
00000390: 8aec 633d c657 a6bd e02e 6bbc b666 553c
000003a0: 4c9c 81bd 8575 b2bc 80da c73c c2ff e3bc
000003b0: f8b1 893c 493d 773d bb86 dabc 343f 05bd
000003c0: 79a1 64bc 359b 02bc c3c2 223d a664 9fbd
000003d0: c021 05bc f635 c7bb eabe 29bc 38cf 2d3d
000003e0: 1605 de3b 9eba 1abd 89aa 0c3d 02b1 583c
000003f0: 7d3e c9bc 5a9b 573c 6218 05be 2b26 40bd
-0.016881399 -0.065253235 -0.0006488617 -0.047831483 0.007970923 -0.017027443 0.06073863 0.12206313
0.046858642 0.09180118 -0.03549498 0.037248336 0.034517657 -0.021623973 -0.055336386 -0.08331437
-0.017012421 0.059914462 0.0049984367 0.070899546 0.057493422 0.018092876 0.049297493 0.021284753
-0.026780972 -0.03685153 -0.009404681 -0.038796894 0.013258756 -0.032067604 -0.0051617757 -0.07626316
0.040595863 0.008855284 0.06010123 0.0046196887 -0.039500445 -0.05206565 0.07944768 -0.0005571372
-0.050718755 -0.06331475 -0.03855387 0.019656386 -0.05464157 -0.060521606 0.070106 0.17826836
0.105405994 -0.013126377 0.011375195 0.0049627977 0.04490573 0.043386612 0.0042910893 -0.14368145
-0.014337002 -0.088428274 -0.06221239 0.047971524 -0.06604002 0.03407917 0.003951786 0.11071086
0.039191715 0.015839249 0.084624 0.058658976 0.11039403 0.044370916 0.027965562 0.040904522
-0.0043090857 -0.08655861 -0.013026779 -0.026018951 -0.0700232 -0.01715212 -0.028184466 0.009983841
-0.050316237 0.042449526 0.062250897 0.03034297 0.02163054 -0.024484485 0.0030857208 0.052784435
0.05915006 0.03575348 0.0054195058 0.03209859 -0.057331216 -0.008103471 -0.025105458 -0.05530247
1.1279062e-05 0.023896785 0.05124127 0.051123887 0.09744549 0.0036716412 0.067926146 -0.011247022
0.027890833 -0.021978104 -0.010657185 0.032854386 0.008079832 -0.041607432 -0.0761133 -0.11272737
-0.012526682 0.053769685 0.036837842 0.15626957 0.10411099 0.05741685 0.015842473 -0.0055632377
-0.11696439 -0.049151193 -0.08564794 -0.04252746 -0.064730346 -0.08614975 -0.015729463 0.03636877
0.0008302956 0.062899716 0.043810107 -0.076255985 0.01333828 0.005753971 -0.026182087 -0.03423774
-0.02436674 -0.040449284 0.052422807 -0.017949753 0.058621515 0.0034244289 0.024523487 -0.061620608
-0.0626927 0.016879123 0.008279045 -0.0323132 0.0036008526 0.02217178 0.06562302 0.029090473
-0.07370483 -0.03359228 -0.04441605 0.038493246 0.0026545266 0.029414553 -0.07211318 0.002947566
0.012560988 0.0018485668 0.019422743 -0.03925959 -0.05708964 0.024713514 -0.06695815 -0.019809395
0.0030008012 0.036666185 -0.012384368 0.0793372 -0.043730833 0.026453236 -0.008975312 -0.013092814
0.045359895 -0.039376188 0.052837975 -0.013814809 -0.006709266 -0.113257065 -0.06688846 0.04961303
-0.1053529 -0.061950043 0.0063345274 -0.0034552957 -0.055185013 -0.045437057 0.06626431 0.09849131
0.021625455 0.04240925 0.06224252 0.063827455 -0.06387389 0.05143992 -0.0025570323 -0.040403128
0.032317538 0.07902218 -0.012195104 -0.11374063 0.06669401 0.006267192 -0.06305318 -0.019325318
0.007978239 0.015495783 0.003200344 0.08204214 -0.024518961 0.014859111 -0.046870306 0.077530056
-0.01643426 0.08045567 0.14952677 0.00091954286 0.008412481 0.056546338 0.009925916 -0.024876503
0.008297436 -0.03381714 -0.011883619 -0.0075132414 0.055645503 -0.0812221 -0.014354438 0.0130249765
-0.063286394 -0.021784553 0.024396181 -0.027831916 0.016808495 0.06036118 -0.026675573 -0.03253098
-0.013954514 -0.007971575 0.03973652 -0.07782869 -0.008125722 -0.0060794307 -0.010360459 0.042433947
0.0067755086 -0.03777563 0.034342322 0.013225796 -0.02456593 0.013159597 -0.12997583 -0.0469114

fc1.bias f4 [50]
00000000: 2683 8f3c a750 153d 598d ac3c 9102 bc3c
00000010: c4a1 42bc f587 b3bc 4ef1 de3c eb1b 373c
00000020: d672 8b3d 8123 013d 1dd4 12bb 7998 1dbc
00000030: 71c5 013d af91 833d fe26 443d 0255 1ebd
00000040: 9e4d 233d 659f 7c3c 1a90 5bbc 19d7 c23c
00000050: 2f02 d3bc a8dc f3b9 e238 38bc 15b5 c63c
00000060: 1de9 d13d c34e 9d3d e478 a5bc e416 9e3d
00000070: 883f af3d 11f8 ad3d f4e2 023d b0b9 543d
00000080: 16c1 413d 09a5 833c f053 c3bc 3d90 093d
00000090: bc7a d03d f1c2 d0bc 720f a13d 3a77 253c
000000a0: e743 113d 86d6 3fbd 44a1 6dbc 7cfd d2bc
000000b0: a9fd 903d daf6 473c aa0b 5a3d 3b9b 363d
000000c0: cfaf 3d3c 19db c63d
0.017518591 0.03645387 0.021063494 0.022950443 -0.011879388 -0.021915415 0.027214672 0.01117609
0.068090126 0.031528 -0.0022404261 -0.009618872 0.031682435 0.06424271 0.04788875 -0.03865529
0.039868943 0.015418862 -0.013401056 0.023784207 -0.025757877 -0.00046512973 -0.011244031 0.024256269
0.10249541 0.07681038 -0.020199247 0.0771921 0.085570395 0.084945805 0.03195472 0.051934898
0.04730328 0.016069906 -0.023843735 0.033584822 0.1017966 -0.02548358 0.07864274 0.010099227
0.035465147 -0.046835445 -0.014503781 -0.025755636 0.07079632 0.01220485 0.05323378 0.044581633
0.011577561 0.09709758

fc2.weight f4 [10, 50]
00000000: 4d77 6c3d 8d99 c0bc 3075 843d b4f1 5ebe
00000010: 1b39 e6bc 3b79 f23d 1a82 2cbe 5d9d 87be
00000020: 8ec1 3cbe 03a1 3bbe 0d9f 133e 9929 eebd
00000030: 933b d13d 67f1 9abd 1ab2 313e 7599 f0bd
00000040: b838 e83d 4803 293e 653e 86be edfa 96be
00000050: 9a7f 46be 68ac 313d ee6b 623c a11b a23d
00000060: 47a1 4abe bd53 89be 602b c93d 8b0f 25be
00000070: 5fdf a13d f735 293e 3e0c 1abe ea48 283d
00000080: d0d6 ab3d ea9b 8fbe de1f d0bd b1ce 0dbe
00000090: e251 a8be 066a 42bd 6c43 113e 07f7 073d
000000a0: ccf7 91be 575d 88bd d13e 3ebe d250 49be
000000b0: 7f84 13bd 3069 e43d 66e3 e03d 870a f33d
000000c0: a120 ab3c 9a1d 783d 8e48 363d bc5f cabd
000000d0: a23c 6cbd 0ef8 e7bd d3d1 153e 108e 3c3d
000000e0: 4902 1c3e e09c aa3d ecac d93d 7bcc 023e
000000f0: 78c5 8ebd 778d 3fbd 5e49 ad3c b28d 2e3e
00000100: 47fe 07be 150b 2cbe 985d 36be f529 a93d
00000110: 594a 12be b608 33be ab9d 403e 9ffb 7a3d
00000120: 1666 0e3e 5992 58be d90d 0d3e 1463 023e
00000130: c0a8 81be 6056 0f3e 332b 943d 9c34 bc3d
00000140: 5b5b e53d 4c20 73be 1e36 c7bd 0958 00be
00000150: e099 17be 8694 ed3d 45ed b03d 66fc 32be
00000160: 096f b6bd 4be6 8dbe c25c 223e 6acc b7bd
00000170: 9356 06be 3a31 643d f915 c43d 8590 36be
00000180: da1a 12be a28c 0dbe c1fb 37be 5a64 cb3d
00000190: 4913 023e b963 423d 72f1 c33d 56ed 29be
000001a0: 238f dd3d 5924 b6bd 9e50 5b3e 7beb d63c
000001b0: 8bce f33d 9253 99bc 25cc 103e 9b33 963d
000001c0: 374d febd b77c b1bb fe91 083c 3e6d 983d
000001d0: 131f 0b3e 1052 8f3d cb4e fabd cec4 d5bd
000001e0: 1b82 46bc 0102 a63d a217 c6bc 5ef9 d5bd
000001f0: 7e52 f8bd 04fe cc3d ee7a 9f3d 4b12 0a3e
00000200: 3717 75bd f928 96bd 6d81 343d 9b17 94bd
00000210: 692e 2c3e 0f55 52be c370 9a3b afaf c53d
00000220: caff 3dbe 0d13 8bbd 93e1 08be eae7 1bbd
00000230: 3eb2 40be e3a6 a63d 7700 da3d 4d3b ea3d
00000240: 7461 063d 521a b03d a863 c13d 8222 a5bd
00000250: ad22 6cbe 54c4 08bd ba04 14bd def1 06be
00000260: cf20 cf3d edc2 42be 1783 45be 821f 1d3e
00000270: 94e0 8d3c 155f 16bd 384b cb3d c29e f93d
00000280: d960 0d3e 0201 963c c4b1 f9bc b54a 15be
00000290: 1bbd 6f3d 505d 493d 7bf4 1ebd a125 21be
000002a0: c91a 123e 1551 503d 7594 27be d79d 1a3d
000002b0: a401 bdbd e071 26be 952e f83d a3f2 ba3d
000002c0: 5e26 743d f3b6 84bd d258 373d 9a69 6cbe
000002d0: e84d 1abe 5348 a33d 07e0 193e bc46 34bd
000002e0: 8def d6bb f69c f73d 4afc c63d 6147 1bbe
000002f0: adfc 19be 91d3 533d 30f6 ef3c 3b44 28be
00000300: 9798 253d 6276 de3d 1c95 153d 4861 a1bd
00000310: d1eb c73d 37ad 91be d4d1 35bd 29dc bc3d
00000320: 9249 b9bc 8caf 313e 01a7 b43d 77e8 c83d
00000330: 7021 df3d 20f7 60be 0ace 26be 1e16 30be
00000340: 024e 95bc aaf0 c2bd 1b60 dcbd d109 30bd
00000350: 9e98 91bd 23ca 2e3e ed96 82be 006b b53d
00000360: 31c0 7c3d 9858 c6bd 34a2 dabd b6b7 2a3d
00000370: a37c 123e d400 7dbe d523 173e a941 a43d
00000380: 3424 cabd 33da 80bd 64be 8d3d 94f7 8abd
00000390: e10d 04be 83ab 15be 0391 23bd 6f53 17be
000003a0: 1a31 293c a463 f2bc 4ad2 173e 5e16 f03d
000003b0: 56fc a13d 8676 303e 282b 54be e33f f3bc
000003c0: c8b0 173e e4d9 783d 7f71 16be 6dd1 c93d
000003d0: 53da ebbd 1e35 46be a675 96be 0d21 193e
000003e0: 066d 8a3d 1e58 7abe b65c 51be c37c 353c
000003f0: 027e 89be 8e47 63bd e0ad 08bd 908b 343e
0.05773096 -0.023510719 0.06467664 -0.2177189 -0.028103402 0.11839529 -0.16846505 -0.26487246
-0.1843321 -0.1832314 0.14416142 -0.11629028 0.10216441 -0.07565575 0.17353097 -0.117480196
0.11338943 0.16505158 -0.26219478 -0.29488316 -0.19384614 0.04337731 0.013819678 0.07915426
-0.19788085 -0.268217 0.09822726 -0.1611921 0.07903933 0.16524492 -0.15043733 0.04108516
0.083905816 -0.2804864 -0.10162328 -0.13848378 -0.32874972 -0.047464393 0.14185876 0.033194568
-0.28509367 -0.06658428 -0.1857865 -0.19659737 -0.03601503 0.111528754 0.10980873 0.11867242
0.020889582 0.060575105 0.044502787 -0.09881541 -0.05767501 -0.113266096 0.14630823 0.04603392
0.15235247 0.08330703 0.10628685 0.12773316 -0.06971258 -0.04676577 0.021153148 0.1704624
-0.13280593 -0.16801102 -0.1780914 0.08259956 -0.14286174 -0.17483792 0.18810146 0.06127512
0.1390613 -0.21149577 0.13774814 0.12733108 -0.2532406 0.13997793 0.07234802 0.09189722
0.11199065 -0.23742789 -0.09727119 -0.12533583 -0.14804792 0.11600594 0.086390056 -0.17479095
-0.08907897 -0.27714762 0.15855697 -0.08974536 -0.13118963 0.05571101 0.095745035 -0.17828567
-0.14268056 -0.13823178 -0.1796713 0.0993125 0.12702669 0.047458384 0.095675364 -0.16594443
0.10818317 -0.088936515 0.21417472 0.026235333 0.11904629 -0.018716607 0.14140375 0.07334062
-0.12417071 -0.0054164785 0.0083355885 0.07442711 0.13586073 0.06998074 -0.1222206 -0.10437928
-0.0121159805 0.08105851 -0.02418119 -0.10447954 -0.12125109 0.10009387 0.07787119 0.1348354
-0.059836593 -0.07332034 0.044068743 -0.07231065 0.16814579 -0.2054026 0.0047131493 0.096526496
-0.18554607 -0.06790743 -0.133673 -0.038062967 -0.18817994 0.081373 0.1064462 0.11437092
0.032807782 0.0859877 0.09442836 -0.080632225 -0.23060103 -0.033390358 -0.03613732 -0.13178203
0.101136796 -0.19019671 -0.19288288 0.1534405 0.017319001 -0.03671177 0.09926456 0.12188484
0.13806476 0.018311027 -0.030480273 -0.1457928 0.058529954 0.049161255 -0.038807373 -0.1573701
0.1426803 0.050858576 -0.16365226 0.037748184 -0.092288285 -0.16254377 0.1211826 0.091283105
0.059606902 -0.06480207 0.04476244 -0.23087159 -0.15068781 0.07972779 0.15026866 -0.04401277
-0.0065593184 0.12090485 0.09716089 -0.15163948 -0.15037794 0.051715437 0.029292196 -0.16432278
0.040428724 0.108624235 0.036519155 -0.07879883 0.09761775 -0.28452465 -0.04438956 0.0922168
-0.022618089 0.17352122 0.08820916 0.09809964 0.108950496 -0.2196927 -0.16289535 -0.17195937
-0.018225674 -0.09518559 -0.10760518 -0.04297811 -0.071091875 0.17069297 -0.25505772 0.08858299
0.061706726 -0.09684867 -0.10675469 0.041679107 0.14305358 -0.24707347 0.14759763 0.08020336
-0.098701864 -0.06291618 0.0692108 -0.06785503 -0.1289592 -0.14616208 -0.039933216 -0.14777921
0.010326648 -0.029588528 0.14826313 0.11723016 0.079094574 0.17232713 -0.20719588 -0.02969355
0.1481353 0.06075467 -0.14691733 0.09854398 -0.115162514 -0.193562 -0.29386634 0.14954014
0.06759076 -0.24447677 -0.20445523 0.011077109 -0.2685395 -0.05548816 -0.033368945 0.17631364

fc2.bias f4 [10]
00000000: ddbc c33d 53b5 173e 3b32 0abb 3843 10be
00000010: 1dee 4a3d db9e ef3d 9438 8ebd 81e6 fbbc
00000020: 29ba 4f3e 4fcd 013d
0.09557507 0.14815263 -0.0021087069 -0.14088142 0.04954349 0.11700221 -0.06944385 -0.030749561
0.20285858 0.03168994

exp_avg f4 [10, 1, 5, 5]
00000000: c687 ca3b b9ad 903b 7f05 4c39 96b8 8abb
00000010: c586 15bc 5bb3 5f3b 3283 3c3b 93f2 543a
00000020: 6bf5 78bb b659 22bc 28c1 6d3b 66f7 8b3b
00000030: 68e3 043b 2e04 46bb 7521 21bc 6f73 ab3b
00000040: dc3d 8c3b 7688 67bb 0ff4 00bc b203 d2bb
00000050: 4ae5 2f3c 7c12 e93b c7e5 a1bb b59d 02bc
00000060: 700d a2bb 7cd5 1bbb 44ab 66bb 8036 74bb
00000070: 8aaa 80bb 9f53 92ba 5025 84ba 8bc0 65ba
00000080: 9d8a 9aba 441b aeba bd18 4839 1245 32ba
00000090: 12bd 2c3a 9acf c73a e808 5c3a 94f8 633a
000000a0: 05c9 ad39 05c1 ba3a 973d 453a 8212 3dbb
000000b0: 422c 8ebb e4e1 b1ba 9c04 49bb 2a4b 8ebb
000000c0: f98e b9bb fd3e d1bb bc17 ab39 c790 813a
000000d0: 8fb2 023b 84dc a03b d01f c93b daf8 153b
000000e0: dda5 a63b 7515 bd3b 24f9 cf3b daac 593b
000000f0: c256 da3a 2f37 083b 002f 5a3b 53b8 7e3b
00000100: a52f 703b 6358 8cbb e781 73bb c6a0 763a
00000110: 8273 2d3b f50d 303b 1f9e 37bb 877f fc3a
00000120: a46a 693b b592 2b3b f882 f03a 4992 4fbb
00000130: f08b cbba 5b7e 5abb 0157 8cbb 3c98 adbb
00000140: 68ef 39bb 87ef 2e3b e0e2 0b3b fb20 b2ba
00000150: 1cd5 87ba 5561 edb9 2fe8 3d3b fea3 443b
00000160: a97f 463a 4808 ae3a d17b c33b 0c3a b93b
00000170: 5fab 513b 392c 943a 7266 0c3b ecbc d43b
00000180: 76ef 583b 6708 a13a 72c8 c93a 4b90 f3b9
00000190: 6d4c 51ba dbeb 16ba 61df b4b9 da05 4b3b
000001a0: a613 433b 68f3 c4b6 41be bc3a 12fc 273b
000001b0: 2737 5b3b 40db 563b 01a9 7a3a 5603 35b9
000001c0: a3cc af3a 4312 743b 60ba 993b fc8a 3239
000001d0: 1001 36b9 c5c0 89b9 52f6 2f3b 49cb cb3a
000001e0: 1287 a0ba 7f68 f0ba 27b1 3d3a 35cc 053b
000001f0: 6a63 08bb 424a b2bb 2de2 b2bb f056 8bba
00000200: 4a78 a23b d67e a53b 4075 afbb 78d0 05bc
00000210: 60b6 f2bb 76ae 07bb b63d f03a 8f62 0bbb
00000220: 57ee c1bb b739 d5bb cf7d 28bb d9fc 083a
00000230: d68c 99b9 6074 4fbb 92d1 07bb 9032 e2b9
00000240: 7bd8 9cba a779 5cba 58c1 eaba c1bd 8e3a
00000250: 2321 8eba 00a0 19bb 000d 443b 58dd d23b
00000260: df3d 753b 313b 8db9 6852 223b 4688 8b3a
00000270: 4170 d33a d07a e83a bf3a d23a 85bc 993b
00000280: af87 6d39 e01c f9b9 e1bd fe3a 1822 963b
00000290: c0cc e03b 2c61 813b 97a6 3a3b a909 fd3b
000002a0: 92aa 263c 458f 013c 3330 7e3b 6ea5 233b
000002b0: abe4 c73b 478d 253c 3b11 283c caa7 f13a
000002c0: 5552 3cb9 7ddd 8fb8 6edd eeb9 3e68 99ba
000002d0: 4b6a 5d3b 17f2 3f3b de04 8c3b d39d 293b
000002e0: 9a88 0a3b 6cc4 093c 5eda 113c b768 213c
000002f0: b27c 0f3c c099 b03b 3406 4e3c 5fce 613c
00000300: b99a 3d3c dc26 b93b f715 d33a be8e 4e3c
00000310: 1ab4 1d3c b052 cf3a 3eab abbb f93c 69bb
00000320: ca26 b7ba 6ed4 a4bb 933c 4fba ef75 963b
00000330: 01b8 ea3b dccd 8238 0342 eeba 31de e43a
00000340: 806e 5e3b e7a6 923b 1147 343b f562 0f3a
00000350: e5d3 0b3b 2ab4 293a 8bd2 d9ba 639c a23b
00000360: f142 423b 54a1 4d3b 267f 0b3b 26b0 adba
00000370: b574 d93b 224a f33b ba45 023c adaa e33b
00000380: 3520 7b3a f183 56ba 1bd5 d23b 6509 a33b
00000390: e975 833b 117f 513b 84aa 5ebb c7af a63a
000003a0: 3fcb 753b 0105 2d3b da97 3d3b 3f55 aabb
000003b0: 49dd 77bb ef19 4fbb 2bf7 0a3a 2e05 8c3b
000003c0: 621c 9bba 2d4e 77bb e84b 86bb 2860 abba
000003d0: 960f 833b cd29 8b3b f428 7c3a 1608 3bbb
000003e0: ddad e1ba 3406 393b
0.0061807362 0.0044152406 0.00019457004 -0.00423343 -0.00912637 0.0034134004 0.0028764722 0.00081233046
-0.0037988077 -0.009909084 0.003627846 0.0042714356 0.0020277146 -0.0030214894 -0.009834637 0.0052322666
0.004279835 -0.003532914 -0.007870688 -0.006409132 0.010735819 0.007112799 -0.0049407217 -0.007972171
-0.0049454495 -0.002377837 -0.0035197297 -0.003726393 -0.00392658 -0.0011163837 -0.0010081921 -0.0008764348
-0.0011790578 -0.0013283272 0.00019082702 -0.00068004534 0.0006589453 0.0015244365 0.0008393661 0.0008696404
0.00033146903 0.0014248198 0.0007524131 -0.0028850143 -0.004338772 -0.0013571349 -0.0030672913 -0.0043424563
-0.0056627956 -0.0063856826 0.00032633345 0.0009885066 0.0019942855 0.0049091 0.0061378255 0.0022883923
0.0050856904 0.00577038 0.0063468385 0.00332146 0.0016657936 0.0020784845 0.0033292174 0.003886719
0.0036649492 -0.0042829975 -0.0037156285 0.00094081124 0.0026466553 0.0026863788 -0.0028017832 0.001926408
0.0035616541 0.0026179974 0.0018349579 -0.0031672886 -0.0015529376 -0.0033339474 -0.0042828326 -0.005297689
-0.0028371457 0.0026693062 0.0021344945 -0.0013590151 -0.0010363194 -0.0004527668 0.0028977504 0.0030004974
0.00075721234 0.0013277614 0.005965688 0.0056526717 0.0031993014 0.0011304683 0.0021423367 0.006492248
0.0033101714 0.0012285829 0.001539482 -0.00046456078 -0.00079841056 -0.0005757191 -0.00034498706 0.003097883
0.002976635 -5.8695914e-06 0.0014399962 0.0025632423 0.0033449621 0.0032784492 0.00095619267 -0.00017262748
0.0013412427 0.003724233 0.004691407 0.00017027179 -0.00017357268 -0.000262743 0.00268497 0.0015548255
-0.0012247285 -0.0018341689 0.00072361756 0.0020415906 -0.0020811209 -0.005440981 -0.005459091 -0.0010630768
0.004958187 0.0050505204 -0.0053545535 -0.008167379 -0.0074069947 -0.0020703352 0.0018328938 -0.0021268462
-0.005918305 -0.0065071243 -0.0025709753 0.00052256655 -0.00029287365 -0.0031655058 -0.002072428 -0.0004314375
-0.0011966372 -0.00084104616 -0.0017910404 0.0010890291 -0.0010843616 -0.0023441315 0.0029914975 0.0064350776
0.0037420911 -0.00026937717 0.0024768356 0.0010645471 0.0016131477 0.0017736796 0.0016039236 0.0046916627
0.00022652627 -0.00047514495 0.001943525 0.004581701 0.0068603456 0.0039483514 0.0028480643 0.007722099
0.010172503 0.007907693 0.0038786053 0.002497043 0.0061002574 0.010104484 0.010258014 0.0018436846
-0.00017959748 -6.860027e-05 -0.00045559875 -0.001170404 0.003378528 0.0029288584 0.004273041 0.0025881424
0.002113855 0.008408647 0.00890216 0.009851626 0.008757757 0.005389422 0.012574721 0.013782113
0.011572533 0.0056503844 0.0016104568 0.012607275 0.009625459 0.001581749 -0.0052389195 -0.003558932
-0.0013973352 -0.0050302064 -0.00079054496 0.0045916955 0.0071630483 6.237227e-05 -0.0018177632 0.0017461238
0.0033940375 0.0044754627 0.002750818 0.0005469763 0.0021336016 0.0006473685 -0.0016618533 0.0049624904
0.002964195 0.0031376677 0.0021285503 -0.0013251349 0.006636227 0.007424609 0.007951194 0.0069478364
0.00095796894 -0.0008183113 0.0064340956 0.004975485 0.0040118587 0.0031966607 -0.0033976147 0.0012717181
0.0037505177 0.0026400688 0.0028929622 -0.0051981504 -0.0037821105 -0.003160115 0.0005301113 0.0042730784
-0.001183402 -0.0037735805 -0.004098404 -0.0013074921 0.0039996607 0.0042469264 0.00096191396 -0.0028538755
-0.0017217953 0.0028232457

exp_avg_sq f4 [10, 1, 5, 5]
00000000: f0f2 253a e104 0e3a f114 d639 dbcd c539
00000010: 15bc c239 6c9e 003a 8ede cf39 684c 9e39
00000020: 668a ad39 98e2 a139 5414 b239 ab88 8839
00000030: 3b9d 5e39 74dd 6639 7aa0 6d39 2aee 6139
00000040: 801a 4439 3c10 4739 deab 7239 e4af 8c39
00000050: 6a13 4d39 65c0 3039 3fd6 5a39 ad3b 9739
00000060: 5832 8139 8505 6739 3c8d 4439 734b 2339
00000070: b414 1039 71f6 2b39 bd4e 5139 fe2e 4139
00000080: 78ab 2139 33d3 0f39 6701 1e39 019c 5939
00000090: 8c10 4b39 31fe 2739 04f0 1b39 d311 0a39
000000a0: 1f00 7239 5264 6939 5f86 4239 be60 3039
000000b0: 2137 0939 40b1 8539 421c 7939 a16e 5439
000000c0: 8ab2 4839 c034 1e39 eebf 2139 20f4 4039
000000d0: e004 5439 0b96 5539 05d1 4239 52f9 2239
000000e0: c76f 4439 89c8 5e39 6b8a 4e39 bdfb 2e39
000000f0: 75ac 3739 d882 4f39 8311 4f39 4a8c 1b39
00000100: ca38 1439 eddf 5539 979e 4a39 959a 2e39
00000110: ff43 1f39 e01b 1839 99f6 7439 eb9f 5339
00000120: 3b5e 3439 6178 2139 4332 2739 500c c439
00000130: 840e ba39 3aea be39 1259 c739 b692 d639
00000140: 342f a139 6c23 9839 7f2b a239 30df ad39
00000150: 30d0 b539 7942 9139 b845 9039 f8b4 9339
00000160: 13c2 9c39 ef3d aa39 c3b3 8939 ce66 8d39
00000170: fef5 9339 312c 9839 b975 9839 1d36 8939
00000180: a55a 8f39 4e88 8f39 293c 8d39 0831 9139
00000190: 8111 8039 4626 6839 a436 3939 f1d4 2139
000001a0: 93b8 2039 84bd 6939 1324 3539 10d1 0539
000001b0: 4169 1c39 82bc 0e39 0d77 5039 5cf9 0d39
000001c0: 3665 1c39 f5f7 3139 6475 f938 469c 3b39
000001d0: 7c64 2339 ce60 4f39 a321 3639 8450 ea38
000001e0: c4c6 3739 11fa 4039 a6c2 5039 c1e9 1639
000001f0: 8a46 0c39 8069 2b39 a183 1539 2585 0939
00000200: 231a ff38 935c 1039 1f9f 4939 144c 1b39
00000210: c445 0539 a604 de38 4136 0139 0d91 4539
00000220: cee7 0f39 fbe6 1039 3b30 0d39 b2e8 1039
00000230: b34d 4139 b9ef 2a39 33dd 2b39 c4de 1c39
00000240: 653b 1639 5941 5e39 a186 5239 d409 5239
00000250: 322a 2a39 5480 1839 a9d6 cd39 687c c839
00000260: ea5a c639 c83f c139 9ad0 b439 c5fc a039
00000270: 92a3 a139 6ec4 ad39 eb70 ab39 5f55 b339
00000280: 88f3 8e39 0596 9139 1c47 9839 5f79 a239
00000290: 9aaf ab39 d842 8239 ef32 8939 7e96 9839
000002a0: 31e7 9e39 db8b a239 b607 8239 a816 8939
000002b0: b432 8739 3983 8839 8541 9339 69b8 4039
000002c0: f90b 1d39 3293 2839 ab9e 5139 d98f 9339
000002d0: fe33 4139 9ca4 2539 212a 4339 bb36 7d39
000002e0: e14f d339 08f2 7739 6cf0 7939 107f 9c39
000002f0: 85c4 cb39 caf4 013a fd7a 9a39 2a01 bc39
00000300: 24b0 e339 1ed9 f239 8b65 f839 50ba 8f39
00000310: 5816 a739 5521 ba39 f609 c839 7aa3 cd39
00000320: 0fef a339 e461 b239 c74c d339 afc3 d039
00000330: a44a b639 a757 a439 9750 9f39 be8d 9f39
00000340: c72e 8f39 9f56 8439 b5ed 9839 9742 8239
00000350: a348 6f39 eeea 5539 4fd9 4f39 cdb8 9a39
00000360: 8491 8439 b1e1 6e39 b876 5139 f8c1 5739
00000370: 7f2b a739 0177 9c39 bd88 8d39 2677 6539
00000380: 8b3a 6339 96d8 9839 f922 b939 1f71 dd39
00000390: 4c5b c439 cef1 a839 f94d 8239 6f31 9c39
000003a0: 8287 b239 7df4 ac39 09c5 a439 ce37 7139
000003b0: 65cb 8b39 c157 9639 d759 9e39 ecf1 a539
000003c0: 3923 6339 bbf3 8439 a291 9139 4d21 9139
000003d0: 530c 9b39 8fb1 8239 0f97 8b39 0273 8b39
000003e0: 6302 8639 aa2e 8a39
0.0006330451 0.0005417597 0.00040832863 0.00037728142 0.00037142696 0.0004906419 0.00039647933 0.00030193035
0.00033100246 0.00030877138 0.0003396595 0.00026041767 0.00021230143 0.00022017007 0.00022661863 0.00021546395
0.00018701889 0.00018984167 0.00023142944 0.0002683393 0.00019557556 0.0001685634 0.00020869913 0.00028845426
0.00024642306 0.00022031933 0.0001874463 0.00015572998 0.00013740623 0.00016399637 0.00019961126 0.0001842342
0.00015418034 0.0001371622 0.00015068577 0.00020752849 0.00019365753 0.00016021055 0.00014871365 0.00013167346
0.00023078964 0.00022257984 0.00018551339 0.00016820707 0.00013085875 0.00025499798 0.00023757017 0.00020259108
0.00019139997 0.00015087705 0.00015425656 0.0001840149 0.00020219712 0.00020369158 0.00018579148 0.00015542403
0.00018733657 0.00021246275 0.00019697256 0.00016687713 0.00017516485 0.00019789801 0.00019747582 0.00014834214
0.00014135535 0.00020396682 0.000193233 0.0001665152 0.00015188752 0.00014506234 0.00023361518 0.00020182102
0.00017201241 0.00015399001 0.00015945085 0.00037393207 0.000354875 0.00036414136 0.000380226 0.0004092657
0.00030743482 0.0002901809 0.00030931455 0.0003316342 0.00034678122 0.0002770608 0.00027517765 0.00028172857
0.00029899235 0.0003247107 0.0002626461 0.0002697021 0.00028221303 0.00029024624 0.0002907941 0.00026170994
0.0002734262 0.0002737664 0.00026938439 0.00027693086 0.00024427104 0.00022139502 0.0001766333 0.00015433483
0.00015327548 0.00022291212 0.00017274944 0.0001276175 0.0001491653 0.000136124 0.00019880776 0.00013539701
0.00014915023 0.00016972407 0.00011895111 0.00017891926 0.00015582325 0.00019777121 0.00017369403 0.00011172987
0.00017526286 0.00018403704 0.00019908938 0.00014392195 0.00013377718 0.00016347133 0.00014258783 0.00013114938
0.00012164216 0.00013767397 0.00019228131 0.00014810293 0.00012709858 0.00010586651 0.0001232261 0.0001884142
0.00013723897 0.00013818957 0.00013464775 0.00013819596 0.0001843486 0.00016301767 0.00016390234 0.00014960306
0.00014327241 0.00021195914 0.00020077314 0.00020030822 0.00016228182 0.00014543656 0.0003926058 0.00038239663
0.0003783324 0.0003685935 0.00034487696 0.00030705906 0.00030830182 0.00033143483 0.00032699792 0.00034205147
0.00027265796 0.00027768328 0.0002904468 0.00030989476 0.00032746495 0.00024845335 0.00026168625 0.00029103825
0.0003030836 0.00031003248 0.00024801277 0.00026147556 0.00025786983 0.0002603771 0.0002808684 0.00018379245
0.00014977147 0.00016076563 0.00019990902 0.000281452 0.00018425283 0.00015796948 0.00018612343 0.00024148349
0.0004030457 0.0002364592 0.00023836055 0.00029849308 0.00038865596 0.0004957436 0.00029464802 0.00035859022
0.0004342805 0.00046319602 0.00047377902 0.000274139 0.0003186937 0.0003550152 0.00038154394 0.00039222447
0.00031267895 0.0003402374 0.0004030226 0.00039818647 0.00034769357 0.00031345824 0.00030386887 0.0003043245
0.00027309937 0.0002524154 0.00029168805 0.00024845146 0.00022819875 0.00020400781 0.00019822012 0.00029510856
0.0002528542 0.00022781525 0.0001997602 0.00020576257 0.0003188513 0.00029843303 0.00026995494 0.00021883528
0.00021670216 0.00029153068 0.00035312006 0.00042236687 0.00037452055 0.00032223616 0.00024853626 0.0002979147
0.00034051767 0.00032988554 0.0003142732 0.0002300434 0.00026663687 0.0002867561 0.00030203044 0.00031651498
0.00021661528 0.00025358595 0.0002776506 0.00027681366 0.00029573086 0.00024927824 0.00026624693 0.00026597833
0.0002556025 0.0002635618

exp_avg f4 [10]
00000000: fc23 713b d6d3 743a 5edc 9c3a 1ff8 843b
00000010: 9d87 8f3a df6d 1c3b 0a6c f6bb 68a0 163b
00000020: 2fcc c8bb 03f9 58bb
0.003679513 0.00093394273 0.001196753 0.0040578987 0.001095045 0.00238692 -0.0075202035 0.0022983793
-0.006127856 -0.0033107407

exp_avg_sq f4 [10]
00000000: cdc2 093a 002a 3139 9579 2839 5271 b839
00000010: 867b 8639 0267 1039 e1fa af39 3d93 0639
00000020: 458d 9f39 9160 7c39
0.0005255163 0.00016895682 0.00016067021 0.00035179645 0.00025650504 0.00013771284 0.0003356552 0.00012834086
0.00030432097 0.00024068567

exp_avg f4 [20, 10, 5, 5]
00000000: bc94 5ebb acb1 00bb 8098 403a ee5a 5c3b
00000010: dc8b 753a 9372 05bb c8bc 79bb cf44 a2bb
00000020: e887 1cbb c24f a4ba 6201 2b39 0c1f 9bba
00000030: a90a a2bb ebc1 a0bb f974 a2ba 0fbb 8039
00000040: d7bc 6aba ce1f 5b3a 0839 97b7 b394 02bb
00000050: 0d13 8f37 d31e d9ba 2af0 093a 8be3 9aba
00000060: a5de 13bb 800d babb 7561 a1bb 459b 3c39
00000070: fa99 f439 7177 2b3b 609f bebb e9e5 01bb
00000080: 05a6 123b 14d5 983a 5690 39b9 eadc 3abb
00000090: e592 cfb8 9d0b 3cbb df7a abba b7b3 a5b9
000000a0: 437b 91ba a9df 69bb 39db 1cbc 5f30 59ba
000000b0: 0ebe 0aba 1d27 e138 9947 d6bb ef9d f0bb
000000c0: d98c cd38 faa6 94ba 7110 a6ba 7cf3 d6ba
000000d0: 99a2 b3bb eb13 61bb 198f 5aba 4456 54ba
000000e0: 29c3 4bbb 96b9 a3bb 38b2 1dbb 008c 91ba
000000f0: eaf9 a6ba d528 17bb 7c1e e5b9 691f 19bb
00000100: 5def 9bbb 985e 44ba 5a2e 92b9 92f1 603a
00000110: 0371 e5bb e14c aebb 490e 8739 f41a 1437
00000120: a066 ffba bcce acbb 1752 d8ba 2245 99ba
00000130: d53e 3d39 8f77 52bb f3e1 c4bb 7f3f debb
00000140: f83f 84b9 36c9 293a 3777 06bb 7436 a7bb
00000150: 87e1 c2bb 553b 8dbb 6a49 9bbb 067c 2dba
00000160: e287 0338 ca8f 66bb b1c2 b0bb 3eb5 82bb
00000170: 73e0 173a 4e8b 0bb9 542f 2dbb db05 5bbb
00000180: 383c 23bb 02e8 d4b9 7efc 49bb 5b02 4abb
00000190: ea4c 7fbb 9a8f e5bb 3ee7 99ba d5f8 bb3a
000001a0: 00ef ad3a 1673 adbb 7253 4fbb 1eeb 133a
000001b0: 7de3 913a 5c82 e039 a8c0 4cbb 95b1 9fb9
000001c0: 8401 bfba 7382 c8ba 5839 2eba c5c7 45ba
000001d0: bb03 9839 3b59 0dbc 9f49 3fbb f035 1cba
000001e0: 1f52 09bb 9f2e 3cbb 17c8 eabb 28e9 48ba
000001f0: cbea e8b9 4e0e c139 2c52 eeba d543 e639
00000200: 2b3c 6e3a b99d 8739 b48b 8dbb 73d1 4cbb
00000210: 0b89 263a 1cfe dc3a c220 fb39 3c35 cabb
00000220: d1f9 94bb e23e c6bb d4bd 883a 9713 103b
00000230: 8cfc 6ebb 52d1 faba 8cfa 05bc 0a87 57bb
00000240: cb78 f83a cb65 acba 2a8c 71b8 32b6 9cbb
00000250: 0290 60bb 0c4f 97ba 9563 72ba 7942 b1ba
00000260: 9458 04bb df63 45ba 04a3 bd3a 2354 f0ba
00000270: 7f8e e3ba 89b7 a9ba 3a0d 5bbb eb85 ebba
00000280: e7fe 33ba 7e73 bcb9 993c 22bb 70fc cebb
00000290: 0fdb 42bb e4ef 4539 98af f5b8 d915 5cba
000002a0: 980d 35bb a7db 55bb 04c3 0e3a 3801 edb9
000002b0: 676d 92ba 1315 3bba 8054 35bb a2f2 08bc
000002c0: da9d 5cbb c10c 0d3b 9355 c83a 63fd 8539
000002d0: b334 83bb c60c 97ba 5da8 3938 fa90 b0ba
000002e0: cae7 2fbb 825d 3a39 937d f339 82e4 9fbb
000002f0: 5a9d 7abb ec93 43bb 605f d5b9 9a70 90bb
00000300: e8ce a1bb 905d 313a 78f9 1eba 4b27 03bb
00000310: 34c1 b1bb 465c a2ba 3685 3f3a 6368 b3ba
00000320: 8276 1937 b0e1 2ebb 67c3 9dba 1cd1 af39
00000330: 958a 5639 a252 5cbb 3510 8ebb 184c 11ba
00000340: 5224 d53a 8eda 02ba 0ee8 11bb 1448 29bb
00000350: 0416 03bb c281 0bba 6de9 69b9 7e33 a6ba
00000360: 0d4f a0ba 565c 52bb ffbd 84bb baa2 923a
00000370: 5ef4 cbba d171 c3b9 15f2 60bb b48b 45bb
00000380: 13b8 8db7 3989 27ba c8ed 16ba ddcb 01bb
00000390: c940 ce39 9d3d a63a 02d9 d0ba 0317 82bb
000003a0: 47ba 8cbb e7f0 0dbb e7c1 e43a 3fa8 adba
000003b0: 443c fbba 4fcf 80bb 7434 c1bb 94f8 d4b8
000003c0: 1774 fdb9 b442 c4ba fa5c 88b9 4da5 d4bb
000003d0: 17b6 08bb d8e7 84b9 dc8c 4b38 0640 07b9
000003e0: 5e30 88bb 3775 efba 1b0c 953a 3bb1 a63a
000003f0: fdf6 c53a cbe7 8639 1d8f 18ba 82ef d5b9
-0.0033963164 -0.001963715 0.0007346943 0.0033623534 0.0009366849 -0.002036248 -0.0038106907 -0.0049520503
-0.0023884717 -0.0012535977 0.00016308346 -0.0011834814 -0.0049451184 -0.0049059293 -0.001239448 0.00024553432
-0.0008954531 0.0008358926 -1.802716e-05 -0.0019925057 1.70558e-05 -0.0016564972 0.00052619225 -0.0011817081
-0.0022563126 -0.005677879 -0.004924948 0.0001798692 0.00046654028 0.0026163722 -0.005817339 -0.0019820875
0.0022376787 0.0011660182 -0.00017696744 -0.0028513023 -9.8978904e-05 -0.0028693445 -0.0013082883 -0.0003160515
-0.0011099357 -0.003568629 -0.009573751 -0.0008285101 -0.00052926026 0.000107361215 -0.006539297 -0.007343046
9.801397e-05 -0.0011341267 -0.0012669695 -0.0016399468 -0.0054820296 -0.0034344147 -0.0008337363 -0.0008100013
-0.0031091666 -0.004996489 -0.0024062525 -0.0011104345 -0.0012739275 -0.002306511 -0.00043700996 -0.002336467
-0.004758759 -0.0007490902 -0.00027881825 0.00085809187 -0.0070019974 -0.0053192233 0.0002575985 8.827763e-06
-0.0019485541 -0.005273668 -0.0016503957 -0.0011693577 0.00018047851 -0.003211472 -0.0060083806 -0.0067824717
-0.00025224662 0.0006476821 -0.0020517835 -0.005102927 -0.005947295 -0.0043100514 -0.0047389762 -0.0006617907
3.1359385e-05 -0.003518092 -0.005394303 -0.003988891 0.00057936384 -0.00013307968 -0.0026425915 -0.0033420238
-0.002490772 -0.0004060865 -0.0030820663 -0.0030824158 -0.0038955756 -0.007005644 -0.0011741889 0.0014341125
0.001327008 -0.0052932603 -0.003163543 0.000564264 0.0011130419 0.00042821735 -0.0031242762 -0.00030459152
-0.0014572595 -0.0015297666 -0.0006646118 -0.00075447216 0.0002899448 -0.008627231 -0.0029188169 -0.0005958965
-0.002095349 -0.0028714312 -0.007164966 -0.00076641375 -0.00044425423 0.00036822486 -0.0018182448 0.00043919557
0.0009087945 0.0002586672 -0.0043196324 -0.003125277 0.00063528185 0.0016860398 0.00047898857 -0.006170897
-0.004546382 -0.0060499767 0.001043255 0.0021984333 -0.0036466448 -0.0019135869 -0.008177411 -0.0032886886
0.0018956898 -0.0013152895 -5.7589416e-05 -0.0047824616 -0.0034265523 -0.0011543944 -0.0009246406 -0.0013523839
-0.0020194398 -0.00075298356 0.0014468138 -0.0018335622 -0.0017361193 -0.0012948374 -0.0033424632 -0.0017968988
-0.00068662915 -0.00035944203 -0.0024755357 -0.006316714 -0.002973262 0.0001887675 -0.00011715217 -0.00083955895
-0.002762651 -0.0032632144 0.000544593 -0.0004520507 -0.001117152 -0.0007136624 -0.0027668774 -0.008358629
-0.0033663423 0.0021522494 0.0015284292 0.00025556525 -0.004004085 -0.0011524193 4.4264238e-05 -0.0013470941
-0.0026841038 0.00017773177 0.00046442132 -0.004879535 -0.0038240761 -0.0029842807 -0.00040697586 -0.0044079544
-0.004937995 0.0006765956 -0.00060643954 -0.0020012434 -0.005424643 -0.0012387119 0.0007305922 -0.0013687726
9.147103e-06 -0.0026684813 -0.0012036384 0.000335344 0.00020460256 -0.003361859 -0.004335428 -0.000554265
0.0016261435 -0.00049916736 -0.002226356 -0.0025830315 -0.0020002136 -0.00053217646 -0.0002230757 -0.0012680141
-0.001223059 -0.0032098494 -0.0040509696 0.0011187412 -0.0015560498 -0.00037278098 -0.003432398 -0.0030143084
-1.6894226e-05 -0.0006390992 -0.0005757478 -0.001980535 0.0003933965 0.0012683157 -0.0015933814 -0.0039700284
-0.004294667 -0.0021658482 0.0017452807 -0.0013248994 -0.0019167741 -0.003930963 -0.0058961455 -0.00010155249
-0.00048342414 -0.0014973492 -0.00026009214 -0.006489432 -0.0020860487 -0.0002534974 4.8530157e-05 -0.00012898454
-0.0041561564 -0.0018269186 0.0011371406 0.0012717614 0.0015103515 0.0002573117 -0.00058196654 -0.00040804973
