2020-S/exercise/01_MNIST_classifier/checkpoint/model_epoch4.pth (torch, 269279 bytes, 24 tensors)

conv1.weight f4 [10, 1, 5, 5]
0.073388934 0.1424045 -0.06352361 -0.06614703 -0.02956081 0.03086903 -0.19575173 -0.16969103
-0.40899146 -0.2513943 0.15570138 0.18854189 -0.17274839 -0.4669948 -0.31046462 0.19370164
0.13868867 0.51584876 0.3111879 0.21688177 0.07972304 -0.011035359 0.21472694 0.52229774
0.42398804 0.15587963 -0.08129675 -0.23077272 0.19002613 0.2755268 -0.15420479 -0.10614727
-0.24691612 -0.10223883 0.4640767 -0.29121482 -0.023928862 -0.15542184 0.15254398 0.4703775
-0.056493014 0.07168579 0.19138968 0.3080074 0.16569941 0.1953818 0.024848003 -0.034133352
0.10949414 -0.06415632 0.0021326856 0.26803234 0.009073477 0.18104649 0.0038627284 0.1328776
0.082304105 0.17902578 0.07408974 -0.20803234 0.45434475 0.32284147 0.21276867 -0.29485816
-0.41898263 0.35801607 -0.10119156 -0.047744714 -0.41789943 -0.08312953 0.16898304 -0.23774031
-0.1795981 -0.27160445 -0.11818741 0.25639346 0.2123125 0.1617121 0.13747974 0.3132084
-0.22554551 -0.008678279 0.17543803 0.019231988 -0.062188745 -0.036700822 -0.21856695 -0.27630302
-0.053073224 -0.02343435 -0.17653511 -0.08267566 -0.038904257 -0.21790339 -0.20371377 0.17684118
-0.113667026 -0.1774686 -0.043459687 -0.025993254 -0.3047972 -0.14833453 -0.14372486 0.33239615
0.19789657 -0.31115556 -0.03247228 0.03960646 0.24232948 0.33145243 -0.30758688 -0.032080017
0.14122441 0.4643027 0.07844554 -0.27430108 0.0781066 0.1165309 0.30635396 0.0036300917
-0.17887266 -0.03920965 0.31428424 0.1788925 -0.01458895 -0.027014513 0.4292315 0.43001178
0.2667839 -0.30391142 -0.13201185 0.14470644 0.44243768 0.25531262 -0.0707857 -0.4654113
-0.18182512 0.37627316 0.39808854 -0.056510497 -0.4828943 -0.19461209 -0.12583238 0.3593495
0.046667784 -0.03985978 -0.30739677 0.043084923 -0.017986184 0.035617735 0.011367685 -0.28566328
-0.15895101 0.0943012 -0.2286246 0.32329026 0.053144578 -0.23315382 -0.19229962 -0.28557613
0.06613166 -0.031583354 0.1417335 0.17146751 0.14153296 -0.14857902 0.1471286 0.16882457
0.18288995 0.35937512 0.20177141 0.14925647 0.09358459 -0.31620604 -0.114980556 -0.13253196
-0.12877993 -0.33428812 -0.2130821 -0.2953111 -0.0177743 -0.29772753 0.01743707 -0.24389881
0.117449835 -0.088957034 -0.2200494 -0.12407371 -0.095345065 0.3675852 -0.01197367 0.14089586
0.1633093 0.18517116 0.29452214 0.038595922 0.06449637 0.005532491 0.215103 0.4236117
-0.11347803 -0.12379015 0.123455904 0.1981055 -0.30612049 -0.18517812 0.038067162 -0.04820462
0.17850874 -0.17037497 -0.113831416 0.18437958 0.044538584 0.10382608 0.4204102 0.26327652
0.33269694 0.11262299 0.16813311 0.39912954 -0.1655468 -0.027981723 -0.40874922 -0.29686958
-0.17873825 0.057615858 0.0027785278 0.13423775 -0.20248711 0.008647693 -0.04120603 0.11107993
0.18525048 -0.39612243 -0.43025735 0.15608642 0.42874926 0.074536406 -0.20859349 -0.06293681
-0.12030485 0.19352518 0.4192217 0.1919873 -0.15109009 -0.27095407 0.126051 -0.08841925
0.0788913 -0.1766055
00000000: f04c 963d 7cd2 113e ab18 82bd 1878 87bd
00000010: 8329 f2bc 0ce1 fc3c 2473 48be 7cc3 2dbe
00000020: 5467 d1be c1b6 80be 2f70 1f3e 2011 413e
00000030: f4e4 30be f119 efbe 38f5 9ebe b959 463e
00000040: 6704 0e3e aa0e 043f 0554 9f3e 4116 5e3e
00000050: d545 a33d a7cd 34bc 61e1 5b3e 4eb5 053f
00000060: f614 d93e e99e 1f3e e97e a6bd af4f 6cbe
00000070: 3696 423e d911 8d3e dce7 1dbe bd63 d9bd
00000080: 94d7 7cbe 9762 d1bd 769b ed3e 1c1a 95be
00000090: 7606 c4bc e726 1fbe 7d34 1c3e 52d5 f03e
000000a0: 3865 67bd 00d0 923d a8fb 433e 25b3 9d3e
000000b0: 1bad 293e 2b12 483e 0a8e cb3c 6acf 0bbd
000000c0: 773e e03d 6464 83bd 87c4 0b3b 893b 893e
000000d0: eca8 143c 4064 393e d425 7d3b 1111 083e
000000e0: 0e8f a83d 8952 373e 5dbc 973d 6e06 55be
000000f0: e09f e83e 7a4b a53e 08e0 593e a6f7 96be
00000100: e484 d6be e24d b73e 853d cfbd f68f 43bd
00000110: eaf6 d5be d13f aabd e409 2d3e 3272 73be
00000120: 90e8 37be bd0f 8bbe 3e0c f2bd 0146 833e
00000130: 7368 593e db97 253e 7dc7 0c3e da5c a03e
00000140: 67f5 66be 572f 0ebc 07a6 333e 678c 9d3c
00000150: a0b9 7ebd 9a53 16bd 04d0 5fbe 9777 8dbe
00000160: 4f63 59bd 65f9 bfbc 9fc5 34be db51 a9bd
00000170: 125a 1fbd 1122 5fbe 589a 50be db15 353e
00000180: 42ca e8bd 54ba 35be c902 32bd ceef d4bc
00000190: 610e 9cbe 02e5 17be 9c2c 13be d42f aa3e
000001a0: 66a5 4a3e c84f 9fbe a701 05bd 623a 223d
000001b0: 3825 783e 22b4 a93e 077c 9dbe 5666 03bd
000001c0: 229d 103e 15b9 ed3e 0ea8 a03d 3171 8cbe
000001d0: 5af6 9f3d c1a7 ee3d 6dda 9c3e d5e6 6d3b
000001e0: 652a 37be 4c9a 20bd dde9 a03e 982f 373e
000001f0: 7e06 6fbc 8a4d ddbc 3bc4 db3e 812a dc3e
00000200: e697 883e 479a 9bbe 1d2e 07be ed2d 143e
00000210: 3187 e23e 56b8 823e 18f8 90bd 644a eebe
00000220: 5d30 3abe e0a6 c03e 43d2 cb3e 8d77 67bd
00000230: ec3d f7be 6448 47be 34da 00be a8fc b73e
00000240: b826 3f3d 0244 23bd 1c63 9dbe d179 303d
00000250: c357 93bc e7e3 113d 873f 3a3c 7542 92be
00000260: 0ec4 22be fd20 c13d 911c 6abe 4d86 a53e
00000270: 21ae 593d e0bf 6ebe 31ea 44be 0937 92be
00000280: 0970 873d 8c5d 01bd 9622 113e 2e95 2f3e
00000290: 04ee 103e 1925 18be e1a8 163e 59e0 2c3e
000002a0: 8147 3b3e 0400 b83e 2a9d 4e3e b0d6 183e
000002b0: 47a9 bf3d c2e5 a1be ed7a ebbd 75b6 07be
000002c0: e3de 03be d027 abbe 3232 5abe 0433 97be
000002d0: 699b 91bc be6f 98be 30d8 8e3c 9cc0 79be
000002e0: 8a89 f03d 1b2f b6bd a154 61be 5b1a febd
000002f0: 4644 c3bd 2134 bc3e 362d 44bc 0147 103e
00000300: 8e3a 273e 829d 3d3e 9bcb 963e c216 1e3d
00000310: ac16 843d e649 b53b f643 5c3e a2e3 d83e
00000320: 2b67 e8bd b185 fdbd 73d6 fc3d 2bdc 4a3e
00000330: d3bb 9cbe 559f 3dbe 50ec 1b3d 3572 45bd
00000340: ffca 363e c776 2ebe 7220 e9bd 00ce 3c3e
00000350: 176e 363d c5a2 d43d 0140 d73e 2ecc 863e
00000360: 4157 aa3e e2a6 e63d 162b 2c3e b55a cc3e
00000370: 1a85 29be ed39 e5bc 9447 d1be 4aff 97be
00000380: 2907 37be 9bfe 6b3d f617 363b 9f75 093e
00000390: c858 4fbe 0eaf 0d3c a7c7 28bd e07d e33d
000003a0: 4db2 3d3e 8fd0 cabe b14a dcbe 1ed5 1f3e
000003b0: 0685 db3e 8ba6 983d 8899 55be 04e5 80bd
000003c0: 6462 f6bd 772b 463e 3aa4 d63e 5298 443e
000003d0: 5cb7 1abe 7eba 8abe 8313 013e 2715 b5bd
000003e0: c391 a13d 12d8 34be

conv1.bias f4 [10]
0.07246551 0.14174215 -0.014558404 -0.024805982 0.013014579 -0.009867358 0.1387601 -0.2671886
0.1654119 0.03478052
00000000: cc68 943d db24 113e 5f86 6ebc ea35 cbbc
00000010: 1a3b 553c b3aa 21bc 2117 0e3e f2cc 88be
00000020: bd61 293e 0576 0e3d

conv2.weight f4 [20, 10, 5, 5]
-0.0051267017 0.07018919 0.048418812 -0.09471379 -0.24538001 0.0050277533 0.03379728 0.04282111
-0.1458526 -0.12262071 0.07635473 -0.021887643 -0.106251426 -0.09154315 -0.13600333 0.006280359
0.05953312 -0.1468836 -0.124428116 -0.10290797 0.13644758 0.0050411955 -0.16707072 -0.06054741
0.013242827 -0.08460128 -0.076906204 -0.08959863 -0.0064287363 0.06116344 0.0381527 0.028053327
-0.0033789799 0.055858012 0.022967124 0.08870151 -0.03677042 0.0682395 -0.015209986 -0.03410307
-0.0029596784 0.11084478 0.17269726 0.07472994 -0.04434493 0.1278049 0.06276689 0.107662104
0.17675307 -0.0877477 -0.12423492 -0.15664391 -0.019803755 -0.008133162 -0.008365654 -0.008976347
-0.048123915 0.039963637 0.0039034092 -0.030366434 0.027928423 -0.08149015 -0.10183514 -0.12827198
0.021868726 -0.03400672 -0.13680968 -0.06370043 0.0036378934 0.09479237 -0.11569091 0.01333333
0.24466848 0.096408844 0.06432901 -0.0064455024 -0.08153708 -0.0027628946 0.112626456 0.1044566
-0.0039356095 0.012620207 -0.044872455 0.010917371 0.0730601 0.0318667 -0.10917045 -0.111656524
-0.10587909 -0.034845684 -0.13280343 -0.06294861 -0.1836993 -0.20338362 -0.023188654 -0.046219315
-0.075945854 -0.1755007 -0.07739525 -0.08441095 -0.08743114 -0.041157052 -0.05972322 -0.039875623
0.04700231 -0.06132016 -0.06183467 -0.10325687 0.059071228 0.07008792 0.085193865 -0.018201469
-0.061196234 0.02598267 0.13813747 0.10877129 0.06881556 0.052150078 0.06267818 0.056679267
-0.036564007 0.10271605 0.060802497 0.20835972 0.037978493 -0.15621725 -0.086193025 -0.2523569
-0.26512912 -0.28812572 0.019006567 -0.056773767 0.02230426 0.096811295 -0.057839077 -0.047161147
-0.03111408 0.12363683 0.06482987 0.16026343 -0.027377516 -0.024278179 0.063715875 0.019086584
-0.07392326 0.18739136 0.026641546 -0.06112606 -0.009210558 -0.15730849 -0.0411765 0.016616307
0.0017980187 -0.051591773 -0.14773628 0.03570212 0.09339282 -0.0071559255 0.066364735 -0.07536525
0.1630136 0.009162383 -0.07874637 0.010341076 -0.01646105 0.011631243 -0.098406434 0.03033591
0.032836735 0.0798293 0.070323326 0.049683806 -0.058551278 -0.05080094 0.11881399 -0.020836655
0.08136789 0.037265584 0.050510116 0.1282452 0.019683853 -0.06922493 0.00049195625 0.07593534
-0.101694204 0.09948681 -0.12888852 0.020102553 -0.04656153 -0.20999964 -0.121516995 -0.08884935
-0.0037411042 -0.16981597 -0.30505663 -0.03470161 0.0784063 0.13084804 -0.044153593 -0.19489336
-0.05454094 -0.07042199 -0.06555417 -0.09921888 -0.17446558 -0.050688237 0.025710532 0.02208941
-0.027761541 -0.18151817 0.044973396 0.0858095 -0.031316526 -0.110211544 -0.13375239 0.114886865
-0.05399911 -0.014123474 -0.017609306 -0.020749776 0.10012886 0.024607213 0.1433857 0.031812586
-0.064207174 -0.057699263 0.018272065 -0.041890543 -0.0060488186 -0.18379402 0.032323692 0.03782379
0.15190795 0.15925463 -0.045258828 -0.016708832 0.003556326 0.1031771 0.10439727 0.010974152
0.15626767 -0.04524635 -0.008581716 0.07301884 0.03601801 0.032594346 -0.06488231 0.023644086
0.0132290535 0.056980696 0.080974706 -0.051371332 -0.045246977 0.012219243 0.021310728 0.276276
00000000: e4fd a7bb 5abf 8f3d ce52 463d 4ef9 c1bd
00000010: e644 7bbe dabf a43b 046f 0a3d 3065 2f3d
00000020: 625a 15be 9120 fbbd de5f 9c3d b74d b3bc
00000030: 599a d9bd fa7a bbbd 7544 0bbe 78cb cd3b
00000040: 00d9 733d a868 16be 2bd4 febd 6ac1 d2bd
00000050: eab8 0b3e 9d30 a53b 9614 2bbe 9000 78bd
00000060: 71f8 583c 7043 adbd 0081 9dbd 7d7f b7bd
00000070: 26a8 d2bb 8486 7a3d 0146 1c3d 17d0 e53c
00000080: e071 5dbb 5fcb 643d 8d25 bc3c 23a9 b53d
00000090: 949c 16bd 27c1 8b3d 4e33 79bc a9af 0bbd
000000a0: 2af7 41bb 9702 e33d 8dd7 303e 030c 993d
000000b0: 08a3 35bd 4adf 023e ed8b 803d f37d dc3d
000000c0: c2fe 343e 11b5 b3bd e16e febd 4367 20be
000000d0: 7c3b a2bc f440 05bc 1910 09bc 8711 13bc
000000e0: 951d 45bd e9b0 233d 57d0 7f3b 07c3 f8bc
000000f0: 26ca e43c 4fe4 a6bd f18e d0bd bb59 03be
00000100: 0b26 b33c a14a 0bbd d617 0cbe 5f75 82bd
00000110: b969 6e3b 8122 c23d 5bef ecbd 0a74 5a3c
00000120: 608a 7a3e 0072 c53d eebe 833d cb34 d3bb
00000130: eafc a6bd ae11 35bb b3a8 e63d 58ed d53d
00000140: 49f6 80bb fcc4 4e3c 2ecc 37bd c6de 323c
00000150: 89a0 953d a886 023d c294 dfbd 2dac e4bd
00000160: 23d7 d8bd 59ba 0ebd 9ffd 07be 33eb 80bd
00000170: ab1b 3cbe cc43 50be 22f6 bdbc 7750 3dbd
00000180: 8089 9bbd 75b6 33be 6781 9ebd a6df acbd
00000190: 190f b3bd 4c94 28bd 56a0 74bd 9f54 23bd
000001a0: 7f85 403d d92a 7bbd 5a46 7dbd 5678 d3bd
000001b0: acf4 713d 418a 8f3d 1f7a ae3d 3f1b 95bc
000001c0: e7a8 7abd 9cd9 d43c e973 0d3e 7bc3 de3d
000001d0: 2cef 8c3d 529b 553d 6b5d 803d 8528 683d
000001e0: 24c4 15bd cb5c d23d 0a0c 793d 405c 553e
000001f0: 568f 1b3d 6af7 1fbe f885 b0bd ec34 81be
00000200: 01bf 87be 3785 93be a9b3 9b3c 9c8b 68bd
00000210: 6cb7 b63c 0045 c63d abe8 6cbd 0c2c 41bd
00000220: f5e2 febc 4e35 fd3d 86c5 843d 191c 243e
00000230: d046 e0bc 08e3 c6bc 787d 823d 785b 9c3c
00000240: 1465 97bd 85e3 3f3e 5f3f da3c 525f 7abd
00000250: e1e7 16bc 7a15 21be b1a8 28bd ec1e 883c
00000260: 7fab eb3a e551 53bd 2e48 17be 633c 123d
00000270: bc44 bf3d 417c eabb 3cea 873d 1959 9abd
00000280: 0aed 263e d21d 163c c745 a1bd 9e6d 293c
00000290: 53d9 86bc f890 3e3c 5089 c9bd 0483 f83c
000002a0: d07f 063d 8b7d a33d ad05 903d 3f81 4b3d
000002b0: 77d3 6fbd a514 50bd c054 f33d a2b1 aabc
000002c0: 35a4 a63d cca3 183d b2e3 4e3d b652 033e
000002d0: 0840 a13c cdc5 8dbd a0f6 003a fd83 9b3d
000002e0: 0d45 d0bd bebf cb3d 5afb 03be 1cae a43c
000002f0: 4eb7 3ebd 250a 57be e7dd f8bd a6f6 b5bd
00000300: 502d 75bb 3de4 2dbe 6230 9cbe 4723 0ebd
00000310: 7b93 a03d 07fd 053e 66da 34bd 2092 47be
00000320: 5266 5fbd 6739 90bd 4441 86bd 4533 cbbd
00000330: 1ba7 32be 789e 4fbd e59e d23c daf4 b43c
00000340: 2c6c e3bc e6df 39be 0636 383d e4bc af3d
00000350: c245 00bd 97b6 e1bd 63f6 08be ce49 eb3d
00000360: 2c2e 5dbd 2566 67bc 6441 90bc 6ffb a9bc
00000370: 5c10 cd3d 1195 c93c b3d3 123e ea4d 023d
00000380: 0d7f 83bd 1056 6cbd 4caf 953c 6b95 2bbd
00000390: 2b35 c6bb 8034 3cbe d965 043d 1eed 1a3d
000003a0: c28d 1b3e a513 233e 5261 39bd f6e0 88bc
000003b0: 4011 693b 844e d33d 3cce d53d eecc 333c
000003c0: a204 203e 3d54 39bd 539a 0cbc e78a 953d
000003d0: 9f87 133d a681 053d 04e1 84bd 3eb1 c13c
000003e0: acbe 583c 9764 693d 11d6 a53d bf6a 52bd
000003f0: e554 39bd 3833 483c d693 ae3c 0c74 8d3e

conv2.bias f4 [20]
0.07856041 -0.034162443 -0.030267429 -0.07407851 -0.08759206 -0.12509042 0.09654723 -0.04908502
0.01879179 -0.029464828 -0.021075713 0.02161204 0.035631813 0.052268554 -0.012782142 -0.024500987
0.017626004 0.023758579 0.044934623 -0.03774115
00000000: 48e4 a03d ebed 0bbd 66f3 f7bc 79b6 97bd
00000010: 7763 b3bd b417 00be 8eba c53d 600d 49bd
00000020: 3df1 993c 3960 f1bc f9a6 acbc bc0b b13c
00000030: aaf2 113d 8d17 563d 306c 51bc 4bb6 c8bc
00000040: 6964 903c 5aa1 c23c 5e0d 383d 7796 1abd

fc1.weight f4 [50, 320]
0.030257355 0.015828405 -0.022051873 -0.07234568 0.060083974 -0.023575647 0.030345732 0.1067182
0.10642224 0.085241206 -0.036778364 0.0009429189 0.07849366 -0.028494146 -0.11530151 -0.22284518
0.05687648 0.09539667 0.04844414 0.09529126 0.09015212 0.04091507 0.0070400108 0.051161267
-0.11229794 -0.05894103 0.03463672 -0.07124148 -0.030657316 -0.020881526 -0.05851885 -0.12955111
-0.03898802 -0.011604689 0.06840362 -0.06182692 -0.10182688 -0.09087455 0.05102532 0.0043088566
-0.11288523 -0.083209224 -0.05799698 0.04196221 -0.06688571 -0.03968638 0.101397 0.24027139
0.059395093 0.011219356 0.015371668 -0.12497987 0.039085258 0.023530025 -0.0057695527 -0.3161437
0.013768141 -0.13626184 -0.08663081 0.046883926 -0.090967715 0.029023672 0.006798011 0.14429845
0.15536697 0.007974136 0.059420846 0.033841863 0.1290749 0.044661596 -0.014772615 0.10054919
-0.042134263 -0.09973463 -0.038823403 -0.082041696 -0.18276481 -0.061134346 -0.03420519 -0.0021544786
-0.022329051 -0.019063512 0.08429756 0.063882254 -0.029535284 -0.012547098 0.06420309 0.07525722
0.005636414 0.03618921 0.0864664 0.06967868 -0.08195501 -0.052852854 0.026855495 -0.04983936
0.044338927 0.10486027 0.017021945 0.014387377 0.030973174 0.040512186 0.02432546 -0.026925443
0.07342335 0.002036555 0.026327776 0.0806791 0.04420157 -0.05611547 -0.08141135 -0.13542172
0.059924725 0.021864757 0.028677808 0.15239643 0.07722788 0.039605062 0.059364077 -0.01991969
-0.09724917 -0.08390102 -0.10296725 -0.12721045 -0.07590089 -0.10778754 -0.0049025663 0.09103535
0.1164593 0.16170198 0.04023618 -0.11220531 0.08049342 0.07845107 -0.033413526 -0.019933281
-0.014105016 -0.050346088 0.037852827 0.03362835 0.08455244 0.05752416 0.038863067 -0.075951315
-0.05114654 0.01395277 0.025622336 0.035815176 0.010911683 0.04087875 0.039513916 0.051048335
-0.18920253 0.012807336 -0.06849824 0.041485988 -0.07416761 -0.008100866 -0.10649686 0.012985902
0.035939958 0.045475494 0.04511553 -0.026249722 0.040418226 0.03412189 -0.1273245 -0.12492929
0.054465294 0.03789704 -0.068513 0.077510454 -0.04151871 0.03561377 0.007140545 0.040202785
0.04352489 -0.025219114 0.05584792 -0.005339892 -0.07173597 -0.17874134 -0.07101115 0.08615729
-0.10448447 -0.06956422 0.061340578 0.06680633 -0.026882088 -0.03180454 0.095236905 0.14363423
0.022239592 0.05995562 0.02909638 0.029128218 -0.038813826 0.017436594 0.071483195 0.02789169
0.082144625 0.07344301 0.00070500595 -0.13151702 0.11185066 0.0736891 -0.088789515 -0.11343611
0.036175948 0.03379608 -0.03049605 0.10401411 -0.032650318 0.0055555985 -0.089602225 0.047386568
-0.03586007 0.05895262 0.13469425 0.04215457 0.011350896 0.06651994 0.06702694 -0.08700026
-0.049382146 -0.004829 -0.010598561 0.013415723 0.02607627 -0.08934333 0.0060472223 0.0063719326
-0.07614049 -0.013795316 0.0041286238 -0.032596566 0.045869347 0.09575581 -0.0321547 -0.07336967
0.08446794 0.08016492 0.05546912 -0.10314204 3.860931e-05 0.016268436 -0.006850672 0.04832985
0.015260238 -0.010521216 0.03285983 0.0089903 0.02485186 0.058344644 -0.17957744 -0.18349534
00000000: 46de f73c 92aa 813c 21a6 b4bc f929 94bd
00000010: 9d1a 763d b721 c1bc 9d97 f83c 128f da3d
00000020: e7f3 d93d f192 ae3d e9a4 16bd 372e 773a
00000030: 49c1 a03d 8e6c e9bc 3323 ecbd 8731 64be
00000040: 50f7 683d 545f c33d 5d6d 463d 1028 c33d
00000050: ada1 b83d 8f96 273d e4af e63b 7a8e 513d
00000060: 76fc e5bd 266c 71bd 3cdf 0d3d 0ee7 91bd
00000070: 0d25 fbbc bc0f abbc 76b1 6fbd 0ca9 04be
00000080: e7b1 1fbd 9821 3ebc 3217 8c3d 393e 7dbd
00000090: 9c8a d0bd 701c babd edff 503d 4f31 8d3b
000000a0: 5f30 e7bd 9969 aabd 3e8e 6dbd 91e0 2b3d
000000b0: 60fb 88bd 308e 22bd 3ba9 cf3d b409 763e
000000c0: 4548 733d 64d1 373c 73d9 7b3c 72f5 ffbd
000000d0: dd17 203d 0ac2 c03c 840e bdbb 96dd a1be
000000e0: c593 613c 3988 0bbe 7e6b b1bd 5c09 403d
000000f0: 484d babd 0dc3 ed3c d9c1 de3b f9c2 133e
00000100: 8518 1f3e f3a5 023c 4663 733d c49d 0a3d
00000110: 362c 043e 14ef 363d d708 72bc bcec cd3d
00000120: fa94 2cbd ab41 ccbd 4a05 1fbd 7a05 a8bd
00000130: b326 3bbe 0268 7abd be1a 0cbd 2732 0dbb
00000140: 6aeb b6bc 152b 9cbc 33a4 ac3d b3d4 823d
00000150: fbf3 f1bc 5892 4dbc e97c 833d 7520 9a3d
00000160: abb1 b83b 233b 143d 4c15 b13d b2b3 8e3d
00000170: 07d8 a7bd 3c7c 58bd 0e00 dc3c 5b24 4cbd
00000180: bc9c 353d fbc0 d63d 9b71 8b3c 08b9 6b3c
00000190: 74bb fd3c 1bf0 253d 3046 c73c bf92 dcbc
000001a0: fb5e 963d b977 053b 59ad d73c 153b a53d
000001b0: b50c 353d 56d9 65bd feba a6bd feab 0abe
000001c0: a173 753d b81d b33c b9ed ea3c cf0d 1c3e
000001d0: a729 9e3d eb38 223d bf27 733d 9e2e a3bc
000001e0: 932a c7bd 4cd4 abbd 7ee0 d2bd 7543 02be
000001f0: ed71 9bbd b7bf dcbd b5a5 a0bb be70 ba3d
00000200: 3782 ee3d 3495 253e b1ce 243d e6cb e5bd
00000210: bcd9 a43d f4aa a03d 9fdc 08bd 1f4b a3bc
00000220: ba18 67bc b337 4ebd 910b 1b3d e1bd 093d
00000230: d429 ad3d 749e 6b3d e12e 1f3d 5d8c 9bbd
00000240: 097f 51bd 299a 643c efe5 d13c efb2 123d
00000250: eac6 323c 7a70 273d 58d9 213d 0f18 513d
00000260: 4fbe 41be dcd5 513c ce48 8cbd 36ed 293d
00000270: 30e5 97bd 7fb9 04bc 071b dabd d2c2 543c
00000280: c735 133d 8344 3a3d 10cb 383d a809 d7bc
00000290: 958d 253d 65c3 0b3d 5b61 02be edda ffbd
000002a0: 0017 5f3d ed39 1b3d 8b50 8cbd cdbd 9e3d
000002b0: 860f 2abd bfdf 113d 3cfb e93b adab 243d
000002c0: 2847 323d 5198 cebc cac0 643d 43fa aebb
000002d0: 4fea 92bd f807 37be 4b6e 91bd 3c73 b03d
000002e0: f4fb d5bd b077 8ebd 4240 7b3d c2d1 883d
000002f0: d337 dcbc 7a45 02bd 910b c33d da14 133e
00000300: ce2f b63c 0694 753d 885b ee3c 4d9e ee3c
00000310: 3ffb 1ebd 30d7 8e3c c865 923d 1d7d e43c
00000320: 713b a83d 4a69 963d 26d0 383a 66ac 06be
00000330: f511 e53d 50ea 963d 47d7 b5bd 3151 e8bd
00000340: 3b2d 143d c26d 0a3d dad2 f9bc 5a05 d53d
00000350: 57bc 05bd bd0b b63b 5f81 b7bd 6b18 423d
00000360: 02e2 12bd 4d78 713d 4aed 093e 45aa 2c3d
00000370: 1cf9 393c 9b3b 883d 6c45 893d 312d b2bd
00000380: ef44 4abd 973c 9ebb 96a5 2dbc 9fcd 5b3c
00000390: e79d d53c a3f9 b6bd c727 c63b a5cb d03b
000003a0: 8cef 9bbd c005 62bc 6849 873b fa83 05bd
000003b0: 7fe1 3b3d 9f1b c43d a6b4 03bd d642 96bd
000003c0: 87fd ac3d 812d a43d 9733 633d 223c d3bd
000003d0: 6ef0 2138 6245 853c 9a7b e0bb 85f5 453d
000003e0: 1406 7a3c 2e61 2cbc 0798 063d 0d4c 133c
000003f0: 2196 cb3c cbfa 6e3d 26e3 37be 34e6 3bbe

fc1.bias f4 [50]
0.12882413 0.046109498 -0.03109478 0.03424821 0.09960364 0.020464435 0.15704463 0.09419696
0.122452706 0.11729982 0.044994302 0.020031897 0.1640627 0.21067496 0.0791894 -0.048693787
0.032889806 0.15308654 -0.043365452 0.03886486 0.13475107 0.11158324 0.147964 0.04605842
0.19773649 0.13927731 0.055699788 0.15345626 0.24392425 0.24472004 0.14967528 0.056916963
0.05631365 0.036288172 0.026672348 0.07709113 0.1728689 -0.04251599 0.11173586 0.015510214
0.120230675 -0.07223745 -0.05210635 0.010315778 0.13285561 0.033405326 0.057855893 0.10833001
0.024304649 0.2632373
00000000: 79ea 033e 50dd 3c3d 7bba febc da47 0c3d
00000010: fefc cb3d 08a5 a73c 4fd0 203e 56ea c03d
00000020: 7cc8 fa3d e33a f03d f24b 383d ef19 a43c
00000030: 0d00 283e 2dbb 573e 0d2e a23d 2373 47bd
00000040: 76b7 063d b8c2 1c3e f99f 31bd c230 1f3d
00000050: 2ffc 093e c185 e43d e083 173e c1a7 3c3d
00000060: 6f7b 4a3e b69e 0e3e 7625 643d a323 1d3e
00000070: 47c7 793e e497 7a3e 7a44 193e c321 693d
00000080: 24a9 663d e8a2 143d f87f da3c f4e1 9d3d
00000090: 8b04 313e 3f25 2ebd c5d5 e43d 8d1e 7e3c
000000a0: 803b f63d 3af1 93bd 786d 55bd 8203 293c
000000b0: 4d0b 083e 06d4 083d 4dfa 6c3d 20dc dd3d
000000c0: 8b1a c73c 0ac7 863e

fc2.weight f4 [10, 50]
0.08050323 0.0032771998 0.091151215 -0.26113477 -0.06440709 0.08163264 -0.2802797 -0.26727304
-0.2758356 -0.29522207 0.15151389 -0.11201448 0.10319916 -0.038808893 0.18765868 -0.19386972
0.18329626 0.13230182 -0.38363445 -0.36209938 -0.21795486 0.07600794 -0.11594077 0.07496342
-0.2755066 -0.29262587 0.08590071 -0.20454109 0.07358224 0.16240871 -0.24294712 0.045461025
0.06611581 -0.21150894 -0.19398327 -0.21927327 -0.40391153 -0.14969186 0.16937886 0.01912126
-0.32083628 -0.042585116 -0.29444882 -0.23179737 -0.15704753 0.15993199 0.12711261 0.1479993
0.038464647 0.108538255 0.05994684 -0.18988396 -0.13651934 -0.045659322 0.14368115 0.09792221
0.18655187 0.05567827 0.12768136 0.15574647 -0.1270757 -0.14013389 0.08282889 0.19003905
-0.23135182 -0.16071093 -0.19754307 0.08483944 -0.24586795 -0.22893532 0.15815717 0.03626548
0.16778177 -0.25380972 0.11716494 0.09513698 -0.26620016 0.19182831 0.03698116 0.12716435
0.10162285 -0.2959839 -0.11829598 -0.19715388 -0.119129434 0.11603358 0.06045227 -0.14280885
-0.16999966 -0.28058597 0.13493055 -0.25849903 -0.17204416 0.069299676 0.118886046 -0.25842747
-0.1640698 -0.21772338 -0.23768573 0.104205996 0.12483083 0.05658214 0.089343354 -0.19897981
0.14249384 -0.18272586 0.20225373 0.031117115 0.1251123 -0.07173963 0.12619145 0.07307011
-0.17501618 0.0024997173 -0.12535693 0.08197403 0.13053016 0.110897124 -0.12529936 -0.16248414
-0.046184923 0.072032616 -0.11857815 -0.19871773 -0.14055498 0.10588036 0.08427726 0.1940377
-0.1458719 -0.12714627 0.08643937 -0.049020596 0.1734148 -0.27655008 -0.05933574 0.10602992
-0.2820846 -0.061870214 -0.18751134 -0.032250974 -0.20800115 0.010026484 0.12706256 0.123989806
-0.05920829 0.07248477 0.09223937 -0.061590556 -0.25934127 -0.090356536 -0.099196 -0.19567327
0.080843695 -0.21064879 -0.24824113 0.16711544 0.027080642 -0.010767767 0.12875837 0.15438683
0.14199859 -0.0073612486 -0.10685531 -0.21260501 -0.0028291189 0.0796634 -0.040297765 -0.20013954
0.12123245 0.063376695 -0.20642357 0.013582837 -0.11862259 -0.18463182 0.14451815 0.1282878
0.095298775 -0.1238849 0.093074664 -0.25862056 -0.16438419 0.08821844 0.1680741 -0.058384445
-0.01993961 0.14008357 0.088362925 -0.14118846 -0.17332785 0.06315241 0.025013616 -0.20603433
0.08108109 0.110609554 0.039142556 -0.090953186 0.106885456 -0.30445015 -0.10422506 0.100432314
-0.0073333904 0.19428304 0.08556591 0.13104406 0.13949719 -0.27101636 -0.12899414 -0.1350586
-0.055114675 -0.055307273 -0.14909078 -0.039931696 -0.14625877 0.19853622 -0.26035365 0.08669785
0.013499561 -0.01923058 -0.1936989 0.059753314 0.18619569 -0.25720912 0.17595388 0.08409835
-0.16748144 -0.016616918 0.057597816 -0.082178675 -0.14547724 -0.16970046 -0.08716244 -0.17099965
-0.03839963 -0.073080376 0.17385459 0.12805167 0.09254206 0.19185778 -0.24734327 -0.06561129
0.15694968 -0.10535305 -0.23011008 0.12016762 -0.08285453 -0.19533938 -0.33320364 0.18641518
0.05917494 -0.24181013 -0.16415733 -0.019357901 -0.30852854 -0.1353302 -0.15641914 0.19168888
00000000: e1de a43d 4ac6 563b 7dad ba3d 75b3 85be
00000010: dde7 83bd 032f a73d d280 8fbe 03d8 88be
00000020: 533a 8dbe 5927 97be 7526 1b3e d967 e5bd
00000030: 155a d33d 13f6 1ebd 9929 403e c985 46be
00000040: 04b2 3b3e 217a 073e bc6b c4be 1765 b9be
00000050: 8f2f 5fbe 0daa 9b3d 5b72 edbd 6c86 993d
00000060: 330f 8dbe 0fd3 95be b6ec af3d 3873 51be
00000070: 49b2 963d 784e 263e 21c7 78be 5735 3a3d
00000080: ba67 873d cd95 58be 8da3 46be 2c89 60be
00000090: 7ecd cebe d348 19be a771 2d3e 30a4 9c3c
000000a0: a744 a4be bb6d 2ebd ffc1 96be 4a5c 6dbe
000000b0: 11d1 20be 36c5 233e cf29 023e 218d 173e
000000c0: 1b8d 1d3d 4e49 de3d d18a 753d f170 42be
000000d0: bacb 0bbe 4505 3bbd 2721 133e 718b c83d
000000e0: 7407 3f3e e60e 643d e7be 023e 017c 1f3e
000000f0: 2220 02be 427f 0fbe 31a2 a93d 9999 423e
00000100: 7ee7 6cbe 6891 24be bb48 4abe 4dc0 ad3d
00000110: cfc4 7bbe 056e 6abe f4f3 213e 1d8b 143d
00000120: fcce 2b3e 59f3 81be 2cf4 ef3d 2dd7 c23d
00000130: 634b 88be a46e 443e 8f79 173d 5f37 023e
00000140: a41f d03d 348b 97be 2a45 f2bd b5e2 49be
00000150: 22fa f3bd 03a3 ed3d cd9c 773d 7c3c 12be
00000160: 6414 2ebe f7a8 8fbe 3c2b 0a3e fc59 84be
00000170: 582c 30be fdec 8d3d 877a f33d 9b50 84be
00000180: ea01 28be e1f2 5ebe e363 73be f469 d53d
00000190: 4ea7 ff3d adc2 673d a6f9 b63d 5dc1 4bbe
000001a0: e8e9 113e 7d1c 3bbe 9a1b 4f3e 52e9 fe3c
000001b0: 701d 003e 3aec 92bd 5538 013e c8a5 953d
000001c0: 7137 33be 4cd2 233b 915d 00be 00e2 a73d
000001d0: b3a9 053e 081e e33d 7a4e 00be 3e62 26be
000001e0: 672c 3dbd d685 933d 1ad9 f2bd a97c 4bbe
000001f0: a5ed 0fbe cdd7 d83d 8e99 ac3d d2b1 463e
00000200: 715f 15be a232 02be 2007 b13d d2c9 48bd
00000210: a693 313e f997 8dbe 080a 73bd 3726 d93d
00000220: 656d 90be 9f6b 7dbd f902 40be 9919 04bd
00000230: 41fe 54be 1f46 243c b01c 023e 5eee fd3d
00000240: 6484 72bd e572 943d ffe7 bc3d 6146 7cbd
00000250: 61c8 84be d90c b9bd 4627 cbbd 935e 48be
00000260: 6191 a53d 51b4 57be ec32 7ebe 4f20 2b3e
00000270: 39d8 dd3c 4a6b 30bc 3cd9 033e 9517 1e3e
00000280: 1468 113e a136 f1bb f5d6 dabd 21b5 59be
00000290: bd68 39bb 9126 a33d 450f 25bd 61f1 4cbe
000002a0: b848 f83d a4cb 813d b360 53be 8c8a 5e3c
000002b0: 67f0 f2bd 2010 3dbe 91fc 133e e15d 033e
000002c0: 012c c33d 5eb7 fdbd ee9d be3d ea69 84be
000002d0: 5454 28be dfab b43d 9e1b 2c3e 8724 6fbd
000002e0: 6558 a3bc 1172 0f3e 9ff7 b43d b593 10be
000002f0: db7c 31be 0d56 813d 5be9 cc3c aafa 52be
00000300: d80d a63d 4387 e23d f253 203d aa45 babd
00000310: c3e6 da3d e4e0 9bbe f373 d5bd 75af cd3d
00000320: f04c f0bb 22f2 463e 2e3d af3d 6a30 063e
00000330: 5ad8 0e3e a8c2 8abe 0a17 04be cd4c 0abe
00000340: edbf 61bd e189 62bd 41ab 18be 6b8f 23bd
00000350: dcc4 15be 144d 4b3e 134d 85be a48e b13d
00000360: 432d 5d3c 7389 9dbc 0159 46be e4bf 743d
00000370: 15aa 3e3e eab0 83be 412d 343e c13b ac3d
00000380: 4180 2bbe 3420 88bc b0eb 6b3d 4b4d a8bd
00000390: fcf7 14be f5c5 2dbe 3982 b2bd 881a 2fbe
000003a0: ee48 1dbd 2aab 95bd f006 323e fa1f 033e
000003b0: b186 bd3d 5e76 443e 8e47 7dbe 365f 86bd
000003c0: 6bb7 203e 57c3 d7bd faa1 6bbe 711a f63d
000003d0: a3af a9bd 0c07 48be ab99 aabe 9fe3 3e3e
000003e0: 6c61 723d 139d 77be dc18 28be 7694 9ebc
000003f0: 74f7 9dbe 0094 0abe 572c 20be 174a 443e

fc2.bias f4 [10]
0.21041575 0.37631983 -0.08719468 -0.24459627 -0.03699445 0.044690553 -0.034472685 -0.05735882
0.26938766 0.027485522
00000000: 3a77 573e feac c03e 2093 b2bd 7277 7abe
00000010: 7e87 17bd 710d 373d 3b33 0dbd 15f1 6abd
00000020: 2eed 893e 5129 e13c

exp_avg f4 [10, 1, 5, 5]
-0.019639945 -0.008553119 -0.00424193 -0.0040991707 -0.0043742815 -0.015142088 -0.0036486178 -5.8221594e-05
-0.002995158 0.00021118297 -0.006055561 0.0012496643 0.0016350249 0.0033087921 0.0067806668 -0.0019243933
0.002667306 0.009167904 0.0146892285 0.012093038 -0.00079814915 0.0060326043 0.012604611 0.017745493
0.011525567 0.010928237 0.009389056 0.004824574 -0.0007964539 -0.0072338176 0.011057266 0.009994556
0.005569753 -0.0012166754 -0.006920546 0.010877116 0.010056716 0.0074565886 -0.0011700941 -0.0044588284
0.010330131 0.010480717 0.005379484 -0.00412932 -0.004814844 0.01243613 0.00958807 -0.0008074091
-0.007784482 -0.0049396954 0.0027148016 0.0010520628 -0.00244249 -8.386687e-05 0.0056187306 -0.00092488714
-0.0029536202 -0.0019215225 0.0027825965 0.006880732 -0.006803931 -0.0050343587 0.00037407238 0.0055092145
0.0069499775 -0.008442834 -0.0054319887 0.001898658 0.0057043578 0.007311267 -0.007024516 -0.0035372134
0.0021521857 0.005401972 0.0061059194 -0.010345542 -0.0067093666 -0.004059942 -0.00011337618 0.0012743316
-0.010133463 -0.0054768445 -0.0030134988 -0.0025805847 -0.0031763557 -0.0069886614 -0.0050769863 -0.0049751457
-0.0046074674 -0.0047875517 -0.0046511763 -0.003206339 -0.0042711464 -0.0046298406 -0.0026999416 -0.0043917825
-0.005102925 -0.00492684 -0.0052316394 -0.0021048265 0.009759062 0.0047436096 -0.00062931934 -0.005400596
-0.007836518 0.008923067 0.0035146289 -0.003080997 -0.008934137 -0.008662312 0.008655798 0.003683552
-0.0059820567 -0.010824962 -0.0065452694 0.010316846 0.0025640945 -0.008826061 -0.010467193 -0.005922722
0.0077921418 0.00024548278 -0.010213012 -0.008927293 -0.003977215 0.0043293326 0.0061628856 0.006200405
0.0030070476 -0.0021074116 0.0064924643 0.008793096 0.0035659133 -0.0036675544 -0.002959483 0.005655001
0.006627719 0.0008300951 -0.005179511 -0.0047628316 0.003983787 0.00396755 0.00083589036 -0.0062976186
-0.006773819 0.0023902864 0.002288501 -0.0007558223 -0.0071001076 -0.0064898925 -0.004097082 0.001656518
0.00089470774 0.0035528766 -0.0012866994 -0.0011669412 0.001207115 0.0018474825 0.0030632908 -0.0012143742
0.001768411 0.0055259587 0.006677624 0.0041825185 0.0022969458 -0.0001522225 0.0059239566 0.005128884
0.0050558536 0.004782613 -0.0025866977 0.0015349942 0.0028596942 0.0020496114 0.0017034869 -0.002583412
-0.0019286538 -0.0042478405 -0.0054087043 -0.006820017 -0.0038505623 -0.004736972 -0.0055511505 -0.005914198
-0.0027037656 -0.0043763295 -0.004814127 -0.0039042402 -0.0017310278 0.0013886304 -0.0013890709 0.0015496367
0.004115896 0.0034921202 0.0008942659 0.001769666 0.005912105 0.004402526 -0.0006407876 -0.0041247085
-0.011651367 -0.0074428213 -0.0036512972 0.0014325256 0.0024546157 -0.009757963 -0.004163702 0.0043549277
0.010146386 0.01008144 -0.006271581 -0.0009055935 0.007614352 0.014117536 0.014651504 -0.0027067082
0.0035539942 0.006915759 0.012307764 0.01404588 0.00050955854 0.0030042923 0.0037690639 0.0071102465
0.011224875 -0.0023164747 -0.0042648492 -0.004853289 -0.0037429368 -0.0020464864 0.0011579925 -0.0020363186
-0.0021180073 0.0014052066 0.0019298672 0.001273749 -0.002656626 -0.001245717 0.0012345648 0.0016818662
-0.0019655372 -0.0063981614 -0.0055611553 -0.0015084611 -0.000761832 -0.0023646862 -0.005957214 -0.005400595
-0.002513394 -0.00070569455
00000000: f3e3 a0bc 6222 0cbc e3ff 8abb 5652 86bb
00000010: 2256 8fbb 8516 78bc a61d 6fbb f632 74b8
00000020: 6a4a 44bb ff70 5d39 ba6d c6bb c7cb a33a
00000030: 554e d63a 52d8 583b 5b30 de3b ed3b fcba
00000040: f8cd 2e3b fa34 163c 17ab 703c e121 463c
00000050: e23a 51ba 27ad c53b 9283 4e3c ff5e 913c
00000060: bbd5 3c3c 590c 333c 8ed4 193c 7617 9e3b
00000070: 1ec9 50ba a909 edbb 8929 353c 35c0 233c
00000080: 7982 b63b da78 9fba bfc5 e2bb ee35 323c
00000090: edc4 243c 6656 f43b d85d 99ba 5d1b 92bb
000000a0: b63f 293c 50b7 2b3c 6246 b03b 3f4f 87bb
000000b0: d7c5 9dbb e9c0 4b3c 4817 1d3c 4fa8 53ba
000000c0: f814 ffbb 2bdd a1bb d0ea 313b 5fe5 893a
000000d0: 2f12 20bb afe1 afb8 541d b83b 2074 72ba
000000e0: 8691 41bb 99db fbba 395c 363b c377 e13b
000000f0: 83f3 debb 43f7 a4bb 251f c439 a486 b43b
00000100: a3bc e33b d053 0abc d3fe b1bb 64dc f83a
00000110: 9feb ba3b 5a93 ef3b e92d e6bb 98d0 67bb
00000120: af0b 0d3b 0703 b13b 2a14 c83b 5980 29bc
00000130: 3fda dbbb 4309 85bb 60c4 edb8 7907 a73a
00000140: d306 26bc 1a77 b3bb 1f7e 45bb 071f 29bb
00000150: 682a 50bb 2401 e5bb d95c a6bb 8c06 a3bb
00000160: 3dfa 96bb e5e0 9cbb e568 98bb 7121 52bb
00000170: f9f4 8bbb ebb5 97bb 81f1 30bb f1e8 8fbb
00000180: 7036 a7bb 5471 a1bb 2c6e abbb 21f1 09bb
00000190: 79e4 1f3c 4870 9b3b e8f8 24ba 7cf7 b0bb
000001a0: bd64 00bc 0e32 123c b055 663b 8dea 49bb
000001b0: 7d60 12bc 5fec 0dbc 0cd1 0d3c bf67 713b
000001c0: 2105 c4bb 2e5b 31bc b379 d6bb fd07 293c
000001d0: 5e0a 283b 2f9b 10bc 977e 2bbc 6513 c2bb
000001e0: 3955 ff3b 24b4 8039 7a54 27bc c843 12bc
000001f0: 4c53 82bb 13dd 8d3b 08f2 c93b c42c cb3b
00000200: e311 453b 801c 0abb bdbe d43b eb10 103c
00000210: 19b2 693b 5a5b 70bb e3f3 41bb 964d b93b
00000220: 562d d93b bd9a 593a e3b8 a9bb 8711 9cbb
00000230: 6d8a 823b 3902 823b a71f 5b3a 415c cebb
00000240: eaf6 ddbb 5aa6 1c3b adfa 153b 6022 46ba
00000250: 05a8 e8bb 2aa9 d4bb d140 86bb 851f d93a
00000260: d28a 6a3a 61d7 683b 78a6 a8ba 0df4 98ba
00000270: 0f38 9e3a 3a27 f23a 7ec1 483b a32b 9fba
00000280: 07ca e73a 1a13 b53b f8cf da3b 820d 893b
00000290: 5b88 163b eb9d 1fb9 c01d c23b 3310 a83b
000002a0: 93ab a53b 77b7 9c3b 9685 29bb dc31 c93a
000002b0: b569 3b3b c652 063b 8947 df3a 764e 29bb
000002c0: e2ca fcba 7831 8bbb 803b b1bb 737a dfbb
000002d0: b759 7cbb 9a38 9bbb 6de6 b5bb e3cb c1bb
000002e0: a931 31bb 5067 8fbb d3bf 9dbb 48de 7fbb
000002f0: a8e3 e2ba b402 b63a 7c11 b6ba 2e1d cb3a
00000300: a3de 863b 0edc 643b 2b6d 6a3a 23f4 e73a
00000310: 55ba c13b 1143 903b 87fa 27ba 9028 87bb
00000320: 60e5 3ebc e9e2 f3bb 9a4a 6fbb 95c3 bb3a
00000330: 9edd 203b dddf 1fbc aa6f 88bb c8b3 8e3b
00000340: 073d 263c a02c 253c d681 cdbb 5a65 6dba
00000350: d081 f93b 3d4d 673c dd0c 703c 0763 31bb
00000360: 21ea 683b 979d e23b 81a6 493c b120 663c
00000370: e593 053a a9e3 443b 6602 773b 12fd e83b
00000380: 8ae8 373c ffcf 17bb 26c0 8bbb 5708 9fbb
00000390: 0f4c 75bb 581e 06bb c8c7 973a c273 05bb
000003a0: 44ce 0abb e92e b83a 99f3 fc3a edf3 a63a
000003b0: ca1a 2ebb 5447 a3ba 1fd1 a13a 1172 dc3a
000003c0: 3ed0 00bb aba7 d1bb 5a3a b6bb 8eb7 c5ba
000003d0: aeb5 47ba daf8 1abb bc34 c3bb 79f7 b0bb
000003e0: c1b7 24bb 5cfe 38ba

exp_avg_sq f4 [10, 1, 5, 5]
0.002078562 0.0018511987 0.0013968012 0.0012019532 0.0010607201 0.0017481735 0.0015045259 0.0011293845
0.0010436381 0.00085968967 0.001412155 0.0011202688 0.00080753316 0.0006989508 0.0007847427 0.0011360219
0.0008416643 0.000687388 0.00089434546 0.0011982125 0.0009157697 0.00071857526 0.0008415393 0.0013704492
0.00123525 0.00046372536 0.00040389202 0.00032743244 0.00025334067 0.00027938114 0.00042704085 0.00037413507
0.00028110802 0.0002082701 0.00026902236 0.00039100877 0.00034600124 0.0002646371 0.00024591244 0.00024028576
0.00039144038 0.00037329007 0.00032593744 0.0002796687 0.00023864771 0.00040277746 0.00038046777 0.00033028438
0.00028559714 0.0002517743 0.00037139916 0.00039786115 0.00044255567 0.00047679857 0.00046570212 0.00033708135
0.0003758438 0.0004345101 0.00045586558 0.0004698237 0.00035624232 0.00038161708 0.00039760556 0.00047459532
0.00048079455 0.00039936823 0.00042338166 0.00045916345 0.00047027713 0.0004793555 0.00049828965 0.0005244674
0.00048615344 0.00046504205 0.00048812706 0.00073240325 0.00071857864 0.0007302181 0.0007449891 0.0007610223
0.0006534878 0.0006062684 0.0006006983 0.0005884416 0.0006128135 0.00057358126 0.00052786653 0.0005110927
0.00051700213 0.00056611333 0.00051526184 0.0005019824 0.0005155067 0.0005356138 0.00051749434 0.0005440905
0.00051287917 0.0005432632 0.0005252469 0.0005021589 0.00093474286 0.00082164677 0.0006095061 0.00047569227
0.0005120466 0.0008738449 0.0006339857 0.00037718142 0.00046849594 0.0004966063 0.0007560244 0.00043525975
0.0003716126 0.00061854726 0.0004607423 0.0006111267 0.00039347445 0.0005321658 0.0006137384 0.00039426243
0.0005166982 0.00047763833 0.000572768 0.00046784768 0.00040560417 0.000345228 0.00031577607 0.00029236797
0.00028952543 0.00031409322 0.0003767652 0.00030642602 0.0002816972 0.00027107136 0.00029279158 0.00032754533
0.00028774698 0.00029168272 0.00027668048 0.0003037312 0.00035111644 0.00035220405 0.00032387313 0.00031741362
0.00034931078 0.00039295942 0.00038838907 0.00037391018 0.0003511778 0.00037442386 0.0009578118 0.00080027716
0.0006798011 0.0006604842 0.000648442 0.00083215814 0.00070096744 0.0006190022 0.0006304633 0.0006224856
0.0007306131 0.0007014206 0.0007249742 0.0007631611 0.0007347954 0.00063329143 0.000712023 0.0008356283
0.00079263304 0.00072067074 0.0006221254 0.00075000996 0.0007399999 0.00061779824 0.0005968173 0.00034071284
0.0003203539 0.0003229789 0.0003459708 0.00040226674 0.0003103264 0.00028966638 0.00030455136 0.00033770863
0.00040642562 0.0003425474 0.00032612318 0.00032252632 0.00035574668 0.00042134084 0.0003728206 0.00039332805
0.0003959409 0.00041538375 0.0004256555 0.00036684432 0.00037531866 0.00036548817 0.00036290588 0.00035832223
0.0011959389 0.0011308873 0.0010911453 0.0010474966 0.0008539708 0.0011271467 0.0009321699 0.0008359356
0.0007764114 0.0007135509 0.0008921779 0.00071963255 0.00068667706 0.0007097508 0.0007826908 0.00078193384
0.0006994332 0.00063710765 0.0006094403 0.0007476171 0.00078788656 0.0006678308 0.0006058111 0.0005816004
0.00069185614 0.0005435502 0.00060278416 0.00068652857 0.00060359103 0.00052574044 0.00045489508 0.00052194955
0.00054798555 0.0005011666 0.00050607603 0.00045234957 0.00054294075 0.00054486323 0.00056157424 0.000609363
0.00048042976 0.0005559112 0.0005938874 0.00060086336 0.0006114604 0.0005071941 0.000541448 0.0005535326
0.00054852624 0.0005629017
00000000: 7c38 083b eca3 f23a df14 b73a db8a 9d3a
00000010: dc07 8b3a f822 e53a 8333 c53a db07 943a
00000020: afca 883a cc5c 613a 0f18 b93a fcd5 923a
00000030: a2b0 533a cb39 373a 31b7 4d3a 92e6 943a
00000040: 23a3 5c3a d431 343a 8272 6a3a 570d 9d3a
00000050: 4410 703a c55e 3c3a bf9a 5c3a a5a0 b33a
00000060: 1de8 a13a 2a20 f339 78c1 d339 3dab ab39
00000070: cfd2 8439 e779 9239 74e4 df39 8f27 c439
00000080: ae61 9339 1463 5a39 920b 8d39 4f00 cd39
00000090: 8067 b539 febe 8a39 cfed 8039 38f5 7b39
000000a0: 3d3a cd39 25b6 c339 95e2 aa39 7fa0 9239
000000b0: 823d 7a39 e02b d339 8579 c739 052a ad39
000000c0: 33bc 9539 9300 8439 5ab8 c239 0598 d039
000000d0: d106 e839 d2fa f939 7b29 f439 4bba b039
000000e0: e70c c539 f5ce e339 3e01 ef39 ab52 f639
000000f0: 09c6 ba39 c713 c839 b775 d039 1bd3 f839
00000100: 2713 fc39 4c62 d139 53f9 dd39 e0bb f039
00000110: 878f f639 0252 fb39 a79f 023a 697c 093a
00000120: 69e2 fe39 e3d0 f339 4eeb ff39 c0fe 3f3a
00000130: ff5e 3c3a 1b6c 3f3a 5f4b 433a 587f 473a
00000140: d34e 2b3a fced 1e3a 2e78 1d3a a641 1a3a
00000150: 38a5 203a 635c 163a 8660 0a3a dafa 053a
00000160: 6d87 073a 3967 143a a312 073a 7897 033a
00000170: 1223 073a 6f68 0c3a 75a8 073a 4ca1 0e3a
00000180: bd72 063a c769 0e3a b9b0 093a 50a3 033a
00000190: 8809 753a c863 573a 43c7 1f3a 5666 f939
000001a0: de3a 063a bd12 653a 0f32 263a 6fc0 c539
000001b0: 76a0 f539 af2e 023a f02f 463a 9333 e439
000001c0: 00d5 c239 0126 223a c98f f139 0534 203a
000001d0: 3f4b ce39 0b81 0b3a 49e3 203a 02b5 ce39
000001e0: 0773 073a 886b fa39 cf25 163a 7449 f539
000001f0: 45a7 d439 b8ff b439 bf8e a539 f748 9939
00000200: 72cb 9739 e1ac a439 9288 c539 cea7 a039
00000210: c2b0 9339 951e 8e39 d281 9939 64ba ab39
00000220: bfdc 9639 feec 9839 6d0f 9139 1d3e 9f39
00000230: 0d16 b839 07a8 b839 84cd a939 896a a639
00000240: b323 b739 1f06 ce39 b3a0 cb39 6009 c439
00000250: 491e b839 524e c439 a915 7b3a b1c9 513a
00000260: ae34 323a 5824 2d3a 35fc 293a 3025 5a3a
00000270: 21c1 373a 8944 223a ad45 253a 4d2e 233a
00000280: 9d86 3f3a 8adf 373a 320c 3e3a e00e 483a
00000290: 499f 403a 7803 263a 0ea7 3a3a 110e 5b3a
000002a0: b4c8 4f3a 65eb 3c3a 2116 233a 519c 443a
000002b0: 8dfc 413a bdf3 213a bb73 1c3a b4a1 b239
000002c0: 2cf5 a739 7f55 a939 6a63 b539 54e7 d239
000002d0: 4eb3 a239 5dde 9739 31ac 9f39 7c0e b139
000002e0: 8615 d539 ef97 b339 83fb aa39 c018 a939
000002f0: 8383 ba39 69e7 dc39 2277 c339 9937 ce39
00000300: 4a96 cf39 ddc7 d939 842a df39 0355 c039
00000310: 6bc6 c439 fe9e bf39 6744 be39 32dd bb39
00000320: 0dc1 9c3a 483a 943a c304 8f3a 274c 893a
00000330: 03dd 5f3a c4bc 933a dd5c 743a b022 5b3a
00000340: 1688 4b3a 970d 3b3a 0ce1 693a b9a5 3c3a
00000350: 1e02 343a 920e 3a3a 7e2d 4d3a b1fa 4c3a
00000360: 2b5a 373a 9203 273a d9c2 1f3a bcfb 433a
00000370: 2c8a 4e3a 5e11 2f3a 4bcf 1e3a 8b76 183a
00000380: ae5d 353a 097d 0e3a 2904 1e3a 27f8 333a
00000390: 4f3a 1e3a d8d1 093a fc7e ee39 71d3 083a
000003a0: b0a6 0f3a b960 033a 30aa 043a 5529 ed39
000003b0: 2354 0e3a 27d5 0e3a 9c36 133a a9bd 1f3a
000003c0: 31e2 fb39 92ba 113a 1caf 1b3a 4283 1d3a
000003d0: 6a4a 203a 38f5 043a f6ef 0d3a f21a 113a
000003e0: f9ca 0f3a b28f 133a

exp_avg f4 [10]
0.022843823 -0.009983057 -0.008703951 0.009037952 -0.013133523 0.0016428197 0.007548399 0.007983234
0.016956978 -0.00023673801
00000000: f822 bb3c fa8f 23bc 049b 0ebc eb13 143c
00000010: fd2d 57bc e253 d73a 8f58 f73b 1ccc 023c
00000020: 5ce9 8a3c e03c 78b9

exp_avg_sq f4 [10]
0.0019183729 0.00039463615 0.0004886514 0.0006749053 0.0012770634 0.00036861596 0.0007793626 0.00035247186
0.0013289661 0.00044263457
00000000: ea71 fb3a 2be7 ce39 d718 003a 21ec 303a
00000010: 2363 a73a cc42 c139 244e 4c3a f9cb b839
00000020: b430 ae3a 6811 e839

exp_avg f4 [20, 10, 5, 5]
0.0060478714 0.003731214 0.00032902023 -0.003231925 -0.0037540835 0.0039391215 0.0054030116 0.002871259
-0.0026391342 -0.0046986216 0.0007116033 0.00051396055 -0.00026449675 -0.002967166 -0.0043835836 -0.00018047822
-0.0016889232 -0.0016150968 -0.002802184 -0.0035011147 0.0035326781 0.0007608499 -0.00094076793 -0.003006721
-0.0041536014 0.0015582177 0.00031465717 -0.002435982 -0.0056374795 -0.004840967 0.00307993 0.00061782217
-0.003977883 -0.0069955452 -0.0066724275 0.0032992114 -0.0011875529 -0.008554853 -0.008943069 -0.0049695573
0.0012257174 -0.0036096717 -0.010380839 -0.008624399 -0.0032412943 0.0009702079 -0.0059535815 -0.010482845
-0.0052781296 -0.0022385546 -0.0007187134 -0.00075592543 -0.0006216867 0.00019109534 -0.0019566836 0.0019846607
2.3944012e-05 0.0014095547 0.0010938508 -0.0033053714 0.003455513 0.0016394219 0.0008777054 -8.455571e-05
-0.006328804 0.0032834716 0.0024045839 0.0021657168 -0.004420264 -0.010508064 0.0011303393 0.0018214494
-0.0005108068 -0.007597795 -0.01105699 -0.0036108824 -0.002766341 -0.0017547559 -0.00047729677 -0.00059373415
-0.0031456687 -0.0032666128 -0.0023048583 -0.0007620231 -0.00074012415 -0.0014743607 -0.0009469618 -0.00089632545
-0.0005083497 -0.001479145 -0.0014084802 -0.00077429006 0.00051479915 0.0003290995 -0.0016374469 -0.0012638221
0.00012392603 0.00010769043 -0.0014043874 -0.0031321815 0.0017994837 0.0007890476 -0.0037212109 -0.0082620885
-0.007968895 0.0031294348 0.0011960135 -0.005475914 -0.012284465 -0.009248535 0.0034099799 0.0009722394
-0.010379768 -0.0147686405 -0.008282927 0.0022147452 -0.0026418073 -0.014530206 -0.014336951 -0.0045394013
0.0019492444 -0.006303453 -0.016010007 -0.009331701 -0.002312347 -0.002964211 -0.0018418219 -0.0028956614
-0.0031533688 -0.0024500152 0.0015629993 0.0011219117 -0.0034340878 -0.006199301 -0.003826224 0.0039756675
0.0054960293 0.00073104195 -0.0063822884 -0.0036024728 0.0039819637 0.0033089365 -0.002499231 -0.006016877
-0.0030296627 0.0023601323 -0.00064927706 -0.004682061 -0.0064117108 -0.0028120496 0.0020683052 0.0005190779
0.00061129086 -0.0012262289 -0.002800857 0.00453773 0.0036368622 0.001969325 -0.0012574204 -0.003392933
0.002227125 0.0011712105 0.0014699417 -0.0011660303 -0.004191556 -0.00060951756 -0.00088754 -0.0016127378
-0.0026545548 -0.0029435428 -0.0001874569 -0.00058527826 -0.000332456 -0.0011011914 -0.0029387989 0.006403864
0.0027598797 -0.0028413853 -0.007484603 -0.00708808 0.0057602776 0.0013868123 -0.006121078 -0.0075345766
-0.005904822 0.0016378657 -0.005843081 -0.011656811 -0.008875449 -0.0031535127 -0.0021475016 -0.00903042
-0.011646842 -0.0042723115 -0.0015342013 -0.0016231135 -0.008490425 -0.007559489 -0.0013481488 -0.0021955338
0.00080027175 0.000164675 -0.001068683 -0.0014068768 -0.0032960186 0.0038513856 0.0037936263 -0.0001464388
-0.0028738568 -0.004416814 0.003267083 0.0011387002 -0.00024212274 -0.0036501554 -0.004375617 0.0011051374
-0.0004946386 -0.0024769742 -0.0063212756 -0.0043893377 -0.0011840439 -0.0025324405 -0.0049952543 -0.0049637114
-0.0030050084 4.582664e-05 1.37950865e-05 -0.001179978 -0.0018927314 -0.0012369 0.001937099 0.0026135133
0.0028201286 -0.00087438285 -0.0026402164 0.0015621602 0.0011230152 0.002600452 -0.0006197175 -0.0033176339
0.0005474274 0.0010049104 0.00096622173 -0.0022815212 -0.004421805 0.00075371086 0.00079571374 -0.0013933774
-0.0038670711 -0.004537473 0.00015174797 0.0006924161 0.00075904786 0.00026540674 -0.00049006246 0.0016741179
00000000: 392d c63b 6287 743b 5980 ac39 b4ce 53bb
00000010: 1207 76bb bf13 813b bf0b b13b bc2b 3c3b
00000020: 53f5 2cbb e5f6 99bb e48a 3a3a 4fbb 063a
00000030: 27ac 8ab9 c974 42bb 2aa4 8fbb c13e 3db9
00000040: dc5e ddba a8b1 d3ba d9a4 37bb f572 65bb
00000050: 8184 673b c673 473a de9d 76ba 680c 45bb
00000060: ef1a 88bb 1c3d cc3a 92f8 a439 ffa4 1fbb
00000070: 9bba b8bb f9a0 9ebb a7d8 493b 58f5 213a
00000080: e758 82bb e33a e5bb 61a4 dabb 9537 583b
00000090: aaa7 9bba a729 0cbc f385 12bc abd7 a2bb
000000a0: 40a8 a03a 3e90 6cbb 6514 2abc 5a4d 0dbc
000000b0: e56b 54bb 8d55 7e3a 4316 c3bb 3dc0 2bbc
000000c0: 29f4 acbb b7b4 12bb 0a68 3cba 4c29 46ba
000000d0: b0f8 22ba c460 4839 b43b 00bb 1511 023b
000000e0: 60db c837 cfc0 b83a 8b5f 8f3a ee9e 58bb
000000f0: e375 623b dfe1 d63a d015 663a 8053 b1b8
00000100: db61 cfbb 832f 573b 3996 1d3b b3ee 0d3b
00000110: ddd7 90bb 042a 2cbc e527 943a b3bd ee3a
00000120: aae7 05ba edf6 f8bb 6128 35bc 8ea4 6cbb
00000130: 804b 35bb d6ff e5ba b03d fab9 d3a4 1bba
00000140: 9027 4ebb ab14 56bb 1b0d 17bb 81c2 47ba
00000150: e404 42ba 563f c1ba 883d 78ba 62f7 6aba
00000160: c542 05ba dfdf c1ba c19c b8ba baf9 4aba
00000170: 96f3 063a fd8a ac39 9a9f d6ba d5a6 a5ba
00000180: 24f2 0139 dcd7 e138 6c13 b8ba 4945 4dbb
00000190: a7dc eb3a 17d8 4e3a 8fdf 73bb b65d 07bc
000001a0: f88f 02bc 3417 4d3b 8ec3 9c3a 4c6f b3bb
000001b0: c844 49bc 2b87 17bc f879 5f3b e2dd 7e3a
000001c0: e70f 2abc 2bf8 71bc 1db5 07bc 4225 113b
000001d0: 2c22 2dbb 1a10 6ebc 88e5 6abc 42bf 94bb
000001e0: ca7d ff3a 328d cebb 6b27 83bc fee3 18bc
000001f0: bf8a 17bb 3543 42bb 4a69 f1ba 23c5 3dbb
00000200: c0a8 4ebb 6f90 20bb 8edd cc3a 1c0d 933a
00000210: 6f0e 61bb 8223 cbbb 63c1 7abb 5146 823b
00000220: 0918 b43b 65a3 3f3a 8422 d1bb 7717 6cbb
00000230: 227b 823b beda 583b 23ca 23bb 3929 c5bb
00000240: 4e8d 46bb 73ac 1a3b 3f34 2aba f96b 99bb
00000250: 5419 d2bb 5d4a 38bb 678c 073b ba12 083a
00000260: 093f 203a 6ab9 a0ba 958e 37bb 3db1 943b
00000270: 6c58 6e3b ca0f 013b 07d0 a4ba f85b 5ebb
00000280: f5f4 113b 4e83 993a 0fab c03a 7cd5 98ba
00000290: 5259 89bb 08c8 1fba cda9 68ba 8062 d3ba
000002a0: 0af8 2dbb 74e8 40bb 1490 44b9 5c6d 19ba
000002b0: 7d4d aeb9 da55 90ba dd98 40bb 81d7 d13b
000002c0: 19df 343b 8936 3abb 6741 f5bb 2043 e8bb
000002d0: b6c0 bc3b b3c5 b53a 5393 c8bb 9ce4 f6bb
000002e0: 3d7d c1bb a7ad d63a 5177 bfbb 36fc 3ebc
000002f0: 556a 11bc 2aab 4ebb 19bd 0cbb 54f4 13bc
00000300: 65d2 3ebc bffe 8bbb 4117 c9ba a7be d4ba
00000310: 6c1b 0bbc 97b5 f7bb 5eb4 b0ba f2e2 0fbb
00000320: 54c9 513a 9cac 2c39 0d13 8cba f466 b8ba
00000330: 0402 58bb 8767 7c3b 7d9e 783b 5e8d 19b9
00000340: 5157 3cbb ecba 90bb 8f1c 563b 7040 953a
00000350: 54e2 7db9 7237 6fbb 5661 8fbb 42da 903a
00000360: a2aa 01ba bb54 22bb b422 cfbb 6fd4 8fbb
00000370: ec31 9bba 4df7 25bb 3baf a3bb a1a6 a2bb
00000380: adef 44bb fb35 4038 7271 6737 7ea9 9aba
00000390: 8715 f8ba 7a1f a2ba 42e6 fd3a 7a47 2b3b
000003a0: e8d1 383b d736 65ba 7b07 2dbb 66c1 cc3a
000003b0: 2332 933a 586c 2a3b 8a74 22ba a96c 59bb
000003c0: 3b81 0f3a 33b7 833a 0b4a 7d3a 9385 15bb
000003d0: cae4 90bb ae94 453a 7297 503a fda1 b6ba
000003e0: b06e 7dbb 15af 94bb 891e 1f39 4283 353a
000003f0: d7fa 463a 4a26 8b39 8977 00ba 136e db3a
