2020-S/exercise/01_MNIST_classifier/checkpoint/model_epoch10.pth (torch, 269279 bytes, 24 tensors)

conv1.weight f4 [10, 1, 5, 5]
0	0x3d8b1040	0.06790209
1	0x3e141c96	0.1446403
2	0x3d0aec28	0.033916622
3	0x3d6aaf78	0.057296246
4	0x3dd1cc07	0.10243993
5	0x3d7ad447	0.0612376
6	0xbe427498	-0.1898979
7	0xbe2e5303	-0.17023854
8	0xbee23ca6	-0.44186896
9	0xbe59b627	-0.21260892
10	0x3dd9a282	0.10626699
11	0x3ddbd0f0	0.10733211
12	0xbe4f16c3	-0.20223527
13	0xbef80e50	-0.4844842
14	0xbe89dce1	-0.2692633
15	0x3e451d23	0.19249396
16	0x3e128c5b	0.14311354
17	0x3f0cd3c1	0.5501061
18	0x3ea8e4dc	0.32987106
19	0x3e81d2b1	0.25356057
20	0x3d97a2d5	0.074041046
21	0xbe03c035	-0.1286629
22	0x3df30072	0.11865319
23	0x3efddc33	0.4958206
24	0x3ed9e352	0.42556244
25	0x3e8fc0fc	0.28076923
26	0x3d485294	0.048906878
27	0xbe281515	-0.16414292
28	0x3da4966c	0.08036503
29	0x3e5dab60	0.21647406
30	0xbdcf204a	-0.101135805
31	0xbd6b1a92	-0.057398386
32	0xbe88fa7d	-0.26753607
33	0xbe3c00c1	-0.18359663
34	0x3eed2c17	0.463227
35	0xbe89aa0e	-0.26887554
36	0xbd9ad91c	-0.075609416
37	0xbe602de9	-0.21892513
38	0x3d96ba68	0.07359773
39	0x3ed22317	0.41042396
40	0xbd80a672	-0.06281747
41	0x3d1846c7	0.037176874
42	0x3db6a262	0.08917691
43	0x3e419443	0.18904214
44	0x3d2c467b	0.042059403
45	0x3e9e871b	0.30962452
46	0x3e0b1882	0.13583568
47	0xbd1d90fa	-0.03846834
48	0xbd11e1a4	-0.03561558
49	0xbdf5db78	-0.12004751
50	0x3d8b3212	0.067966595
51	0x3e8692c7	0.26283857
52	0x3c39e9f3	0.011347282
53	0x3e1ed21f	0.15509842
54	0xb9b06c80	-0.00033650175
55	0x3c8e53c3	0.017373925
56	0x3e212664	0.15737301
57	0x3e2aca84	0.16678816
58	0x3c27b2b2	0.010235475
59	0xbe82728c	-0.25478017
60	0x3ebec0f0	0.37256575
61	0x3eb1939f	0.34682938
62	0x3e0cc0be	0.137454
63	0xbeac1c6a	-0.33615428
64	0xbecc463a	-0.3989733
65	0x3ec3b126	0.3822109
66	0xbdd18dc5	-0.102321185
67	0xbd8f5750	-0.069990754
68	0xbeaea70f	-0.3411183
69	0xbd5f7b4d	-0.05456095
70	0x3d946813	0.07246413
71	0xbe6cbb85	-0.23118408
72	0xbe01f996	-0.12692866
73	0xbe40a8bf	-0.18814372
74	0xbe08f257	-0.13373695
75	0x3e7f97cb	0.24960248
76	0x3e714bf3	0.23564129
77	0x3e40f5ad	0.18843718
78	0x3e2a22a0	0.16614771
79	0x3e9ca22c	0.30592477
80	0xbe95d14b	-0.2926124
81	0xbc742695	-0.014901777
82	0x3e501a14	0.20322448
83	0x3d7457eb	0.059654158
84	0xbcda0269	-0.026612477
85	0xbdb23d4d	-0.087030984
86	0xbe79a7e5	-0.24380453
87	0xbe8c9ba6	-0.274625
88	0xbcf712dd	-0.030160362
89	0xbd2a624f	-0.04159766
90	0xbe0f2da8	-0.1398226
91	0xbded4b2c	-0.115866035
92	0xbdaa7f14	-0.083250195
93	0xbe8063c3	-0.25076112
94	0xbe64b306	-0.22333917
95	0x3e662668	0.22475588
96	0xbdc95201	-0.09830094
97	0xbe394083	-0.18091016
98	0xbd42550f	-0.0474444
99	0x3d0bf762	0.03417147
100	0xbe94e7e5	-0.2908317
101	0xbdee84ea	-0.11646445
102	0xbe07f49d	-0.13276906
103	0x3e95d509	0.29264095
104	0x3e3bf4be	0.1835508
105	0xbeac4b86	-0.3365137
106	0xbd17be9c	-0.037047014
107	0x3b2a9f4f	0.0026034897
108	0x3e6c93fe	0.2310333
109	0x3e9effac	0.31054437
110	0xbeaeb892	-0.3412519
111	0xbcc8a352	-0.02449194
112	0x3e181d78	0.14854991
113	0x3eccc4b8	0.39993834
114	0x3c8b3c94	0.01699666
115	0xbe92ca77	-0.28670093
116	0x3d98f8c5	0.07469324
117	0x3dd24f87	0.10269075
118	0x3e68dd51	0.22740676
119	0xbd4515b0	-0.048116386
120	0xbe023d7f	-0.12718771
121	0xbda295da	-0.07938738
122	0x3e803c14	0.25045836
123	0x3e1b639e	0.1517472
124	0x3d123342	0.035693415
125	0x3d63b4bd	0.055592287
126	0x3ed1696d	0.40900746
127	0x3eb4fd2c	0.35349405
128	0x3e10ec8b	0.14152734
129	0xbec0e618	-0.37675548
130	0xbe408966	-0.18802413
131	0x3d9f9f0b	0.07794007
132	0x3efca3e8	0.493438
133	0x3e63f56a	0.22261587
134	0xbddd7069	-0.10812456
135	0xbefd0e99	-0.494252
136	0xbe34ee01	-0.17668916
137	0x3ee04b9e	0.4380769
138	0x3ed04288	0.4067576
139	0xbd5a50c1	-0.05329967
140	0xbef75663	-0.48308095
141	0xbe4b88e1	-0.19876434
142	0xbe0bf768	-0.13668597
143	0x3e9eb762	0.30999285
144	0x3c41714b	0.011806796
145	0x3b751f7d	0.0037402802
146	0xbe90cf14	-0.28282988
147	0xbcd7130d	-0.026254201
148	0xbcced47d	-0.025247807
149	0x3d3dbeed	0.04632466
150	0x3baf3027	0.0053463164
151	0xbe9e15d6	-0.30876034
152	0xbe13eceb	-0.14445846
153	0x3deac8b2	0.11464061
154	0xbe57b429	-0.2106482
155	0x3ea6b2a2	0.3255816
156	0x3dba6942	0.091021076
157	0xbe5b5246	-0.21418104
158	0xbe448701	-0.19192125
159	0xbe952fee	-0.2913813
160	0x3d9593ff	0.07303619
161	0xbc1fe8d3	-0.009760099
162	0x3dedeaf4	0.116170794
163	0x3e3144a6	0.17311344
164	0x3e347c4e	0.17625543
165	0xbe36f85d	-0.1786818
166	0x3df6cf53	0.12051263
167	0x3e23ab3e	0.15983292
168	0x3e1539ae	0.14572784
169	0x3ea9e171	0.3317981
170	0x3e5a9bef	0.21348546
171	0x3df9ec38	0.12203258
172	0x3d50b91d	0.050957788
173	0xbebc611b	-0.36792836
174	0xbe0269d5	-0.12735684
175	0xbda4f1a6	-0.08053903
176	0xbdcd8535	-0.10035173
177	0xbe9a42e0	-0.30129147
178	0xbe1a1719	-0.15047874
179	0xbe9edd2a	-0.3102811
180	0xbafa8730	-0.0019113775
181	0xbe73ae54	-0.2379697
182	0x3d1f22cd	0.038851548
183	0xbe3576f1	-0.17721154
184	0x3d782af8	0.060587853
185	0xbdb34fab	-0.0875543
186	0xbe597bff	-0.21238707
187	0xbe01ed33	-0.1268814
188	0xbd8386c1	-0.06422187
189	0x3eaa5aa4	0.33272278
190	0xbd0630e5	-0.032761473
191	0x3d98cb45	0.074606456
192	0x3dd43aeb	0.103628
193	0x3e003084	0.12518507
194	0x3e8045fc	0.25053394
195	0x3b14451c	0.00226242
196	0x372f8500	1.0461779e-05
197	0xbc91fc75	-0.017820576
198	0x3e49fcd5	0.19725354
199	0x3ecbe0bf	0.39819905
200	0xbd11ad55	-0.035565693
201	0xbde96df2	-0.113979235
202	0x3de212f7	0.110387735
203	0x3e435049	0.19073595
204	0xbe9458a9	-0.28973892
205	0xbe17fdc0	-0.14842892
206	0xbc8f803f	-0.017517207
207	0xbd9be037	-0.07611125
208	0x3e0f69df	0.1400523
209	0xbe1697d1	-0.14706351
210	0xbda941e9	-0.082645245
211	0x3de401ca	0.11133154
212	0x3d1ffb07	0.039057758
213	0x3e001e15	0.12511475
214	0x3ecd6172	0.40113407
215	0x3ea9cfb5	0.3316628
216	0x3eac941b	0.33706746
217	0x3e367673	0.17818622
218	0x3e5b57bb	0.21420185
219	0x3eb5a77e	0.3547935
220	0xbe77a67e	-0.24184605
221	0xbe03d2b3	-0.12873344
222	0xbee9591a	-0.45575792
223	0xbebf6e5e	-0.3738889
224	0xbe9cd815	-0.30633608
225	0x3d316726	0.04331126
226	0xbd2d111e	-0.042252652
227	0x3e01fb9c	0.12693638
228	0xbe75cfed	-0.24005099
229	0xbc5eaac5	-0.013590519
230	0xbd98970c	-0.07450685
231	0x3e15aa7d	0.14615817
232	0x3e24c33b	0.160901
233	0xbeddcbe6	-0.43319625
234	0xbec8dae8	-0.39229512
235	0x3b98b81e	0.0046606204
236	0x3eed1226	0.4630291
237	0x3df23479	0.118264146
238	0xbe72d5fa	-0.23714438
239	0xbdab3fe3	-0.08361795
240	0xbe2c6b98	-0.16837919
241	0x3e75c79d	0.24001928
242	0x3ee6c073	0.45068702
243	0x3e14c9a1	0.1453004
244	0xbe296b2a	-0.16544786
245	0xbe5c5b42	-0.21519187
246	0x3d8ea28d	0.06964598
247	0xbd8b4c5c	-0.06801674
248	0x3e0b33a6	0.13593921
249	0xbdfc0df4	-0.12307349

conv1.bias f4 [10]
0	0xbba8223f	-0.0051310356
1	0xbd7277d6	-0.059196316
2	0xbe1df008	-0.15423596
3	0xbe3a4252	-0.18189362
4	0xbdb25fe3	-0.08709695
5	0xbe8560ab	-0.26050314
6	0x3dad87ad	0.08473144
7	0xbee58dff	-0.44834897
8	0x3ad36b08	0.001612992
9	0xbe463269	-0.19355167

conv2.weight f4 [20, 10, 5, 5]
0	0x3b2438d3	0.0025058284
1	0x3d8e4a4e	0.06947766
2	0x3d8a4103	0.06750681
3	0xbca9ed94	-0.020743169
4	0xbe82e13b	-0.25562462
5	0x3d3dd45c	0.0463451
6	0x3db1af84	0.08676055
7	0x3c92ba0e	0.017910983
8	0xbe0bf2d0	-0.13666844
9	0xbe063746	-0.13107023
10	0x3defed1f	0.11715149
11	0x3d336297	0.043795194
12	0xbd8f6aa6	-0.070027635
13	0xbde198ba	-0.110154584
14	0xbe65c470	-0.22438216
15	0x3d0d2710	0.03446108
16	0x3d057391	0.032580916
17	0xbe69fe9d	-0.22851034
18	0xbe0bcd66	-0.13652572
19	0xbdf50154	-0.11963144
20	0x3e08f0e4	0.13373142
21	0xbbd5d983	-0.0065261736
22	0xbe4303f5	-0.19044478
23	0xbd9a3b2a	-0.07530816
24	0xbd257794	-0.04039724
25	0xbd37bf97	-0.04486045
26	0x3c3cb410	0.01151754
27	0xbd6e9494	-0.058247164
28	0xbd472e9d	-0.04862844
29	0x3ce57a59	0.028012441
30	0x3d294b1d	0.0413314
31	0x3c82ab5a	0.015950847
32	0x3c15f24d	0.009152007
33	0x3d18a4c9	0.037266526
34	0xbcc07e5e	-0.023497757
35	0x3e0cef30	0.13763118
36	0x3ca942dc	0.020661764
37	0x3dbcb778	0.092146814
38	0xbd38c0bb	-0.045105677
39	0xbde0cfe1	-0.1097715
40	0x3d652218	0.055940717
41	0x3e5fbd83	0.21849637
42	0x3e240bc1	0.16020109
43	0x3cee7f48	0.029113427
44	0xbe14271d	-0.14468046
45	0x3e00414a	0.12524906
46	0x3e04e998	0.12979734
47	0x3df26a01	0.11836625
48	0x3e31ccc9	0.17363276
49	0xbdeb2344	-0.11481336
50	0xbe801166	-0.25013274
51	0xbe1e42df	-0.15455197
52	0xbd0de1dc	-0.034639224
53	0x3d02eaf2	0.031962343
54	0x3b94953c	0.0045343917
55	0xbc7e6c6d	-0.01552878
56	0x3bb46cb8	0.0055061243
57	0xbbc2752a	-0.005934377
58	0x3c38495c	0.011247959
59	0xbd93b952	-0.072130814
60	0x3da14751	0.07874931
61	0xbdd50ab6	-0.104024336
62	0xbe26ae91	-0.1627753
63	0xbddd864f	-0.10816633
64	0xbccf0e23	-0.025275296
65	0xbc338c04	-0.010958675
66	0xbe7e08b2	-0.24808004
67	0x3aa37eb3	0.0012473672
68	0x3d739d19	0.059475992
69	0x3d644a5d	0.05573498
70	0xbd8a076e	-0.06739698
71	0x3df24fe1	0.11831642
72	0x3e9dd78d	0.30828515
73	0x3dc38ddf	0.09548544
74	0x3da935a9	0.08262188
75	0xbd529b5c	-0.051417693
76	0xbe28a9f3	-0.1647108
77	0x3cfc27b2	0.030780647
78	0x3e8358a3	0.25653562
79	0x3e902d87	0.28159735
80	0xbc5fe5e6	-0.013665652
81	0x3cb0ec56	0.021597069
82	0x3d3e4235	0.04644986
83	0x3e65ce53	0.22441988
84	0x3e3918f5	0.18075927
85	0x3db2b1ea	0.08725341
86	0xbe0d784f	-0.13815425
87	0xbe601afd	-0.21885295
88	0xbd729cb4	-0.059231475
89	0xbb247dd8	-0.0025099423
90	0xbe04d901	-0.12973405
91	0xbdd8256d	-0.105540134
92	0xbe53779a	-0.20651093
93	0xbe69dbf9	-0.22837819
94	0xbd6e8349	-0.058230672
95	0xbe03ca8e	-0.12870237
96	0xbd3fc13f	-0.046815153
97	0xbe49bf36	-0.19701847
98	0xbe080e9f	-0.13286828
99	0xbe06371b	-0.13106959
100	0xbd980602	-0.07423021
101	0xbdccebf1	-0.1000594
102	0xbd4dfd9f	-0.0502907
103	0xbcd4c14d	-0.02597108
104	0x3ba6a804	0.005085947
105	0xbd83a4da	-0.06427927
106	0xbde79ef7	-0.11309617
107	0xbdca9f41	-0.098936565
108	0x3d941124	0.07229832
109	0x3d88eb85	0.06685547
110	0x3dd95601	0.10612107
111	0xbd4c6192	-0.049897738
112	0xbbe364a9	-0.00693949
113	0x3d25a20e	0.04043775
114	0x3de28cd2	0.110620156
115	0x3e08c9a6	0.13358173
116	0x3dd8be78	0.10583204
117	0x3d8d5db0	0.06902635
118	0x3d6b2304	0.05740644
119	0x3d85b442	0.06528522
120	0xbe04dd31	-0.12975003
121	0x3dc5cd63	0.09658315
122	0x3dfbd355	0.12296168
123	0x3e66bdc8	0.22533333
124	0x3d29a3e6	0.04141607
125	0xbda1d00a	-0.079010084
126	0xbe210107	-0.15723048
127	0xbecc4bec	-0.39901674
128	0xbeed5256	-0.4635188
129	0xbee01979	-0.43769434
130	0xbc903ccf	-0.01760712
131	0xbe0635a3	-0.13106398
132	0x3d43747f	0.04771852
133	0x3da679aa	0.08128674
134	0xbe02f8fa	-0.1279029
135	0xbdd94189	-0.10608203
136	0xbc5f0f06	-0.013614422
137	0x3def1e2b	0.11675676
138	0x3db25c22	0.08708979
139	0x3e1b8cb5	0.15190394
140	0xbdbed48c	-0.09317884
141	0xbd8e6ad0	-0.069539666
142	0x3dce0369	0.10059244
143	0xbca00dc4	-0.019537814
144	0xbdb69c72	-0.08916558
145	0x3e2c556b	0.1682946
146	0xbd6c2ca3	-0.057659756
147	0xbc6a3a53	-0.014296132
148	0xbd1a1d35	-0.03762551
149	0xbe2c9e52	-0.1685727
150	0xbca26298	-0.019822404
151	0x3d8f712c	0.07004008
152	0xbd34295f	-0.043984767
153	0xbdebb58c	-0.11509237
154	0xbe32553f	-0.17415331
155	0x3d598bb5	0.05311175
156	0x3da4704a	0.0802923
157	0x3c949df7	0.01814173
158	0x3e05321b	0.13007395
159	0xbde7774c	-0.11302051
160	0x3e498e51	0.19683196
161	0x3d066c8e	0.03281837
162	0xbd92af87	-0.071623854
163	0xbc00db65	-0.007864808
164	0xbd3592f2	-0.04432959
165	0x3c4025f7	0.0117278015
166	0xbe0cf09f	-0.13763665
167	0x3cf06a82	0.029347662
168	0x3e1f5175	0.15558417
169	0x3dc5a6c3	0.09650948
170	0x3e134967	0.1438347
171	0x3d6c9178	0.057755917
172	0xbe0e83a4	-0.13917404
173	0xbd1dc7dd	-0.038520683
174	0x3e04777a	0.12936202
175	0xbd515698	-0.051107973
176	0x3d41f198	0.047349542
177	0x3d8427d8	0.06452912
178	0x3d8c8f4c	0.06863269
179	0x3e1e1fe9	0.1544186
180	0x3d3a4f93	0.045486044
181	0xbd9f745e	-0.07785867
182	0x3d019d6c	0.03164427
183	0x3de7dda5	0.11321572
184	0xbdf07d6c	-0.11742672
185	0x3de86680	0.11347675
186	0xbd7a5442	-0.06111551
187	0x3d146153	0.036225628
188	0xbd21b357	-0.039477672
189	0xbe748282	-0.2387791
190	0xbe2b7268	-0.16742861
191	0xbdd0d085	-0.10196022
192	0xbd10649d	-0.035252202
193	0xbe4ee100	-0.20203018
194	0xbed71361	-0.42006972
195	0xbe06a6d5	-0.13149579
196	0x3dbea5d1	0.09308971
197	0x3e1dc46e	0.15406963
198	0xbb66181a	-0.003510958
199	0xbe3e75e1	-0.18599655
200	0xbd2e5dc4	-0.04256989
201	0xbd73f7c3	-0.059562456
202	0xbd2a8aea	-0.041636385
203	0xbdc28e33	-0.094997786
204	0xbe6a5f77	-0.2288798
205	0xbc235408	-0.009968765
206	0x3d208aa3	0.039194714
207	0x3d0678bd	0.03282999
208	0xbd98e472	-0.074654475
209	0xbe80367e	-0.25041574
210	0xbb26c742	-0.0025448357
211	0x3dc55aa1	0.09636427
212	0xbe0cdbb8	-0.13755691
213	0xbdaeea91	-0.08540834
214	0xbe354592	-0.1770232
215	0x3dcdd4e9	0.10050375
216	0xbd115eff	-0.035490986
217	0x3bd98f0d	0.0066393674
218	0xbd587c02	-0.052852638
219	0xbdc3e928	-0.095659554
220	0x3e3335f9	0.17501058
221	0x3cdd31be	0.027001258
222	0x3dfc2f11	0.12313665
223	0xbd3642f5	-0.04449745
224	0xbdd0fbeb	-0.102042995
225	0xbd5b280a	-0.05350498
226	0xbcf35670	-0.029704303
227	0xbe06573b	-0.13119213
228	0xbdaf70ea	-0.085664585
229	0xbebc87c3	-0.36822328
230	0xbc4f2a13	-0.012644309
231	0x3cbd1a00	0.023083687
232	0x3df07779	0.117415376
233	0x3e214522	0.15749028
234	0xbd906fb3	-0.07052555
235	0xbce8098f	-0.02832487
236	0x3d44446d	0.04791682
237	0x3e2008b3	0.15628318
238	0x3e1813e7	0.14851342
239	0xbd432322	-0.047640927
240	0x3e602b67	0.21891557
241	0xbd813515	-0.06308953
242	0x3d99471c	0.07484266
243	0x3d9e3077	0.07724088
244	0x3d5fe185	0.05465843
245	0x3d62f3ce	0.05540829
246	0xbde2743c	-0.11057326
247	0x3c5353f9	0.012898439
248	0xbd0d69b3	-0.03452463
249	0x3d08e1a6	0.03341832
250	0x3e028a3b	0.12748043
251	0xbd680aa9	-0.05665079
252	0xbd996159	-0.07489271
253	0x3d5a8208	0.053346664
254	0x3de73cad	0.1129087
255	0x3e61474f	0.21999858

conv2.bias f4 [20]
0	0x3e45724a	0.19281879
1	0xbd1bd966	-0.038049124
2	0xbc2528d8	-0.010080539
3	0xbd980b04	-0.07423976
4	0xbde8d7bc	-0.11369273
5	0xbe5f71fd	-0.21820827
6	0x3e8ffd56	0.28122967
7	0xbd0717f1	-0.032981817
8	0x3dc18776	0.09449665
9	0xbdd791ca	-0.10525854
10	0xbdce7d76	-0.100825235
11	0x3b88bd6d	0.004172972
12	0x3d7db04b	0.061935704
13	0x3dd8f162	0.10592915
14	0xbd19e10e	-0.037568145
15	0x3b8cc18a	0.0042955326
16	0xbb443e47	-0.0029944347
17	0x3bbec8ac	0.005822262
18	0x3b6753ec	0.0035297824
19	0xbd03d20c	-0.03218274

fc1.weight f4 [50, 320]
0	0x3df98bda	0.12184878
1	0x3db5f515	0.08884636
2	0x3ce0be35	0.027434448
3	0xbd853f36	-0.06506197
4	0x3c1d07af	0.009584351
5	0xbd139ebc	-0.036040053
6	0x3d3972ca	0.045275487
7	0x3deeeddd	0.116664626
8	0x3e276643	0.16347603
9	0x3dc6fd66	0.09716301
10	0xbd36eb20	-0.044657826
11	0xbd227100	-0.039658546
12	0x3ddf9ab9	0.10918183
13	0xbb940161	-0.004516766
14	0xbdec715b	-0.11545058
15	0xbe75e6d2	-0.24013832
16	0x3dff9405	0.12479404
17	0x3da65168	0.08120996
18	0x3d9606c7	0.073255114
19	0x3e040634	0.12892991
20	0x3c8787b6	0.016544204
21	0x3c4a3edd	0.012344089
22	0x3e5b0380	0.21388054
23	0x3ca4fd9e	0.020140465
24	0xbe6a5b06	-0.22886285
25	0xbcfadc15	-0.030622521
26	0x3e14f757	0.14547478
27	0xbdddc329	-0.108282395
28	0xbd84d73c	-0.06486365
29	0x3d80ebd9	0.06294984
30	0xbe0c2f41	-0.13689901
31	0xbe59fc24	-0.2128759
32	0xbb6aa826	-0.003580579
33	0x3c5e1a97	0.013556144
34	0x3dd546cc	0.10413894
35	0xbdc9d187	-0.09854417
36	0xbe2a3d62	-0.16624978
37	0xbe37e0f1	-0.17956902
38	0x3bd8fe49	0.00662211
39	0x3d6209e9	0.055185232
40	0xbe4d4583	-0.20046048
41	0xbd3cc178	-0.046082944
42	0xbd1cbe75	-0.03826757
43	0x3dbefb49	0.093252726
44	0xbd1486bd	-0.03626131
45	0xbd184953	-0.037179302
46	0x3e3ca24a	0.18421283
47	0x3ea4490a	0.32086974
48	0x3cf22fa6	0.029563736
49	0x3d89a5a2	0.06721045
50	0xbc175506	-0.00923658
51	0xbeb61eca	-0.35570365
52	0x3dc125b4	0.094310194
53	0xbd9a6c66	-0.075402066
54	0xbc91409b	-0.017731002
55	0xbef01ad2	-0.46895462
56	0x3d1484ba	0.03625939
57	0xbe3fe60d	-0.18740101
58	0xbde5258a	-0.11188801
59	0x3d45bea0	0.048277497
60	0xbdf14086	-0.11779885
61	0x3c8b375e	0.016994175
62	0xbc19f6a2	-0.009397181
63	0x3dd674b0	0.10471475
64	0x3e45b7ba	0.19308367
65	0x3c60cec5	0.013721173
66	0x3d88506d	0.06655965
67	0x3d8e7e18	0.06957644
68	0x3daf023e	0.085453495
69	0x3d0db286	0.03459408
70	0x3c46be42	0.012130322
71	0x3dabc088	0.08386332
72	0xbcbcd108	-0.023048893
73	0xbe1f2f44	-0.15545374
74	0x3b8cb954	0.004294554
75	0xbde2feac	-0.11083731
76	0xbe88dff2	-0.26733357
77	0xbd0bfc99	-0.034176443
78	0x3cb4846e	0.022035804
79	0xbcbaa588	-0.02278401
80	0xbd0655df	-0.032796737
81	0xbd891baa	-0.066947296
82	0x3d82e705	0.0639172
83	0x3bf928cd	0.007603741
84	0xbdac620a	-0.08417137
85	0x3c41e468	0.011834241
86	0xbb545712	-0.003240053
87	0x3d9a79b3	0.075427435
88	0x3daba884	0.08381751
89	0x3cddd240	0.027077794
90	0x3e498c0d	0.19682331
91	0x3e1a5258	0.15070474
92	0xbd98885b	-0.07447883
93	0xbcca011c	-0.024658732
94	0x3d34b9e2	0.044122584
95	0x3d44868e	0.047979884
96	0xbbd95f06	-0.006633642
97	0x3de90b2b	0.11379083
98	0x3d466c6d	0.048443247
99	0x3cdccb5c	0.026952438
100	0xbcf8fe4d	-0.030394698
101	0x3d6e59ee	0.058191232
102	0x3d6905dc	0.056890354
103	0xbd0349ba	-0.032052733
104	0x3e58122a	0.21100679
105	0x3de4acb5	0.11165754
106	0xbd157fbf	-0.03649878
107	0x3ca423d1	0.02003661
108	0x3cfcc69b	0.030856421
109	0xbdeb6244	-0.11493352
110	0xbe1da204	-0.15393835
111	0xbe4832f8	-0.19550693
112	0x3d73bebc	0.05950807
113	0x3c9cbb04	0.019132145
114	0x3d527bc8	0.05138758
115	0x3e5bf14f	0.2147877
116	0x3d0d56fd	0.034506787
117	0x3df82536	0.121164724
118	0x3dbca842	0.0921178
119	0xbc84b318	-0.01619868
120	0xbd79646d	-0.06088679
121	0xbe2e0bc3	-0.16996674
122	0xbd996d43	-0.07491543
123	0xbe03ddb6	-0.12877545
124	0x3b30c23c	0.0026971241
125	0xbd4d36ee	-0.050101213
126	0x3c4d0b6d	0.012514931
127	0x3e2bb5ca	0.16768566
128	0x3e10331f	0.14082001
129	0x3e407d06	0.18797693
130	0x3e2564dd	0.16151758
131	0xbde49bab	-0.11162504
132	0xbc8efb75	-0.017453888
133	0x3d8578f8	0.065172136
134	0x3b94fede	0.004546984
135	0xbe24f626	-0.16109523
136	0x3cd256f9	0.025676237
137	0xbd8e6321	-0.06952501
138	0x3d69873d	0.05701374
139	0xbc5afda4	-0.013366137
140	0x3d62bfc9	0.05535868
141	0x3d4d6a01	0.05014992
142	0x3d3506ab	0.044195812
143	0xbe0ce434	-0.13758928
144	0xbcb8f091	-0.022575649
145	0x3d4bc38d	0.04974704
146	0x3cb0b74a	0.021571774
147	0x3d83fdf4	0.06444922
148	0xbd5748c6	-0.052559637
149	0x3cfb4344	0.030671723
150	0xbbf08122	-0.0073396126
151	0x3c0773ae	0.008267326
152	0xbe45037c	-0.1923961
153	0x3df40c81	0.119164474
154	0xbdbf7372	-0.09348191
155	0xbc6e1646	-0.014531678
156	0xbe071d6e	-0.1319482
157	0xbd02ec49	-0.03196362
158	0xbd8bc8c1	-0.068254
159	0x3d643439	0.055713866
160	0x3d919807	0.07109075
161	0x3d94c643	0.07264378
162	0x3cfea5f1	0.031084986
163	0xbc4a03c4	-0.012329999
164	0x3c2d420f	0.010574832
165	0xbb67c660	-0.0035366043
166	0xbe512272	-0.20423296
167	0xbe4c7375	-0.19965918
168	0x3db86e8c	0.0900546
169	0x3d799dd8	0.060941547
170	0xbde3748c	-0.11106214
171	0x3e11c054	0.14233524
172	0xbcaca1dc	-0.021073274
173	0xbcb9e233	-0.022690868
174	0x3d35171a	0.044211484
175	0x3d5c58d2	0.053795643
176	0x3dbf02f5	0.09326736
177	0x3be73191	0.0070554693
178	0x3abeca71	0.0014556182
179	0xbd048be4	-0.032359973
180	0xbe238c06	-0.15971383
181	0xbe6523ab	-0.22376888
182	0xbde95730	-0.11393583
183	0x3d27e86b	0.040993135
184	0xbdc41cdb	-0.09575816
185	0xbe044a5d	-0.12918992
186	0x3d8e2830	0.06941259
187	0x3e23c6cd	0.15993805
188	0xb7c78298	-2.3783461e-05
189	0xbbad565c	-0.005289836
190	0x3d9ee3f9	0.07758326
191	0x3e214758	0.15749872
192	0x3c99a552	0.018755589
193	0x3c1f6fd1	0.009731249
194	0xbd9912d1	-0.07474292
195	0xbc9aa412	-0.018877063
196	0xbd98e501	-0.07465554
197	0x3c3ab73b	0.011396225
198	0x3d50d9b4	0.050988868
199	0x3da661c4	0.08124116
200	0x3d056dc7	0.032575395
201	0x3df7d038	0.121002614
202	0x3d345dd6	0.0440348
203	0xbe10766c	-0.14107674
204	0x3ddac890	0.106827855
205	0x3e1afae7	0.15134774
206	0xbd943902	-0.07237436
207	0xbe5f8bd6	-0.21830687
208	0x3d46675a	0.048438407
209	0x3da2a5c1	0.07941771
210	0xbd2bcc3b	-0.041942816
211	0x3e167ee4	0.14696842
212	0xbd2dc9a1	-0.042428616
213	0x3d37f917	0.044915285
214	0xbda72ef8	-0.081632555
215	0x3a69f8e3	0.00089253316
216	0x3bce8beb	0.0063033006
217	0x3dac8fa5	0.084258355
218	0x3e4ee6d8	0.20205247
219	0x3cd15dbb	0.02555739
220	0xbd34ed06	-0.044171356
221	0x3d84acb3	0.06478252
222	0x3d4d7aab	0.050165813
223	0xbe6301fa	-0.22168723
224	0xbd04fa7b	-0.03246544
225	0x3d11b3e0	0.035571933
226	0xbd16184a	-0.036644258
227	0x3d000e25	0.03126349
228	0x3cd82075	0.026382664
229	0xbd718642	-0.05896593
230	0xba2b32aa	-0.0006530682
231	0x3c1cdcee	0.009574158
232	0xbd76cc11	-0.060253207
233	0x3d3151a4	0.04329075
234	0xbd072742	-0.032996424
235	0xbd6f5de6	-0.058439158
236	0x3cf836c4	0.030299552
237	0x3d653b4e	0.05596476
238	0xbd0333f2	-0.03203196
239	0xbdc87c97	-0.097893886
240	0x3e35b432	0.1774452
241	0x3dec2057	0.11529606
242	0x3d48e0b7	0.04904243
243	0xbe402abe	-0.18766305
244	0xbcd42d40	-0.025900483
245	0x3d6fe539	0.058568213
246	0x3d24cd67	0.04023495
247	0xbb0ee410	-0.0021803416
248	0x3ca499a7	0.020092798
249	0x3d4b2cb7	0.04960319
250	0x3b5e7047	0.0033941434
251	0x3ceb591b	0.028729012
252	0x3d9da47f	0.07697391
253	0x3d9c90cc	0.07644805
254	0xbe2464d9	-0.16054095
255	0xbdedfb23	-0.11620166

fc1.bias f4 [50]
0	0x3eb1ec0f	0.3475041
1	0x3dc28de0	0.09499717
2	0xbdb4b3ba	-0.088233426
3	0x3dc6581d	0.09684775
4	0x3e888e4e	0.2667107
5	0x3d45fa96	0.04833468
6	0x3e982a86	0.29719943
7	0x3df32d1c	0.11873838
8	0x3e4f404c	0.20239371
9	0x3e68517c	0.22687334
10	0x3ded584a	0.115891054
11	0x3d1d114d	0.038346577
12	0x3ea8753d	0.32901946
13	0x3ecf2aa6	0.40462226
14	0x3e304cee	0.17216846
15	0xbb18d441	-0.0023319873
16	0x3d14b01a	0.036300756
17	0x3eb47a07	0.3524935
18	0xbdebdd7b	-0.115168534
19	0x3d3a6305	0.04550459
20	0x3e9d4abd	0.30721083
21	0x3e5cbf19	0.21557273
22	0x3e9e35ca	0.30900413
23	0x3e10f3df	0.1415553
24	0x3e773940	0.24142933
25	0x3e552e4e	0.20818445
26	0x3e4b21e4	0.19837147
27	0x3e7c7964	0.24655682
28	0x3eccf5ce	0.40031284
29	0x3ee147c5	0.44000068
30	0x3e7f8606	0.2495347
31	0x3db7f2cc	0.08981857
32	0x3dc30e17	0.09524172
33	0x3de3018c	0.110842794
34	0x3dbce4c1	0.09223319
35	0x3de52163	0.11188009
36	0x3e86824f	0.26271293
37	0xbb005b0d	-0.001958552
38	0x3e02d675	0.12777121
39	0x3d679c3e	0.05654549
40	0x3e775098	0.24151838
41	0x3d94ae59	0.07259817
42	0xbd1e14e7	-0.038594153
43	0x3d99f44e	0.075173005
44	0x3e659879	0.22421445
45	0x3dd446fb	0.10365101
46	0x3ddf85c3	0.10914185
47	0x3e570005	0.20996101
48	0x3c60633a	0.013695532
49	0x3f06f6c9	0.52720314

fc2.weight f4 [10, 50]
0	0x3deb631a	0.114935115
1	0xbcaa0152	-0.020752583
2	0x3dc0c9f5	0.0941352
3	0xbe9ba3e5	-0.3039848
4	0xbd9f8984	-0.07789901
5	0xbc99b660	-0.018763721
6	0xbe9720ab	-0.2951711
7	0xbea3ce99	-0.3199356
8	0xbea8355d	-0.32853213
9	0xbe823016	-0.25427312
10	0x3e147f32	0.14501646
11	0xbdfcb84b	-0.123398386
12	0x3e04cd1d	0.1296887
13	0xbd900d03	-0.07033732
14	0x3e448410	0.19191003
15	0xbe68ac31	-0.22721936
16	0x3e361e7a	0.17785063
17	0x3dd0ee69	0.10201723
18	0xbed6d63f	-0.41960332
19	0xbede5fbe	-0.4343242
20	0xbeada94a	-0.3391822
21	0x3d35d57d	0.04439305
22	0xbe81557f	-0.2526054
23	0x3db80322	0.089849725
24	0xbe9a7bd6	-0.30172604
25	0xbebb1b97	-0.36544487
26	0x3dc92031	0.09820593
27	0xbe661bb5	-0.22471507
28	0x3dc83f68	0.09777719
29	0x3e36ccbb	0.17851536
30	0xbe97a1b2	-0.2961555
31	0x3d25d0fc	0.040482506
32	0xbd2bee34	-0.041975215
33	0xbe1ed28e	-0.15510008
34	0xbe9aaf2c	-0.3021177
35	0xbea142ce	-0.3149628
36	0xbefceb03	-0.4939805
37	0xbe4a5685	-0.19759567
38	0x3e35dcbb	0.17759983
39	0x3b332d95	0.0027340401
40	0xbeb9aeb1	-0.3626609
41	0xbe868549	-0.26273564
42	0xbec0a604	-0.3762666
43	0xbea27158	-0.317271
44	0xbe8107ca	-0.25201255
45	0x3e23296b	0.15933768
46	0x3dd16135	0.10223619
47	0x3e2c051e	0.16798827
48	0x3cdfdd85	0.027327308
49	0x3de570b8	0.1120314
50	0x3dd6d0c2	0.10489036
51	0xbeabd546	-0.33561152
52	0xbe515578	-0.2044276
53	0x3dc7d75c	0.097578734
54	0x3dfe7aa0	0.124257326
55	0x3e0bebda	0.13664189
56	0x3e46a769	0.193998
57	0xbc42ab06	-0.0118815955
58	0x3e0056fa	0.12533179
59	0x3da419e7	0.08012753
60	0xbe4e8cd9	-0.20170917
61	0xbe7f8d72	-0.24956301
62	0x3d99f221	0.075168855
63	0x3e4c5222	0.19953206
64	0xbe4fd9fe	-0.20298001
65	0xbe54d8f1	-0.20785882
66	0xbe9a45a7	-0.30131266
67	0x3ddd83f0	0.10816181
68	0xbea0367c	-0.31291568
69	0xbe7f94d8	-0.24959123
70	0x3e276530	0.16347194
71	0xbbdbcf60	-0.0067080706
72	0x3e13d2db	0.14435904
73	0xbecf23ff	-0.4045715
74	0x3da4bb41	0.08043528
75	0x3dbb6945	0.09150938
76	0xbe866785	-0.26250854
77	0x3e4805b3	0.19533424
78	0x3ca21437	0.01978503
79	0x3e09f7af	0.1347339
80	0x3db3acc2	0.08773185
81	0xbe8b4dba	-0.27207738
82	0xbe5ca2d5	-0.2154649
83	0xbe99ad5e	-0.3001508
84	0xbe16347f	-0.14668463
85	0x3dcd952f	0.1003822
86	0x3d9255bc	0.07145259
87	0xbe879f9a	-0.26488954
88	0xbe92ad32	-0.28647763
89	0xbeb637e1	-0.35589507
90	0x3e1f0740	0.1553011
91	0xbece6a8f	-0.40315673
92	0xbe6becc7	-0.23039542
93	0x3d969216	0.073520824
94	0x3de2756d	0.110575534
95	0xbe5d3571	-0.21602418
96	0xbe73cad9	-0.23807849
97	0xbea0d836	-0.31414956
98	0xbee610e7	-0.4493477
99	0x3d9a5c41	0.07537127
100	0x3e0705cd	0.13185807
101	0x3d8b8b34	0.0681366
102	0x3dcd5f52	0.100279465
103	0xbe5e960b	-0.21736924
104	0x3e1837bf	0.14865015
105	0xbe6ff29c	-0.23432392
106	0x3e450777	0.19241129
107	0x3da31cae	0.079644546
108	0x3e0f478c	0.13992137
109	0xbdff1e4e	-0.12456952
110	0x3e038251	0.1284268
111	0x3e0edf12	0.13952282
112	0xbe37341a	-0.17890969
113	0xbc892475	-0.016741017
114	0xbe06298f	-0.13101791
115	0x3dd915ed	0.10599885
116	0x3e069037	0.13140951
117	0x3deffe7f	0.11718463
118	0xbe4323e3	-0.19056658
119	0xbe46a5e4	-0.1939922
120	0xbd70b949	-0.05877045
121	0x3d9a04ca	0.07520445
122	0xbe0c6031	-0.13708569
123	0xbe44b23f	-0.1920862
124	0xbe5717d7	-0.21005188
125	0x3e01411e	0.12622496
126	0x3df5c2eb	0.12000068
127	0x3e5011ef	0.20319341
128	0xbe21f0d4	-0.15814525
129	0xbe2f66ce	-0.1712906
130	0x3dd3f749	0.103499
131	0xbd792d94	-0.060834482
132	0x3e408589	0.1880094
133	0xbeaaea27	-0.3338177
134	0xbdc6402d	-0.09680209
135	0x3e01c1b9	0.12671556
136	0xbeb1e3c4	-0.34744084
137	0xbe0aa79f	-0.13540505
138	0xbe5fc581	-0.21852686
139	0xbd42dbc4	-0.047572866
140	0xbe740805	-0.23831184
141	0xbd4f38df	-0.050591346
142	0x3e07639a	0.13221589
143	0x3e110d49	0.14165224
144	0xbda83bb9	-0.08214516
145	0x3de3aa87	0.1111651
146	0x3dddcff8	0.108306825
147	0xbdac0a69	-0.08400423
148	0xbea041b0	-0.31300116
149	0xbe4f9f44	-0.20275599
150	0xbe54dd73	-0.20787601
151	0xbe992dc3	-0.29917726
152	0x3da20d35	0.07912675
153	0xbe90d3b8	-0.2828653
154	0xbe8bfb53	-0.27340183
155	0x3e3b4336	0.18287358
156	0x3c9de1db	0.019272735
157	0x3cede0d6	0.029037874
158	0x3e1d7d93	0.15379934
159	0x3e0df08f	0.13861297
160	0x3e052fb1	0.13006474
161	0xbe3e9eb5	-0.1861523
162	0xbe5781ea	-0.21045652
163	0xbe5d89a3	-0.21634535
164	0xbd4b2dcb	-0.04960422
165	0x3d88a93f	0.06672906
166	0xbddc9961	-0.10771442
167	0xbe81d301	-0.25356296
168	0x3dbe8266	0.09302215
169	0x3d6db4fd	0.058033932
170	0xbe809224	-0.25111496
171	0x3d7fb1d7	0.06242546
172	0xbe2e123d	-0.16999145
173	0xbe89e4f6	-0.26932496
174	0x3e0e0d16	0.1387218
175	0x3e1cf538	0.15327919
176	0x3d9abeb9	0.07555909
177	0xbe101273	-0.14069538
178	0x3de102be	0.10986851
179	0xbe93c8e0	-0.28864193
180	0xbe188e3f	-0.14898013
181	0x3db72642	0.08942844
182	0x3e43f3c5	0.1913596
183	0xbe30c300	-0.17261887
184	0xbc7e3590	-0.0155157
185	0x3e0ca11e	0.13733336
186	0x3dca3ca1	0.09874845
187	0xbd239167	-0.03993359
188	0xbe1f34d4	-0.15547496
189	0x3da799fd	0.08183668
190	0xbd8bc30a	-0.0682431
191	0xbe49600b	-0.19665544
192	0x3dd93793	0.10606303
193	0x3e05c3e7	0.13063012
194	0x3cc18ce9	0.023626762
195	0xbe333948	-0.1750232
196	0x3de18e4f	0.11013471
197	0xbeb002ab	-0.34377035
198	0xbe2a6dc1	-0.1664343
199	0x3e0346d6	0.1281999
200	0x398982cd	0.0002622813
201	0x3e57bb3e	0.21067521
202	0x3dc6975c	0.09696838
203	0x3df6be11	0.12047971
204	0x3e1b9bff	0.15196227
205	0xbe8bd3ee	-0.27310127
206	0xbe179ce9	-0.1480595
207	0xbdd56e2c	-0.10421404
208	0xbdcc4f85	-0.09976105
209	0xbc32b448	-0.01090724
210	0xbe43b2b4	-0.19111139
211	0xbac2dc05	-0.0014866596
212	0xbdbc767a	-0.09202285
213	0x3e541eba	0.20714846
214	0xbec2c534	-0.3804108
215	0x3dfc3e83	0.12316611
216	0x3da08180	0.078372
217	0xbd728349	-0.059207235
218	0xbe4f6ad2	-0.20255592
219	0x3d6f5be6	0.05843725
220	0x3e3d8685	0.18508346
221	0xbe903a9a	-0.2816971
222	0x3e326c04	0.17424017
223	0x3db95099	0.09048576
224	0xbe51ec19	-0.2050022
225	0xbc6eb792	-0.014570134
226	0x3dfa2ccb	0.12215575
227	0xbdbb4f1c	-0.09145948
228	0xbe34da59	-0.17661418
229	0xbe2a3d17	-0.16624866
230	0xbe043601	-0.12911226
231	0xbe3de827	-0.1854559
232	0xbce3d5b1	-0.027811857
233	0xbd7f9d7b	-0.062406044
234	0x3e4fe42b	0.20301883
235	0x3e245076	0.16046318
236	0x3db22c4c	0.08699855
237	0x3e49be93	0.19701605
238	0xbe821ed7	-0.25414154
239	0xbe090ad4	-0.13383037
240	0x3e2ccd1f	0.16875122
241	0xbe311862	-0.17294458
242	0xbe803ec2	-0.2504788
243	0x3dcbadf6	0.0994529
244	0xbd84f35a	-0.06491728
245	0xbe26e4c3	-0.16298203
246	0xbe7e8195	-0.24854119
247	0x3e3bbdc2	0.18334106
248	0x3dcb6c2d	0.09932742
249	0xbea7496c	-0.32673204
250	0xbe26e88a	-0.16299644
251	0x3cf49867	0.029857827
252	0xbeb07b58	-0.34469104
253	0xbe5c0bf9	-0.21488942
254	0xbe671269	-0.22565617
255	0x3e40b26c	0.18818063

fc2.bias f4 [10]
0	0x3f035627	0.51303333
1	0x3f2a306f	0.66480154
2	0xbd94c0ea	-0.07263358
3	0xbebb86c5	-0.36626258
4	0xbd6ddc8d	-0.05807166
5	0xbd8c692e	-0.06855999
6	0xbdcdf5b6	-0.10056631
7	0xbe1e3d57	-0.15453087
8	0x3e85b30d	0.26113167
9	0xbd1e4acd	-0.038645554

exp_avg f4 [10, 1, 5, 5]
0	0xbbec2575	-0.0072066137
1	0xbbdd5e72	-0.0067556435
2	0xbbaeccdf	-0.005334481
3	0xbbc392e9	-0.005968441
4	0xb982832a	-0.00024893257
5	0xbc2c33c5	-0.01051039
6	0xbc173e22	-0.009231122
7	0xbc00b8e8	-0.007856585
8	0xbb1cc126	-0.0023918836
9	0x3ab5a47d	0.0013858225
10	0xbc376408	-0.011193283
11	0xbc491e92	-0.012275355
12	0xbc174c8e	-0.009234561
13	0x3a361c60	0.0006946977
14	0x3b74e68d	0.0037368864
15	0xbc0dcf28	-0.008655347
16	0xbc0d45e6	-0.008622622
17	0xbbf8071e	-0.007569208
18	0x37b52906	2.1595984e-05
19	0x3aed694f	0.001811305
20	0xbbabd97e	-0.005244433
21	0xbbd6df78	-0.0065574013
22	0xbb579a61	-0.0032898413
23	0x3b73e968	0.0037217978
24	0x3b2f3b14	0.0026738094
25	0xbb3c5ff2	-0.0028743711
26	0x39cfccfa	0.00039634836
27	0xba324040	-0.0006799735
28	0x39fccb4b	0.0004821665
29	0xbb749d17	-0.0037325078
30	0xbb8ab856	-0.0042334003
31	0xbb72d472	-0.0037052897
32	0xbb118d17	-0.002220934
33	0xbab20533	-0.0013581872
34	0xbaec7746	-0.0018040917
35	0xbb8dbfdd	-0.0043258504
36	0xbb00cfa0	-0.0019655004
37	0xb9762bcc	-0.00023476704
38	0xba342c51	-0.0006873059
39	0xba02811e	-0.00049783464
40	0x3a4d1504	0.0007823261
41	0x3aac7d2d	0.0013159864
42	0xbac54b55	-0.0015052358
43	0xbb83f150	-0.0040265694
44	0xbb6c54d5	-0.0036061306
45	0x3bc40b72	0.0059828097
46	0x3b2e8650	0.002663035
47	0xbb0e9323	-0.002175518
48	0xbbbd5d8f	-0.0057789753
49	0xbbe4386c	-0.006964734
50	0xb7e9c402	-2.7867038e-05
51	0xba7bfe2e	-0.0009612766
52	0x3bda005a	0.006652874
53	0x3c2465bd	0.010034022
54	0x3b9feda6	0.004880625
55	0x3aaf690e	0.0013382749
56	0x3b33dc77	0.002744464
57	0x3c0e75f8	0.008695118
58	0x3c055c72	0.008139716
59	0x3b655284	0.003499181
60	0x3ae5ff58	0.0017547412
61	0x3a919056	0.0011105638
62	0x3ac69b7a	0.0015152537
63	0x3b1632c0	0.0022918433
64	0x3aafee69	0.0013422492
65	0x3a7ecb81	0.00097196555
66	0xb98f181c	-0.00027293048
67	0x3a71b2c5	0.0009220059
68	0x3b219db1	0.0024660642
69	0x39ca8d39	0.00038633661
70	0x3ae0dd5c	0.0017155814
71	0xbaf695f2	-0.0018812998
72	0x3b142775	0.0022606526
73	0x3ade40a0	0.0016956516
74	0xbb4a1a1b	-0.0030838314
75	0xbc95ba3a	-0.018277276
76	0xbc657ea7	-0.014007247
77	0xbb886317	-0.004162203
78	0xbb98ace5	-0.0046592825
79	0xbb92b8d9	-0.004477602
80	0xbc59410a	-0.013260135
81	0xbbbef73a	-0.0058278115
82	0x394087bb	0.0001836111
83	0xba83121d	-0.0009999905
84	0xbbe62b44	-0.0070242006
85	0xbbb3e059	-0.005489391
86	0xba22feb2	-0.0006217762
87	0x3ac8bd84	0.0015315269
88	0xba5cc80f	-0.0008422145
89	0xbba6e486	-0.00509316
90	0x3af6171f	0.0018775201
91	0xba9d4783	-0.0011999462
92	0xbb0a65a3	-0.002111771
93	0xbb935e32	-0.004497313
94	0xbbf09ecf	-0.00734315
95	0x3afbfdca	0.0019225415
96	0xbb4dd512	-0.0031407517
97	0xbbef1ea2	-0.007297353
98	0xbc012232	-0.007881688
99	0xbb856b67	-0.0040716412
100	0xba9e082b	-0.0012056878
101	0xbabd6fab	-0.0014452835
102	0xbaa0284d	-0.0012219042
103	0x3ae3c5a0	0.0017377622
104	0x3b4f82c7	0.0031663643
105	0xb9927f92	-0.00027942337
106	0x3b8acf6d	0.004236153
107	0x3b66bd05	0.003520788
108	0x3ba4f95b	0.0050346083
109	0x3bfadb9c	0.007655574
110	0xba5a90dd	-0.00083376264
111	0x3be250fb	0.0069066263
112	0x3bc2d2e9	0.0059455526
113	0x3b2dceea	0.0026521035
114	0x3be6715d	0.007032557
115	0x3b23da77	0.0025002041
116	0x3bcc9e72	0.006244474
117	0x3b8e5abd	0.004344313
118	0x3ae7c9e0	0.0017684065
119	0x3b52f10f	0.003218714
120	0x3c025619	0.007955098
121	0x3c2576fb	0.010099168
122	0x3c0c0021	0.008544953
123	0x3be74466	0.0070577143
124	0x3be261b9	0.006908622
125	0xbbab9dc6	-0.005237314
126	0xbbeed7b9	-0.0072888997
127	0xbbd22897	-0.00641353
128	0x3aaaf194	0.0013041967
129	0x3b842a3d	0.0040333555
130	0xbb563275	-0.0032683883
131	0xbb299165	-0.0025874015
132	0xbb8ec501	-0.004356981
133	0xbb468259	-0.0030290096
134	0xbad91e33	-0.0016564786
135	0x3bcfaef6	0.0063379956
136	0x3b977e40	0.0046232045
137	0xba467a8b	-0.0007571361
138	0xbbcc20f3	-0.006229514
139	0xbc08fa6e	-0.008360488
140	0x3b334a0d	0.002735737
141	0x3a156752	0.0005699295
142	0xba75f703	-0.0009382816
143	0xbb74d483	-0.0037358112
144	0xbbd557bd	-0.0065107034
145	0xba52373e	-0.0008019096
146	0xba86b11e	-0.0010276174
147	0x3c0331d3	0.0080074845
148	0x3b76ec9c	0.0037677651
149	0x3b19f6f7	0.002349315
150	0x3b1f6cdf	0.0024326367
151	0x3c0bf560	0.008542389
152	0x3c0ccae5	0.008593296
153	0x3abb775d	0.0014302541
154	0xbb8c0ff5	-0.004274363
155	0x3b53cf40	0.0032319576
156	0x3c0bc3d4	0.008530576
157	0x3bf4e433	0.0074734925
158	0x3b74c620	0.0037349537
159	0xb984bb50	-0.0002531656
160	0x3c20c6dd	0.009813038
161	0x3c2ecb88	0.010668643
162	0x3b888fdd	0.0041675405
163	0x3a72c91c	0.0009261535
164	0xbb6b23f2	-0.003587958
165	0x3c8127dd	0.015766079
166	0x3c299793	0.0103510795
167	0x3b5647c2	0.003269658
168	0xba627332	-0.0008638381
169	0xbb592cdb	-0.0033138308
170	0x3c0d2c8c	0.008616578
171	0x3bcdadc3	0.0062768175
172	0x3b7dbd3c	0.0038717529
173	0xbb7ef972	-0.0038906005
174	0xb94032d1	-0.00018329477
175	0xbbe7069c	-0.0070503484
176	0xbc15c292	-0.009140627
177	0xbc128fca	-0.008945415
178	0xbbe71f0f	-0.007053263
179	0xbb9ad0b8	-0.0047245882
180	0xbbc20260	-0.0059206933
181	0xbc071680	-0.0082451105
182	0xbbb2ab7b	-0.005452571
183	0xbaab0bd7	-0.0013049793
184	0x3b835f8a	0.004009192
185	0xbb80fccc	-0.0039363857
186	0xbb32e22a	-0.0027295449
187	0x3a057ea4	0.0005092418
188	0x3b169c0f	0.0022981202
189	0x3bd2fda1	0.0064389263
190	0xbbdf2a88	-0.00681049
191	0xbb26031d	-0.0025331446
192	0xb8610975	-5.3652988e-05
193	0x3be7525e	0.0070593795
194	0x3bd2c9a3	0.0064327284
195	0xbc4b3af5	-0.012404193
196	0xbc3869ce	-0.011255695
197	0xbb4f56ea	-0.0031637498
198	0x3b6f0fc3	0.00364779
199	0x3c147806	0.009061819
200	0xbbcee24c	-0.006313598
201	0xbbc7145e	-0.006075426
202	0x3a14d471	0.0005677408
203	0xba2c57eb	-0.000657438
204	0xbbb0268b	-0.0053756884
205	0xbace3f63	-0.0015735443
206	0x3a252c3b	0.00063008413
207	0xba8d3d8b	-0.0010775788
208	0xbb86dab6	-0.004115428
209	0xbbf047ad	-0.007332763
210	0x3b1451ae	0.0022631693
211	0x3b2737e0	0.0025515482
212	0xbb1a3f18	-0.0023536142
213	0xbbdb71fd	-0.006696938
214	0xbbebfa02	-0.007201434
215	0x3afac36e	0.0019131729
216	0xbada9e22	-0.0016679207
217	0xbbaa3e0d	-0.0051953853
218	0xbc038165	-0.0080264555
219	0xbc109be5	-0.008826231
220	0x3b0bdc69	0.0021341091
221	0xbb4262f3	-0.002966103
222	0xbbb2f2f6	-0.005461092
223	0xbbe30947	-0.006928596
224	0xbbf56d96	-0.0074898703
225	0x3b410fd0	0.0029458888
226	0x3aa7bef3	0.0012797996
227	0x3a9609d4	0.0011447021
228	0x399f1e14	0.00030349253
229	0x3b0a91c8	0.0021144021
230	0xbbcb4228	-0.006202955
231	0xbbf07274	-0.0073378626
232	0xbba5571c	-0.0050457846
233	0x3abeb56b	0.0014549916
234	0x3b81331b	0.00394286
235	0xbbd1d3f2	-0.0064034397
236	0xbc11a8c1	-0.008890332
237	0xbbb69b73	-0.00557273
238	0x3b20d099	0.0024538396
239	0x3c05dca6	0.0081702825
240	0xbb4b25ec	-0.0030997945
241	0xbb3ace81	-0.0028504434
242	0xbb671041	-0.003525749
243	0x39ee22c8	0.00045420812
244	0x3be7abce	0.0070700413
245	0x3b54c2de	0.0032464783
246	0x3a715009	0.00092053466
247	0xbb1b9118	-0.0023737606
248	0xbb821a69	-0.0039704335
249	0x3a810d56	0.0009845893

exp_avg_sq f4 [10, 1, 5, 5]
0	0x3b7084fc	0.0036700359
1	0x3b48c83d	0.003063693
2	0x3b1a429d	0.002353824
3	0x3b072bd9	0.00206255
4	0x3adf462f	0.0017034466
5	0x3b59df13	0.0033244535
6	0x3b37c687	0.0028041916
7	0x3b10ac4a	0.0022075349
8	0x3af9492a	0.0019018997
9	0x3ab306ee	0.0013658681
10	0x3b395c50	0.0028283782
11	0x3b154500	0.0022776723
12	0x3ae039dc	0.0017107087
13	0x3aa6f96b	0.0012739127
14	0x3aa12e56	0.0012297134
15	0x3b168ff4	0.0022973986
16	0x3add7f6a	0.0016898934
17	0x3aa620bf	0.0012674554
18	0x3ab46b4d	0.0013764888
19	0x3b0a6fc8	0.0021123756
20	0x3aed415f	0.0018101147
21	0x3aa42aee	0.0012525001
22	0x3aa936ff	0.0012910067
23	0x3b1b2d85	0.0023678255
24	0x3b1325aa	0.002245287
25	0x3a5e65d5	0.0008483802
26	0x3a48eb7f	0.0007664486
27	0x3a2ff9a5	0.000671292
28	0x3a0864ad	0.000520299
29	0x3a010def	0.0004923036
30	0x3a4b612e	0.00077583164
31	0x3a3f0f6d	0.00072883704
32	0x3a18df4b	0.0005831613
33	0x39aa1b2b	0.00032445168
34	0x3a06b19e	0.00051381614
35	0x3a41e370	0.00073962566
36	0x3a259be8	0.00063174823
37	0x39eee8df	0.000455684
38	0x39c97d4f	0.0003843107
39	0x3a0428fd	0.0005041508
40	0x3a35636e	0.0006919418
41	0x3a1c686c	0.0005966488
42	0x3a0bb2af	0.0005329055
43	0x3a0a1667	0.00052676204
44	0x39f4fedc	0.00046729192
45	0x3a43ddde	0.00074717205
46	0x3a2834b4	0.0006416545
47	0x3a0d8f58	0.0005400083
48	0x3a057a7f	0.00050918007
49	0x39f3b21a	0.00046481268
50	0x3a3cf6fe	0.00072084356
51	0x3a2fb3af	0.0006702495
52	0x3a3ac33b	0.00071244285
53	0x3a502d2b	0.0007941301
54	0x3a521b8c	0.0008014969
55	0x3a1e30c7	0.000603449
56	0x3a17cb33	0.0005790472
57	0x3a2707dc	0.00063717156
58	0x3a43f2a2	0.0007474815
59	0x3a5f34c7	0.00085146393
60	0x3a2d3187	0.00066068064
61	0x3a1f8c3f	0.0006086267
62	0x3a248c0b	0.00062769715
63	0x3a5caa3d	0.00084177015
64	0x3a718d5c	0.00092144846
65	0x3a4c4a3e	0.00077930454
66	0x3a40f510	0.0007360736
67	0x3a4f8a23	0.00079170073
68	0x3a68ccbe	0.00088806066
69	0x3a6d80cc	0.0009060025
70	0x3a7c1b25	0.0009617082
71	0x3a6f5fd6	0.0009131407
72	0x3a622d87	0.0008628
73	0x3a5e08eb	0.0008469957
74	0x3a68b873	0.0008877583
75	0x3ad9ce68	0.00166173
76	0x3adfd9a9	0.0017078418
77	0x3af64ab3	0.0018790573
78	0x3b02017c	0.001983731
79	0x3b06f482	0.0020592515
80	0x3acedeea	0.0015782986
81	0x3acec96a	0.0015776579
82	0x3ad42574	0.0016185478
83	0x3aced8d9	0.0015781178
84	0x3ad44c9b	0.0016197147
85	0x3abf45d0	0.0014592949
86	0x3abc4dcf	0.001436645
87	0x3aac66bf	0.0013153179
88	0x3aa73741	0.0012757556
89	0x3ab98110	0.0014152844
90	0x3aad6086	0.0013227619
91	0x3aadba2b	0.0013254335
92	0x3aa3a008	0.0012483606
93	0x3aa4e38d	0.0012580022
94	0x3aab4a6e	0.0013068446
95	0x3aab107e	0.001305118
96	0x3a9daacb	0.001202905
97	0x3aa72e78	0.0012754938
98	0x3aa401f7	0.0012512793
99	0x3aa9ab38	0.0012944704
100	0x3b08854d	0.0020831407
101	0x3ae1a9de	0.0017216762
102	0x3a9d58b5	0.0012004586
103	0x3a7c9e3a	0.00096366147
104	0x3a8c64d5	0.0010711203
105	0x3afd4923	0.0019324165
106	0x3ab3cb72	0.0013717248
107	0x3a455519	0.0007527634
108	0x3a83b539	0.0010048515
109	0x3a8cffb9	0.0010757364
110	0x3adf1878	0.0017020842
111	0x3a7ec1dd	0.0009718219
112	0x3a50bee8	0.00079630176
113	0x3ab04a8c	0.0013449951
114	0x3a844c11	0.001009347
115	0x3ab746cb	0.001398289
116	0x3a5a1ff8	0.0008320804
117	0x3a8efe32	0.0010909496
118	0x3ab2074f	0.00135825
119	0x3a62c482	0.0008650498
120	0x3a968593	0.00114839
121	0x3a76b1df	0.000941066
122	0x3a969697	0.0011488971
123	0x3a84b5a7	0.0010124937
124	0x3a5b61fa	0.00083687867
125	0x3a3614b7	0.0006945836
126	0x3a2c0091	0.00065613637
127	0x3a1bb16c	0.00059392187
128	0x3a250ff4	0.00062966277
129	0x3a260e7e	0.0006334557
130	0x3a3abf8d	0.000712388
131	0x3a1792c4	0.00057820627
132	0x3a05c4ee	0.0005102892
133	0x3a10b60e	0.00055202923
134	0x3a17286f	0.0005766218
135	0x3a30dbd9	0.0006746627
136	0x3a172aa9	0.000576655
137	0x3a0feedb	0.00054906093
138	0x3a1903b4	0.00058370386
139	0x3a2530a2	0.00063014973
140	0x3a36d9f9	0.00069752295
141	0x3a33e0f8	0.0006861831
142	0x3a2df88c	0.00066364626
143	0x3a320e93	0.0006792333
144	0x3a3bbcd8	0.0007161624
145	0x3a46f23b	0.0007589196
146	0x3a512429	0.00079781056
147	0x3a48f792	0.00076662854
148	0x3a359fd8	0.00069284206
149	0x3a3948d0	0.000706804
150	0x3abcfb5b	0.0014418171
151	0x3a940463	0.0011292811
152	0x3a74a470	0.00093323644
153	0x3a5f50f4	0.0008518838
154	0x3a5647de	0.0008174161
155	0x3a9ee2ed	0.0012122073
156	0x3a72d4f1	0.0009263298
157	0x3a540c79	0.0008089017
158	0x3a4b7840	0.0007761754
159	0x3a4d5dad	0.0007834088
160	0x3a8340aa	0.0010013778
161	0x3a62a961	0.0008646455
162	0x3a748d07	0.0009328876
163	0x3a75b5bb	0.0009373088
164	0x3a789234	0.0009482235
165	0x3a6129ed	0.0008589316
166	0x3a705975	0.00091686036
167	0x3a9547ef	0.0011389236
168	0x3a858203	0.0010185841
169	0x3a7fec3c	0.00097626797
170	0x3a5ec13f	0.0008497424
171	0x3a8db229	0.0010810542
172	0x3a7efe09	0.0009727185
173	0x3a4f88b7	0.00079167954
174	0x3a5e8045	0.00084877416
175	0x3a1bbbf2	0.0005940787
176	0x3a173f61	0.0005769637
177	0x3a2130d5	0.0006148939
178	0x3a2b4571	0.000653348
179	0x3a34f01b	0.00069022336
180	0x3a169750	0.0005744593
181	0x3a118548	0.00055511715
182	0x3a1985ea	0.00058564416
183	0x3a242e65	0.0006263017
184	0x3a281562	0.00064118777
185	0x3a1a4e58	0.0005886308
186	0x3a18cf7e	0.00058292586
187	0x3a0f5939	0.00054683123
188	0x3a0ffcb1	0.0005492671
189	0x3a1fca2a	0.00060954934
190	0x3a1d465c	0.0005999559
191	0x3a1ce0e7	0.0005984441
192	0x3a1a8f2b	0.00058959675
193	0x3a1a7cd9	0.00058932375
194	0x3a2ac5c0	0.00065144524
195	0x3a132492	0.00056130544
196	0x3a1484de	0.00056655507
197	0x3a0d49bd	0.0005389711
198	0x3a0a9767	0.0005286843
199	0x3a151207	0.0005686585
200	0x3b242d00	0.0025051236
201	0x3b04c19e	0.0020257006
202	0x3acd1793	0.0015647284
203	0x3ac3bc17	0.0014933374
204	0x3aa03c8b	0.0012225074
205	0x3b0d47d8	0.0021557715
206	0x3ab755a8	0.001398732
207	0x3a9efaea	0.0012129222
208	0x3a971e76	0.0011529464
209	0x3a90f812	0.0011060259
210	0x3abf53e1	0.0014597141
211	0x3a915ee0	0.0011090897
212	0x3a9151c4	0.001108699
213	0x3a9935bb	0.0011688987
214	0x3ac4e484	0.0015021716
215	0x3aae09bb	0.0013278046
216	0x3a983e08	0.0011615166
217	0x3a79faf9	0.0009535994
218	0x3a86bf1b	0.0010280343
219	0x3abf0fd7	0.0014576864
220	0x3ab549de	0.0013831218
221	0x3a84ddf1	0.0010136944
222	0x3a881945	0.0010383507
223	0x3a92054d	0.0011140496
224	0x3ab14a4d	0.0013526172
225	0x3a453f7f	0.0007524415
226	0x3a59ab3e	0.000830341
227	0x3a718f40	0.00092147663
228	0x3a4b731d	0.00077609887
229	0x3a388dc7	0.00070401694
230	0x3a35e095	0.00069380674
231	0x3a46fce0	0.0007590782
232	0x3a492cb1	0.0007674201
233	0x3a32325f	0.0006797667
234	0x3a319bd7	0.0006775236
235	0x3a1c8540	0.00059707835
236	0x3a247108	0.00062729465
237	0x3a2c963a	0.0006583665
238	0x3a2feaf1	0.0006710729
239	0x3a4fda93	0.00079289934
240	0x3a2445e1	0.0006266516
241	0x3a2ea5b2	0.0006662264
242	0x3a4e36d5	0.0007866447
243	0x3a53714c	0.0008065894
244	0x3a571bf8	0.0008205767
245	0x3a38febb	0.0007057001
246	0x3a3ab9be	0.00071230147
247	0x3a4bacd8	0.0007769591
248	0x3a488cf3	0.00076503976
249	0x3a48aedd	0.0007655451

exp_avg f4 [10]
0	0x3b1e5369	0.0024158603
1	0x3b46c600	0.003033042
2	0x3adfa834	0.0017063678
3	0x3c05bce5	0.008162712
4	0x3bd38892	0.0064554894
5	0xbbf47c2b	-0.007461091
6	0xbbf35761	-0.007426188
7	0x3c4df7c5	0.01257128
8	0x3ab2eae0	0.001365032
9	0xbb445073	-0.0029955178

exp_avg_sq f4 [10]
0	0x3b5e555c	0.003392539
1	0x3a67afcc	0.00088381465
2	0x3a88d6d5	0.0010440001
3	0x3ac48207	0.0014992364
4	0x3b32706e	0.0027227658
5	0x3a46405b	0.00075626903
6	0x3ac352b6	0.0014901969
7	0x3a36dce7	0.0006975666
8	0x3b5147c1	0.0031933638
9	0x3a306b4f	0.00067298574
