2020-S/exercise/01_MNIST_classifier/checkpoint/model_epoch5.pth (torch, 269279 bytes, 24 tensors)

conv1.weight f4 [10, 1, 5, 5]
000000 3a d2 94 3d 9b 70 1b 3e 23 53 28 bd fd 25 59 bd
       0.0726666 0.15179674 -0.04109491 -0.053014744
000010 66 e1 e2 bb d6 fd e5 3c d1 c7 4d be 6e 10 42 be
       -0.0069238422 0.02807514 -0.20095755 -0.1895158
000020 59 87 db be bd 5c 85 be 77 c3 0f 3e 37 c1 21 3e
       -0.428767 -0.26047316 0.14039408 0.15796362
000030 24 9a 50 be 0d 0c f4 be 55 ab 9f be e1 fd 47 3e
       -0.203713 -0.47665444 -0.31185403 0.19530441
000040 29 2a ee 3d db 14 00 3f 1f 7e a6 3e f1 f2 6a 3e
       0.11629135 0.5003182 0.32518098 0.22944237
000050 27 65 9b 3d 01 e9 77 bd b9 7b 44 3e 6f 38 05 3f
       0.07587653 -0.060524944 0.19187821 0.52039236
000060 fb 03 da 3e 50 8c 3e 3e 11 64 64 bd e4 7a 6b be
       0.42581162 0.18608212 -0.055759493 -0.22996098
000070 af dd 1a 3e 48 e4 7f 3e 69 4b 00 be d7 9d aa bd
       0.15123628 0.24989426 -0.12528767 -0.08330887
000080 01 1c 82 be 85 56 1c be 2e 82 e5 3e 09 e6 8c be
       -0.2541199 -0.1526738 0.44825882 -0.27519253
000090 b0 10 e9 bc 17 9d 3f be 11 1e cf 3d b2 bf e7 3e
       -0.02845034 -0.18712269 0.101131566 0.4526344
0000a0 9d a3 85 bd c3 fb 46 3d 39 cf 1f 3e fb a0 8c 3e
       -0.065253474 0.048579942 0.15606393 0.27466568
0000b0 36 7f 0b 3e d0 04 67 3e 6a e8 56 3d 6c cc f8 bc
       0.13622746 0.2256043 0.05246774 -0.030370913
0000c0 c2 a9 9b 3d 51 7c a9 bd 99 66 1f 3d 55 15 a3 3e
       0.07600738 -0.082756646 0.038916204 0.31852213
0000d0 56 6e 4d 3d 78 93 41 3e 4f 24 cf 3a c1 47 ee 3d
       0.050154053 0.18903911 0.0015803667 0.1163478
0000e0 00 3e df 3d e7 c3 4a 3e ad d1 64 3d cd 31 74 be
       0.109004974 0.19801293 0.055864025 -0.23847122
0000f0 35 14 e7 3e d1 5a b1 3e c0 8a 5d 3e 55 82 9a be
       0.45132604 0.346396 0.2163496 -0.3017756
000100 cd 0c d5 be d0 b5 c6 3e 95 c2 aa bd 87 97 5a bd
       -0.4161133 0.38810587 -0.08337895 -0.053367164
000110 9d 38 cf be 54 6b 8f bd b8 37 2b 3e 20 20 73 be
       -0.4047288 -0.07002893 0.16720474 -0.23742723
000120 01 f0 2d be c2 19 84 be be 5b f1 bd 12 47 82 3e
       -0.16986085 -0.25800902 -0.117850766 0.25444847
000130 cb ee 54 3e 3d ac 33 3e e8 67 14 3e 93 4e 9b 3e
       0.20794217 0.17546172 0.14492762 0.30333385
000140 9f ca 74 be db 41 d6 bb 9b 58 41 3e 50 b7 29 3d
       -0.23905419 -0.0065386123 0.18881457 0.041434586
000150 5d b3 64 bd 2c 13 5b bd 59 f7 5f be 98 3e 8f be
       -0.055835117 -0.05348508 -0.218717 -0.27977443
000160 82 f8 59 bd 78 9e 13 bd 4c f0 35 be 89 8c b6 bd
       -0.05321551 -0.0360398 -0.17767447 -0.08913524
000170 8f 5d 5e bd 40 f2 67 be 69 c9 4e be 67 72 38 3e
       -0.054288443 -0.22651005 -0.2019402 0.18012391
000180 34 c1 ec bd 7d 8f 41 be 8e 2b 21 bd 6f 05 98 3b
       -0.11560288 -0.18902393 -0.039348178 0.0046393196
000190 40 c1 9c be fc 8c 11 be 7d f1 15 be bf b9 9f 3e
       -0.30616188 -0.14213938 -0.14642902 0.311964
0001a0 a1 34 40 3e 0a 14 a0 be 84 45 b6 bc 65 ad 18 3d
       0.18770076 -0.3126529 -0.022249945 0.037274737
0001b0 c9 ce 5c 3e 63 92 9e 3e 2c eb a1 be bc 25 0a bd
       0.21563257 0.3097106 -0.31624734 -0.033727393
0001c0 a4 8f 0a 3e 19 6b de 3e 4e 3e 79 3d c3 c2 90 be
       0.13531357 0.43441084 0.060850434 -0.2827359
0001d0 d5 d7 96 3d dd 2b 09 3e 86 ac 96 3e de 80 a2 bb
       0.073653854 0.13395639 0.294285 -0.00495921
0001e0 d9 96 33 be aa 11 33 bd 58 75 a5 3e 80 c0 3f 3e
       -0.17538013 -0.043718018 0.3231609 0.18725777
0001f0 dd df 29 3c 90 72 17 bc 56 c0 e2 3e 42 77 d3 3e
       0.010368315 -0.009243622 0.44287366 0.41301924
000200 1d 13 61 3e 35 ad a7 be f2 7b 28 be c1 61 f9 3d
       0.21979947 -0.32749334 -0.16453531 0.12176848
000210 98 a3 dd 3e ce d2 6d 3e 9d 23 c6 bd 77 4c 00 bf
       0.43288875 0.23224947 -0.096747614 -0.50116676
000220 e0 4a 58 be 32 9a c2 3e d8 39 cf 3e d9 bf 5e bd
       -0.21122313 0.38008267 0.4047382 -0.05438218
000230 88 d3 00 bf 01 02 63 be f4 03 17 be d0 f3 b4 3e
       -0.5032277 -0.22168733 -0.14747602 0.35342264
000240 39 04 80 3d 95 cd 63 bd 11 51 a4 be d9 e5 d2 3b
       0.062508054 -0.05561598 -0.320931 0.0064360914
000250 0a ed d1 bc 89 55 87 3d 70 ec a5 3b 5c 93 98 be
       -0.025625724 0.066081114 0.005063586 -0.29799926
000260 ae 7f 20 be 54 5e b7 3d 67 29 6d be b8 41 a7 3e
       -0.15673706 0.089535385 -0.23160325 0.32667327
000270 60 40 76 3d 9f 5c 72 be fb c5 42 be 62 24 95 be
       0.060119987 -0.23668145 -0.19020836 -0.2912932
000280 2e 49 a0 3d c9 d9 d9 bc b7 34 03 3e 2d 5d 36 3e
       0.07826458 -0.026593106 0.12813078 0.17808981
000290 d8 bf 19 3e 87 5f 1c be 27 6a 0a 3e 88 43 1f 3e
       0.15014589 -0.15270816 0.13517056 0.15553105
0002a0 a2 6f 2c 3e a6 f3 b0 3e d6 37 51 3e 65 ba 0d 3e
       0.1683946 0.3456089 0.20431456 0.13840635
0002b0 2e f6 9a 3d 80 64 ae be 20 10 f8 bd 04 58 fa bd
       0.07566486 -0.3406105 -0.121124506 -0.12223819
0002c0 f2 9c f2 bd 59 9a a9 be 59 0f 54 be ab 91 a1 be
       -0.11846341 -0.3312557 -0.2070898 -0.31556448
0002d0 22 14 f3 ba 4c 27 90 be 08 98 a3 3c 3d 48 68 be
       -0.0018545429 -0.2815498 0.019969955 -0.22683807
0002e0 26 a1 b5 3d 64 b9 bc bd 26 7a 63 be f9 f5 05 be
       0.08868627 -0.09215048 -0.22214565 -0.13082112
0002f0 16 82 b2 bd b1 c9 b4 3e c9 4f 87 bc 59 09 f2 3d
       -0.08716218 0.35310128 -0.016517537 0.11818189
000300 2d d7 1e 3e 01 15 39 3e 5a 99 98 3e 77 7f c5 3c
       0.1551177 0.18074419 0.29804498 0.024108632
000310 da ae 66 3d fd 3b 91 3c bd b7 57 3e e3 2f da 3e
       0.056319095 0.0177288 0.21066184 0.4261466
000320 f3 3d da bd e0 30 08 be 5b 43 f4 3d 8b 29 3e 3e
       -0.10656347 -0.13299894 0.119269095 0.18570535
000330 cb 19 a2 be 19 9d 30 be 49 c9 fe 3c 0f 3b 44 bd
       -0.31660303 -0.17247428 0.03110184 -0.047907885
000340 b4 a3 28 3e a5 56 33 be b6 a7 b4 bd de ee 32 3e
       0.16468698 -0.17513521 -0.08821051 0.17473933
000350 30 46 26 3d 33 15 e0 3d d1 f5 d3 3e e5 c9 94 3e
       0.04059428 0.109415434 0.4139848 0.29060283
000360 85 d9 a7 3e 85 d5 ed 3d 97 c0 35 3e 30 0f c7 3e
       0.32783142 0.11612991 0.17749248 0.38878775
000370 b1 63 47 be 1a 58 ab bd e7 07 e3 be 24 48 a7 be
       -0.19471623 -0.083664134 -0.44341967 -0.32672226
000380 03 f8 4f be 73 c0 89 3d 19 5b 5f 3b ef 1e 16 3e
       -0.20309453 0.0672616 0.0034081398 0.14660238
000390 55 ec 45 be 63 7f be 3c 59 3f 04 bd 28 03 03 3e
       -0.19328435 0.023254102 -0.032286976 0.12794173
0003a0 c9 e3 4f 3e 32 fd ce be c0 1d e3 be 8a 72 07 3e
       0.20301737 -0.40427548 -0.44358635 0.13227287
0003b0 91 08 dd 3e 14 ec b9 3d 62 02 60 be 2e 53 bd bd
       0.43170598 0.090782315 -0.21875909 -0.09244381
0003c0 41 a3 0c be e2 32 48 3e 7b dd de 3e 8d d9 3e 3e
       -0.13734151 0.1955066 0.4352835 0.18637677
0003d0 f5 26 33 be 9b 56 88 be 81 95 e4 3d 8d 2e 9c bd
       -0.1749533 -0.26628575 0.11161328 -0.07626066
0003e0 b3 9e d9 3d 60 4f 28 be
       0.106259726 -0.16436529

conv1.bias f4 [10]
000000 00 5a 89 3d 95 0a e3 3d 89 ac 38 bd 4c 90 4f bd
       0.06706619 0.11086003 -0.045086417 -0.05067472
000010 97 bd c8 bb ca 10 7c bd d0 01 f5 3d 65 7c 98 be
       -0.0061261165 -0.06153945 0.11963236 -0.29782405
000020 f2 37 0e 3e 27 db 2d bc
       0.13888529 -0.010611332

conv2.weight f4 [20, 10, 5, 5]
000000 c6 23 35 3c 18 53 b1 3d 43 36 54 3d 79 97 9e bd
       0.011055892 0.08658427 0.05180956 -0.07743735
000010 4e 76 88 be 21 a1 17 3c cb ab 62 3d 14 f8 3c 3d
       -0.2665276 0.009254725 0.055339616 0.046135023
000020 09 d0 1e be cd a9 0c be 34 4a d6 3d 53 f4 53 3c
       -0.15509047 -0.13736649 0.10463372 0.012936669
000030 02 98 ad bd c7 15 96 bd 93 61 15 be 5e cd e2 3c
       -0.08476259 -0.073283724 -0.14588003 0.027685817
000040 c2 e6 aa 3d 4e 31 33 be 9f 62 d8 bd 8e 68 ca bd
       0.08344795 -0.17499277 -0.105656855 -0.098832235
000050 7a e7 04 3e f7 d2 90 3c 9d ee 2a be d2 90 6d bd
       0.12978926 0.01767872 -0.16692586 -0.05799944
000060 20 8b 56 3b 1f f7 8f bd c4 a4 5f bd d4 76 60 bd
       0.0032736734 -0.070295565 -0.054600492 -0.054800823
000070 c2 3d 3c bc db 9a 2e 3d 79 82 51 3d 91 1e f1 3c
       -0.011489334 0.04262815 0.05114982 0.02943352
000080 f1 b2 f1 3b 34 d1 4d 3d 37 df 42 3c 5e 1d c0 3d
       0.007376068 0.05024834 0.011894039 0.09380601
000090 6c e5 fd bc b1 ef b2 3d 7d b9 cb bc f3 16 27 bd
       -0.030993186 0.08737124 -0.024868721 -0.04079337
0000a0 ec 1b 36 bb 97 8c 11 3e 93 40 33 3e 14 af 7f 3d
       -0.0027787639 0.14213787 0.17505102 0.062422827
0000b0 df e3 23 bd 52 ee 00 3e 02 4f 91 3d 9e 1c e8 3d
       -0.040012237 0.12590912 0.07095148 0.11333583
0000c0 6b 50 4c 3e 6b 48 bc bd f0 34 fc bd 76 78 dd bd
       0.19952552 -0.091935 -0.123147845 -0.10813992
0000d0 de 1a 1c bc b8 37 ee 3b 28 ed af 3c 15 5f 93 3c
       -0.00952789 0.007269826 0.02147539 0.017989675
0000e0 33 46 ac ba fa ea 06 3d 15 28 03 3c 94 71 71 bc
       -0.001314348 0.032938935 0.008005162 -0.014736552
0000f0 3c be 6b 3d ab e8 87 bd 41 65 11 be a3 2e e0 bd
       0.05755447 -0.06636175 -0.14198782 -0.10946395
000100 cb be ca 3c 21 95 29 bb 2e 86 39 be 7f 19 82 bd
       0.02474918 -0.0025876241 -0.18117592 -0.06352519
000110 57 18 b4 3c 4c 78 bf 3d 04 63 a1 bd c2 8f 72 3b
       0.021984262 0.09349117 -0.07880214 0.0037011956
000120 cf a1 8d 3e 1e d4 c4 3d 7a 7c 9c 3d 40 a5 b0 bc
       0.27662513 0.09610771 0.076409295 -0.021563172
000130 31 a6 cb bd 5a 3b d3 bb 9c 51 01 3e 68 ff 0a 3e
       -0.09943808 -0.0064462842 0.12628788 0.13573992
000140 44 e6 75 bc a8 c9 2c 3c 06 39 ed bc 86 5f 09 3d
       -0.015008513 0.0105461255 -0.028957855 0.033538364
000150 5b c4 a8 3d 28 a6 6f 3d f8 d9 b9 bd 3b 9a fc bd
       0.08240577 0.05850807 -0.09074777 -0.123341046
000160 43 a6 c7 bd 03 f3 12 bd 9c 19 0e be b2 62 8a bd
       -0.09748509 -0.035876285 -0.13876957 -0.06757106
000170 39 b7 33 be 05 d8 57 be 1c 38 40 bd d5 f3 38 bd
       -0.17550363 -0.21078499 -0.04692851 -0.04515441
000180 e7 d4 a8 bd de 2c 24 be b3 68 a7 bd 71 0b dc bd
       -0.08243733 -0.1603274 -0.08174267 -0.1074437
000190 af 0f 6e bd 90 6c 39 bd fe 9e d5 bc 44 b4 03 bd
       -0.058120426 -0.04526955 -0.02607679 -0.032154337
0001a0 d9 e9 15 3d 6a 76 3e bd 06 1d 98 bd 6c 47 c6 bd
       0.036599968 -0.046499647 -0.07427411 -0.096815914
0001b0 1f 0d 82 3d d5 19 84 3d 9e a3 ad 3d 35 7a 36 bd
       0.06350159 0.064502396 0.08478473 -0.04455014
0001c0 67 e2 42 bd 08 ae c3 3c c1 01 05 3e 3b 18 c0 3d
       -0.047579195 0.023886696 0.1298895 0.093796216
0001d0 d6 c7 9b 3d c4 b1 6a 3d cf f3 75 3d e3 9d a4 3d
       0.07606475 0.057298437 0.060046967 0.08037927
0001e0 16 ba 98 bd 19 5e f5 3d c0 4b 8f 3d be c2 67 3e
       -0.07457368 0.11980838 0.0699687 0.22632882
0001f0 74 9e 70 3d 50 b2 07 be e0 f6 be bd c0 ed 85 be
       0.058744863 -0.13251615 -0.093244314 -0.2615795
000200 48 f0 97 be 99 d4 9a be 2e 02 0d 3d 70 8c 9a bd
       -0.29675508 -0.30240324 0.034425907 -0.075463176
000210 5d 97 c0 3c e5 1f f2 3d d2 e7 8d bd a8 21 3d bd
       0.023509676 0.1182249 -0.06928982 -0.046174675
000220 ba 15 c0 bc 05 71 1c 3e c8 c9 c8 3d 6a 23 2d 3e
       -0.02344786 0.15277489 0.09804112 0.1690804
000230 a9 3c 80 bd 46 f9 18 bd ee 42 b3 3d 2e cf 1f 3d
       -0.0626157 -0.0373471 0.08753 0.03901594
000240 b0 65 7b bd 65 8b 42 3e 40 c4 20 3d 29 59 48 bd
       -0.061376274 0.18998487 0.03924966 -0.048913155
000250 d5 56 4f 3c a1 72 16 be 81 9a bf bc 9c 03 62 3d
       0.01265498 -0.14692165 -0.023389103 0.055179223
000260 b1 1a 64 3c 90 90 82 bd 51 7f 1b be 17 9d 1b 3d
       0.013922379 -0.06375229 -0.15185286 0.03799161
000270 9e ed d5 3d 6c 5b ff 3a cb 5d a6 3d bf 39 ab bd
       0.104457125 0.0019482202 0.08123358 -0.083606236
000280 e8 76 28 3e 10 89 9e 3c d0 27 8f bd d0 f2 4d 3c
       0.16451609 0.019352466 -0.069900155 0.012570098
000290 de 51 c5 bc 33 ec 22 3d 6c 8a d3 bd 5d d4 27 3d
       -0.024086889 0.03977604 -0.10329136 0.04097401
0002a0 cf a6 58 3d 51 56 e4 3d 19 66 8b 3d 73 b1 09 3d
       0.052893456 0.11149276 0.06806583 0.033616494
0002b0 17 54 39 bd 68 c6 64 bd c7 4d fc 3d bf fe 6a bc
       -0.04524621 -0.055853277 0.12319522 -0.014342963
0002c0 c7 11 c1 3d e3 80 4e 3d b7 b7 55 3d 95 0d 00 3e
       0.09427219 0.050415885 0.052177157 0.12505181
0002d0 c6 3f b2 3c 06 83 88 bd 38 09 95 3b 05 d0 8c 3d
       0.021758925 -0.06665616 0.004548218 0.06875614
0002e0 d1 84 e3 bd 30 2b bf 3d 10 bd da bd 60 6a db 3c
       -0.11109317 0.09334409 -0.10680592 0.026784122
0002f0 c2 6f 3d bd 5b 2f 4b be 20 e0 ec bd 35 7a b9 bd
       -0.04624916 -0.19842283 -0.11566186 -0.09056512
000300 64 49 a6 bc 4f 63 33 be 39 39 9e be 17 99 26 bd
       -0.020298667 -0.17518352 -0.30903032 -0.04067334
000310 7f 94 84 3d a7 90 04 3e 9c d2 20 bc df 44 47 be
       0.06473636 0.12945805 -0.009815838 -0.19459866
000320 0c 95 58 bd af 91 87 bd 2b f8 e6 bc 9f 6d 8d bd
       -0.052876517 -0.06619584 -0.028194508 -0.06905674
000330 7f 13 3b be a5 c1 ff bc 71 01 37 3d c9 64 9f 3c
       -0.18269156 -0.031220267 0.04467911 0.019457238
000340 00 ff 41 bd ed 86 4e be 20 3d 10 3d ff 0e b2 3d
       -0.047362328 -0.20168658 0.035214543 0.086942665
000350 de df 4c bd 27 11 cc bd 6e 4b 1c be 6a 15 03 3e
       -0.050018184 -0.09964209 -0.15263149 0.12801138
000360 11 2e 83 bd 52 d4 80 3c 9a 17 91 bc d7 26 28 bd
       -0.06405271 0.015726242 -0.01771145 -0.041052666
000370 0c 8e fb 3d 8b dd 32 bc f7 ab 1b 3e 48 40 81 3c
       0.12282953 -0.010917078 0.15202318 0.015777722
000380 56 93 63 bd 09 5e f3 bc 8e 28 10 3d 1d be 8c bd
       -0.055560432 -0.029707925 0.035194926 -0.06872199
000390 81 db af 3c 76 40 3a be 6e df 46 3d 1d a8 2f 3d
       0.021466972 -0.18188652 0.048552923 0.042884935
0003a0 ca 86 0e 3e 74 d7 3c 3e 7c 79 c0 bc 16 35 46 bc
       0.13918605 0.18441564 -0.023495428 -0.012097618
0003b0 6e c2 1b 3a cb 50 f8 3d 92 be 1c 3e dc 14 3b 3c
       0.0005941753 0.12124785 0.15307072 0.0114185475
0003c0 0b fe 3a 3e ba 26 05 bd 27 b0 57 3b 86 97 e0 3d
       0.18260972 -0.032507636 0.0032911391 0.10966401
0003d0 ce 7a 64 3d 20 f6 0a 3d 1c 96 89 bd 17 9f 38 3d
       0.05578118 0.03392613 -0.06718084 0.045073595
0003e0 06 21 c7 3b 67 96 89 3d 3b 9f 8a 3d 29 85 9d bd
       0.0060769347 0.0671814 0.06768652 -0.07691414
0003f0 de 12 39 bd 3a b1 a2 3c 52 28 30 3d cf 1e 78 3e
       -0.04518401 0.019859899 0.043007202 0.24230503

conv2.bias f4 [20]
000000 af 63 c7 3d 63 9f c2 bc 43 dd e9 bc 3a 81 a5 bd
       0.0973581 -0.023757642 -0.028547889 -0.08081289
000010 13 b9 a4 bd bc 64 f2 bd 45 50 07 3e c2 ad 77 bd
       -0.080431126 -0.1183562 0.13214214 -0.060468443
000020 c1 e3 2a 3d 4b e1 35 bd 82 f2 11 bd fb 95 28 3d
       0.04172111 -0.04440431 -0.035631664 0.041158658
000030 a6 62 27 3d ba 8d 4f 3d 3f f4 f8 bc 27 54 93 bc
       0.040865563 0.05067227 -0.030389903 -0.017984463
000040 7d 2c f1 39 5d 40 8c 3c 53 c7 22 3d 05 7a 0e bd
       0.00046000248 0.017120535 0.03974087 -0.034784336

fc1.weight f4 [50, 320]
000000 22 7a 5e 3d 61 2c e4 3c 1f db 3f bc 5b 87 81 bd
       0.054315694 0.027853193 -0.011709957 -0.06324645
000010 9d 7d 50 3d 43 3a e7 bc 72 37 a1 3c 1c b8 a6 3d
       0.050901044 -0.028226024 0.019679759 0.08140585
000020 71 4b da 3d 62 c6 d0 3d 6b 8e 49 bd ab 33 13 bc
       0.106589206 0.101940885 -0.049208086 -0.008984487
000030 53 f9 0b 3e 9a 17 bb bb 3a 13 0b be 7a 9b 6e be
       0.13669328 -0.0057096006 -0.13581553 -0.23301497
000040 2e d5 23 3d 21 db ac 3d 17 cd 68 ba 5d f6 91 3d
       0.039998226 0.08440233 -0.00088806584 0.07127068
000050 94 1a bb 3d 34 5d a1 3d d9 da dc 3c 0f 8f 4a 3c
       0.09135929 0.07879105 0.026959823 0.012363209
000060 81 5f 24 be 7f d6 93 bd 9d 84 46 3d 28 53 c2 bd
       -0.16052057 -0.07218646 0.048466314 -0.09488517
000070 40 62 7b bd d7 f8 24 bd bf ca b4 bd b2 86 27 be
       -0.061372995 -0.040276375 -0.08827733 -0.16359976
000080 49 e2 3c bc dd 73 1e 3d 49 81 08 3e 2e d5 7d bd
       -0.01152856 0.038684715 0.13330568 -0.061970882
000090 bc e0 be bd df 98 ba bd 07 3a 4a 3d 89 3a ed 3c
       -0.093202084 -0.09111189 0.049371745 0.028958576
0000a0 ab d5 c6 bd 46 65 94 bd f8 97 21 bd 8a b7 98 3d
       -0.09708723 -0.07245879 -0.03945157 0.07456882
0000b0 b1 6a 21 bd 7b 31 93 bc c6 36 f9 3d cd da 5a 3e
       -0.03940839 -0.01796793 0.1216865 0.21372528
0000c0 9b 9e ae 3d 69 5f 71 3d e8 4d 20 3a 2e f2 2a be
       0.08526345 0.05892888 0.00061151246 -0.16693947
0000d0 be 4f 8f 3d e9 0c 42 3d a2 7a b0 bc 84 09 a3 be
       0.069976315 0.047375593 -0.02154285 -0.31843197
0000e0 f4 db 14 3d 2c be 17 be 86 d7 b6 bd fa 4c a4 3d
       0.036342576 -0.14818639 -0.089278266 0.080224946
0000f0 34 f7 97 bd fb da 77 3d ba ab fa 3c 43 a6 1c 3e
       -0.07420197 0.06051157 0.030599464 0.15297799
000100 2b e3 24 3e 86 dc 9b 3c b0 2f 61 3d 1e a4 15 3d
       0.16102283 0.019026052 0.05497712 0.036533467
000110 07 1e f4 3d 88 74 aa 3d 05 32 81 bc e5 11 a5 3d
       0.1191979 0.08323008 -0.015770921 0.08060054
000120 f9 b9 79 bd 8b 18 e1 bd 25 14 c1 bc ba 7c 03 be
       -0.060968373 -0.10991009 -0.023569176 -0.12840548
000130 18 a7 55 be 5f 14 58 bd c5 ed 19 bc 64 d7 b5 bc
       -0.20864522 -0.052753802 -0.009395068 -0.022197433
000140 84 78 98 bc a6 37 2d bd 8f 1c 87 3d 35 a4 21 3d
       -0.018612154 -0.0422894 0.06597244 0.03946324
000150 29 14 e2 bc 8a 48 42 bc 0a 14 82 3d 00 e9 b9 3d
       -0.027597504 -0.011858115 0.063514784 0.09077644
000160 f2 90 ae 3c 13 b2 1d 3d bf fc 1b 3e 12 4f 93 3d
       0.02130935 0.038499903 0.15233134 0.07192816
000170 03 46 6b bd 12 3a 48 bd 5f 09 2e 3d be 8c 0a bd
       -0.057439815 -0.048883505 0.042489406 -0.03382563
000180 19 51 ce 3c 9b b7 d2 3d 02 4f 28 3c aa ad d8 bb
       0.025185155 0.10288926 0.010272743 -0.0066124992
000190 c8 76 0f 3c a8 08 d6 3b 1f a6 f9 3c a7 f7 fb bc
       0.008756347 0.0065317936 0.03047472 -0.030757738
0001a0 3e 73 c5 3d c9 41 8c 3c 5e 27 9a 3c 7d 1e 72 3d
       0.09641121 0.017121213 0.0188176 0.059111107
0001b0 d2 29 3a 3d d6 e1 81 bd 0d 25 ae bd f1 e6 2d be
       0.04545004 -0.06341903 -0.085031606 -0.16982628
0001c0 71 6d 25 3d 27 a9 86 3c 18 46 01 bb c3 08 f5 3d
       0.040387575 0.01643808 -0.0019725617 0.11964562
0001d0 b0 ac 83 3d ce 87 78 3d d1 1e 7e 3d df 58 4b bd
       0.06429422 0.06067639 0.062041108 -0.0496453
0001e0 9b 94 d1 bd 09 d7 b0 bd f0 b3 02 be 93 cf 09 be
       -0.10233422 -0.08634765 -0.12763953 -0.1345809
0001f0 1c 8b 83 bd d8 ff fc bd c4 71 41 bc 37 43 a8 3d
       -0.064230174 -0.12353486 -0.011806909 0.08215945
000200 7e 57 f5 3d 0b 9b 29 3e b5 89 8a 3d 69 d5 dc bd
       0.119795784 0.1656305 0.06764547 -0.10782892
000210 fa d0 c0 3d 86 98 9c 3d 35 0f 4a bd 8b f5 3e bd
       0.09414859 0.07646279 -0.04933091 -0.046620887
000220 f5 38 2a 3c c9 1f 86 bd ba 01 5a 3d 6b d0 2a 3d
       0.010389556 -0.06549031 0.053224303 0.04170267
000230 18 de 62 3d 0b 53 8f 3d 4c 94 86 3d d8 d9 c4 bd
       0.055387586 0.06998261 0.06571254 -0.09611863
000240 04 c1 d7 bc d1 5a 19 3d 5f e1 ec 3c d7 cb 03 3d
       -0.026337154 0.037440125 0.028916059 0.03217682
000250 d8 3c a7 bc c3 d3 41 3b 70 30 e7 3c 81 85 b0 3d
       -0.020414755 0.0029575683 0.028221339 0.08619214
000260 79 9d 30 be bf 1b f6 3c 18 e3 ca bd f4 ea 0f 3d
       -0.17247571 0.030042527 -0.09906596 0.035136178
000270 81 20 87 bd 8a 77 86 3c e8 55 d3 bd c9 28 5d 3c
       -0.065979965 0.016414423 -0.1031912 0.0134984935
000280 fa 93 8a 3c ad dc 1e 3d a0 36 12 3d e5 2d d4 bc
       0.016916264 0.03878467 0.035696626 -0.02590079
000290 12 0a 50 3c e6 65 71 3c 5f 34 1b be d5 05 f2 bd
       0.012697713 0.014733767 -0.15156697 -0.118175186
0002a0 6d d0 6e 3d cd 04 07 3d 06 c2 90 bd fd a6 b1 3d
       0.05830424 0.032963563 -0.07068257 0.086744286
0002b0 8f 88 a2 bc 59 85 2f 3c 13 0e 00 3c b6 01 71 3d
       -0.019840507 0.010712945 0.007815856 0.058839522
0002c0 8d 1f 02 3d a6 b8 cf bc d4 80 64 3d 1a 05 9f bc
       0.03176837 -0.025356602 0.055786923 -0.019411612
0002d0 10 9b e6 bd 51 d7 3a be ad 72 85 bd d8 cb bd 3d
       -0.112600446 -0.18246199 -0.06516013 0.09267396
0002e0 ad 53 d8 bd 8f 9a b0 bd 6a 28 88 3d 46 41 ea 3d
       -0.10562835 -0.0862323 0.06648333 0.11438231
0002f0 d7 35 b8 ba e1 95 26 bc 99 35 ad 3d 51 3c fe 3d
       -0.0014054131 -0.01016757 0.084574886 0.12413848
000300 f4 12 dc 3c d4 7d 7c 3c 46 e2 83 3b 76 5d 31 bc
       0.026864506 0.015410859 0.0040247766 -0.0108255055
000310 2b e1 ba bc c2 85 e5 3c 02 46 af 3d cd 1c 16 3c
       -0.022812447 0.028017882 0.08558275 0.00916214
000320 a0 7c af 3d 5a 47 aa 3d 03 e0 12 bc 3f 40 07 be
       0.08568692 0.083143905 -0.008964541 -0.13208102
000330 f5 4b e1 3d 5a 89 82 3d e3 2f db bd 8c 59 15 be
       0.11000816 0.06373854 -0.10702493 -0.1458494
000340 ac 22 ae 3c 73 86 08 3d 06 1c 5d bd 1b 85 bd 3d
       0.021256767 0.033331346 -0.053981803 0.092539035
000350 f6 96 0e bd f8 50 21 3d e7 bc ba bd 7e b5 61 3d
       -0.034811936 0.03938386 -0.091180615 0.055104725
000360 6a 26 73 bb cd 82 82 3d 6a fd 08 3e 54 a0 74 3d
       -0.0037101754 0.063726045 0.1337792 0.059723213
000370 ba 72 bb bb a2 7e 53 3d dd 10 b3 3c 5a 76 e4 bd
       -0.0057204636 0.05163444 0.021858627 -0.11155386
000380 ad 6a a2 bd 99 68 bc bc ee ab df 3a 05 26 3c 3c
       -0.07930503 -0.022999095 0.0017064789 0.011483674
000390 2b b7 99 3c d7 5c d4 bd 08 ed cf 3a 57 da da 3b
       0.0187641 -0.1036927 0.0015863487 0.00667886
0003a0 7e e9 18 bd 13 16 66 3b 16 57 28 bd 80 74 3b bd
       -0.03733205 0.0035108372 -0.041098677 -0.0457654
0003b0 7e 07 0d 3d 1a 50 a7 3d ec 29 78 bd c2 6e 8d bd
       0.034430973 0.08169575 -0.060586855 -0.06905891
0003c0 ce 50 e5 3d 63 4c b3 3d fd 5a 75 3d 0f 85 a8 bd
       0.11197053 0.08754804 0.059901226 -0.08228504
0003d0 27 75 9f bc 78 d9 d9 3c e8 5b fc 3c 93 a0 61 3d
       -0.019465042 0.026592955 0.030805543 0.055084776
0003e0 94 e5 44 3d 1a 87 66 3c ea c3 26 3d 40 1f 2d 3d
       0.048070505 0.014070297 0.040714182 0.04226613
0003f0 3a 37 c8 3d bf cb b4 3d 05 d1 37 be c2 5a 19 be
       0.09776159 0.08827924 -0.17950828 -0.14976028

fc1.bias f4 [50]
000000 74 15 1b 3e 83 a0 89 3d 13 a4 0d bd c9 62 3d 3d
       0.15144902 0.06720068 -0.0345803 0.046236787
000010 de 48 eb 3d 79 f3 bb 3c 8c 9c 35 3e 7e c4 c7 3d
       0.11488508 0.022943245 0.17735499 0.09754275
000020 d9 bb 10 3e a7 38 12 3e c7 ab 93 3d 62 83 df 3c
       0.14134158 0.14279424 0.07210498 0.027284328
000030 a2 07 3b 3e 32 3c 6d 3e 6f 79 dd 3d 40 37 4e bd
       0.1826463 0.23167494 0.10814177 -0.05034566
000040 d3 2d 1c 3d b0 66 46 3e 4b a1 56 bd c5 95 e5 3c
       0.03812964 0.1937511 -0.052399915 0.028025517
000050 b1 bf 1d 3e 85 1b fa 3d ba 03 35 3e 25 b2 9c 3d
       0.15405156 0.1221228 0.17677203 0.07651166
000060 9a ab 57 3e b9 b0 23 3e d7 2e a5 3d c5 f3 2f 3e
       0.21061555 0.15985383 0.080655746 0.17182834
000070 b0 2c 8b 3e 07 da 92 3e 8d bd 1c 3e fc 0a 91 3d
       0.2718253 0.28681967 0.15306683 0.07082173
000080 9e 96 95 3d ed 5c 36 3d 56 45 34 3d 19 4f 99 3d
       0.073041186 0.044522215 0.044011436 0.0748579
000090 d6 27 3a 3e 0f 43 2c bd f7 0d ea 3d cf 1c e6 3c
       0.18179259 -0.04205614 0.11428445 0.028089909
0000a0 d7 c4 fd 3d d6 4f 10 bd 4b d4 78 bd d6 08 12 3d
       0.1239106 -0.035232387 -0.060749333 0.035652958
0000b0 ec 79 26 3e f2 77 71 3d ec 0f ab 3d 04 9b f2 3d
       0.16257447 0.05895228 0.08352646 0.11845973
0000c0 4d 1c 99 3c 1f 6e a5 3e
       0.018690253 0.32310578

fc2.weight f4 [10, 50]
000000 71 2a ff 3d 89 68 d3 bc 7b bc c0 3d 77 c2 81 be
       0.12459267 -0.025806682 0.0941095 -0.25343677
000010 8b 25 a6 bd bc b0 a5 3d 00 f1 87 be ff 74 9c be
       -0.081126295 0.0809035 -0.26551056 -0.3055801
000020 83 dd 7d be a4 0a a6 be 0f e0 25 3e 61 e7 21 be
       -0.24791531 -0.32429993 0.16198753 -0.1581092
000030 cc b7 cb 3d c6 d1 93 bd c8 53 4e 3e 43 70 56 be
       0.09947166 -0.072177455 0.20149148 -0.20941262
000040 4a 60 3c 3e 87 f9 02 3e 59 84 ba be ad 75 b9 be
       0.18396106 0.127905 -0.36429098 -0.36222592
000050 cd 43 7c be ca a5 97 3d 86 07 07 be d3 c0 ba 3d
       -0.24635239 0.07404669 -0.13186464 0.091188096
000060 ac fc 97 be 6c 7d a0 be 63 04 93 3d 91 e7 57 be
       -0.2968496 -0.3134569 0.07178571 -0.2108443
000070 9c 35 ba 3d b6 ba 2b 3e b8 61 89 be 66 ae 88 3d
       0.090922564 0.16770443 -0.26832366 0.06673889
000080 72 82 34 3d 93 d4 4f be 31 3e 3d be 6c a2 66 be
       0.044069715 -0.20295934 -0.18480755 -0.22522897
000090 7e dc c9 be 57 aa 23 be f1 d2 38 3e 58 7b a4 3b
       -0.39426035 -0.15982948 0.18049218 0.0050195865
0000a0 60 e0 a4 be 7b f9 c7 bd 96 7e 91 be e4 60 74 be
       -0.32202435 -0.097643815 -0.2841689 -0.23865086
0000b0 64 2e 4b be 85 56 29 3e b6 3a e8 3d d5 86 31 3e
       -0.19841915 0.16536911 0.11339323 0.1733659
0000c0 5a c1 45 3d 50 a1 0d 3e 4f a7 5c 3d 18 ad 56 be
       0.048280098 0.13831067 0.053870495 -0.20964468
0000d0 18 0c 16 be 87 44 47 bd f5 ef 12 3e df bf d0 3d
       -0.14653051 -0.048649337 0.14349349 0.101928465
0000e0 ca e6 58 3e 40 c9 5d 3d 6c 15 cd 3d f3 79 20 3e
       0.21181789 0.054147005 0.100138515 0.1567152
0000f0 9a 17 fd bd 3e b9 14 be e3 c7 bd 3d a8 91 50 3e
       -0.12358017 -0.1452379 0.09266641 0.20368063
000100 8e 4b 64 be 2a d4 30 be 86 96 53 be e5 de d0 3d
       -0.22294447 -0.17268434 -0.20662889 0.10198764
000110 10 8c 9c be ce 18 70 be 3a db 19 3e 57 16 ca 3c
       -0.3057561 -0.23446962 0.15025035 0.024668856
000120 4e 9a 3b 3e d9 59 9a be b0 b1 bb 3d b4 d8 e3 3d
       0.18320581 -0.30146673 0.091647506 0.11125317
000130 24 fa 7c be 1d 80 3e 3e c4 05 60 3d e8 da 24 3e
       -0.24704796 0.18603559 0.054693 0.16099131
000140 b2 44 b3 3d fb 8d 96 be d3 d2 db bd 9f ba 75 be
       0.08753337 -0.29405198 -0.10733571 -0.23996972
000150 68 19 f7 bd 2c 0f e0 3d 98 67 8f 3d eb 17 1f be
       -0.12065393 0.10940394 0.07002181 -0.15536468
000160 c6 c8 40 be 12 79 7e be 46 6f 28 3e a5 5b ad be
       -0.18826589 -0.24850872 0.16448697 -0.33858982
000170 c8 9e 3d be bc 9b ac 3d a9 e1 0d 3e 59 03 7a be
       -0.18517601 0.084281415 0.13855614 -0.2441534
000180 56 23 22 be 23 b3 69 be 66 9d 90 be 01 7c f2 3d
       -0.15833792 -0.22822241 -0.28245085 0.11840058
000190 12 fd f9 3d 5f 1a 8c 3d 31 56 b8 3d f6 20 6f be
       0.122064725 0.068409674 0.09000815 -0.23352417
0001a0 88 97 09 3e 8a fe 62 be 03 24 50 3e 06 a4 7a 3d
       0.13436711 -0.22167411 0.20326237 0.06119158
0001b0 a9 0d 1a 3e bc c0 db bd 22 d3 10 3e ca b7 c3 3d
       0.15044273 -0.107301205 0.14143041 0.09556539
0001c0 f0 2d 1f be d3 6e c7 3b ae a1 1b be 6f ed e4 3d
       -0.15544868 0.0060862093 -0.15198395 0.11178099
0001d0 48 86 01 3e d8 9d d9 3d 0d 20 09 be 25 9d 05 be
       0.1264888 0.106258094 -0.13391133 -0.13048227
0001e0 02 b0 6a bd 5f 16 85 3d 6f 80 cf bd cb 17 5b be
       -0.05729676 0.064984076 -0.10131919 -0.21395795
0001f0 43 e8 3b be b4 9a f4 3d 19 3b cb 3d d4 15 51 3e
       -0.1835032 0.1194357 0.09923381 0.20418483
000200 bf 33 20 be 1c bf 05 be a2 1e d2 3d 3f 82 6c bd
       -0.1564474 -0.13061184 0.10259749 -0.0577414
000210 82 20 3a 3e b8 8c 82 be 0f f2 90 bd 54 25 f7 3d
       0.18176463 -0.25497985 -0.07077419 0.12067667
000220 2e 4c 92 be 36 d4 ae bd 98 74 41 be ee d8 31 bd
       -0.28573745 -0.0853657 -0.18892133 -0.04341977
000230 da f9 56 be d9 4f 57 bd 7b cd 04 3e 0b db 19 3e
       -0.20993748 -0.052566383 0.1296901 0.15024965
000240 67 e8 4d bd 54 a4 84 3d 0b a9 c1 3d e0 08 93 bd
       -0.050270464 0.064766556 0.094560705 -0.07179427
000250 18 4a 86 be 86 c5 f0 bd b3 99 02 be 2e 7c 52 be
       -0.26228404 -0.117564246 -0.12753944 -0.20555183
000260 55 8d a7 3d da ed 6d be 10 ea 83 be b8 04 2e 3e
       0.08181254 -0.23235264 -0.25764513 0.16993988
000270 ac 4b 9f bc a8 3c 6f bc f1 6f 08 3e 36 0f 34 3e
       -0.019445263 -0.014601864 0.13323952 0.17583928
000280 22 67 f8 3d 7b 7a 83 bd 2d a5 12 be 47 01 61 be
       0.12129046 -0.06419846 -0.14320822 -0.21973144
000290 c6 ef cf bb 90 ef 83 3d 62 cf 8b bd 9f 84 68 be
       -0.006345722 0.06442177 -0.068266645 -0.22706841
0002a0 4b 5e f4 3d 91 e3 77 3d 00 cb 3f be 07 03 4c 3d
       0.119320475 0.06051976 -0.18729782 0.049807575
0002b0 c5 d1 f8 bd fc 03 5d be c3 f5 13 3e c8 4e fb 3d
       -0.12149385 -0.21583551 0.1444922 0.12270886
0002c0 2f 3e 9d 3d 1b e2 f1 bd a6 c2 e4 3d a9 13 99 be
       0.07677876 -0.11810704 0.11169939 -0.29897812
0002d0 7d d7 18 be eb d8 d4 3d 77 33 30 3e 82 6d b1 bd
       -0.14925952 0.10392936 0.17207132 -0.08663465
0002e0 5d 41 51 bc 57 1b 11 3e 26 0c b7 3d c1 dd de bd
       -0.0127719315 0.14170586 0.08937864 -0.1088214
0002f0 0d 6f 1b be 82 11 a4 3d 67 da f9 3b 08 7e 42 be
       -0.15179081 0.08011152 0.0076249125 -0.1899339
000300 32 b9 8f 3d 46 67 c2 3d 9c 4c 0e 3d ce a6 b4 bd
       0.07017745 0.09492354 0.03474103 -0.08820878
000310 eb 8d df 3d 7d 12 8f be 20 25 da bd 49 d7 ca 3d
       0.109157406 -0.27943793 -0.10651612 0.09904344
000320 e5 40 d2 bb f6 99 50 3e e2 84 a2 3d f8 ed fa 3d
       -0.0064164274 0.20371231 0.07935502 0.1225242
000330 6b 30 04 3e 84 64 86 be f6 ee 13 be b9 a0 da bd
       0.12909095 -0.26248562 -0.14446625 -0.10675187
000340 c6 0c 7f bd 6d 4f 99 bd 7e 7e 0f be d7 65 26 bd
       -0.06226804 -0.074858524 -0.14013097 -0.040624466
000350 99 8b 02 be 96 4d 47 3e 86 f2 94 be 02 f3 f6 3d
       -0.12748565 0.1946319 -0.2909128 0.12058069
000360 a9 4f 0c 3d d2 a4 b2 bb 52 d7 31 be 79 a1 64 3d
       0.034255657 -0.005451777 -0.17367294 0.055818055
000370 72 41 30 3e 6e 7a 85 be 7f 3a 42 3e f2 80 97 3d
       0.17212465 -0.2606997 0.18967627 0.07397641
000380 0c 1e 48 be f9 f0 dc bc 6f 3a 80 3d 7a 93 91 bd
       -0.19542712 -0.026970373 0.06261145 -0.07108207
000390 1c 1e 2a be 26 26 10 be 6d e8 cb bd 28 f6 3d be
       -0.16613048 -0.14077052 -0.09956441 -0.18550932
0003a0 a8 fd 04 bd c6 9a c2 bd 58 b8 34 3e b2 29 16 3e
       -0.032468468 -0.09502177 0.17648447 0.14664343
0003b0 68 7a a1 3d 38 7e 46 3e e9 e7 76 be e2 38 9c bd
       0.07884675 0.19384086 -0.24111904 -0.07628037
0003c0 8a e5 18 3e 81 71 1e be c7 41 65 be 46 15 06 3e
       0.14931312 -0.15472986 -0.22388373 0.13094053
0003d0 93 10 a2 bd 0b f6 2f be af 53 b3 be a6 91 0e 3e
       -0.079133175 -0.17183702 -0.35024783 0.13922748
0003e0 ec d5 9d 3d ef 41 7c be 29 ce 1d be 53 4e 74 bc
       0.07706818 -0.24634527 -0.15410675 -0.014911252
0003f0 91 8c a8 be c2 48 0d be 19 0b 3c be 32 14 40 3e
       -0.32919744 -0.13797286 -0.18363608 0.18757704

fc2.bias f4 [10]
000000 0d 59 8c 3e b6 3e de 3e b3 45 c2 bd f7 5b 89 be
       0.2741169 0.4340722 -0.0948595 -0.26827976
000010 b2 20 0e bd c7 df db 3c b3 e1 5b bd ff fb ad bd
       -0.03469915 0.026840104 -0.05368204 -0.0849533
000020 4f 9b 94 3e b8 0f 51 3b
       0.2902474 0.0031900238

exp_avg f4 [10, 1, 5, 5]
000000 6a 8a 5e bc a6 d9 66 bc 4f f9 75 bc d6 2a 10 bc
       -0.013582805 -0.014089977 -0.015013053 -0.008799275
000010 7c e2 e3 bb 3d 4c 86 bc 58 15 10 bc e7 53 04 bc
       -0.0069544893 -0.016393775 -0.008794151 -0.0080766445
000020 e0 1c da bb 0e 20 81 bb 5e 77 31 bc d4 63 de ba
       -0.006656274 -0.003940589 -0.010831682 -0.0016967007
000030 99 83 4c 3a f4 0a c8 3a 62 23 0f bb 8d 91 61 bc
       0.0007801592 0.0015262053 -0.0021841158 -0.013767612
000040 b1 11 4c 3a be a9 05 3c e1 84 42 3c 4c d3 38 3c
       0.00077846186 0.0081581455 0.011872501 0.011280846
000050 61 dd 74 bc d9 ce 71 3b 65 7b 69 3c 67 d3 b7 3c
       -0.014945359 0.0036896972 0.014250611 0.022439672
000060 9a bb c3 3c 2a e0 a4 3b 74 16 70 3a 47 64 2c 3b
       0.023893166 0.0050316053 0.0009158619 0.0026304887
000070 ee 0b 09 3b 7f 84 54 ba f4 9e 84 3b d7 46 71 3b
       0.0020911652 -0.00081069017 0.004047269 0.0036815905
000080 2a 8a 0a 3b 92 0b 95 39 0c 39 79 bb 43 02 c1 3b
       0.002113948 0.00028428115 -0.0038028387 0.005890162
000090 99 c0 8b 3b 93 f4 46 3b 8b c9 08 3a 0b b7 58 bb
       0.004264903 0.003035818 0.00052180205 -0.0033068086
0000a0 30 0b 8f 3b ea cc 0d 3b 9a 6d 4e ba 88 a9 cd ba
       0.0043653473 0.002163703 -0.0007874608 -0.0015690783
0000b0 bb cd a1 bb e8 63 a3 b9 47 c3 16 ba e7 37 a6 3a
       -0.004937855 -0.0003116422 -0.00057511445 0.0012681455
0000c0 31 c8 c4 3a f8 3e 2b 3a 32 f7 b8 3a 69 ff 20 3b
       0.0015013275 0.00065325154 0.0014111756 0.0024566299
0000d0 0b de 33 3b 31 e2 6d ba e5 2c a8 bb f8 be f3 39
       0.002744558 -0.00090745377 -0.005132305 0.00046490855
0000e0 d1 29 35 bb 3f d7 a5 bb 5e 06 1b bc 20 d2 44 bc
       -0.0027643333 -0.0050610597 -0.009461967 -0.012012988
0000f0 9e ab a2 bb f0 38 f9 bb 81 81 2b bc 5c 9a 41 bc
       -0.004964306 -0.0076056644 -0.010467888 -0.011816587
000100 51 b9 68 bc 4f 79 fe bb 37 81 97 bb de 2e cf bb
       -0.014204339 -0.007765926 -0.004623558 -0.0063227257
000110 bc 36 16 bc 03 97 17 bc a2 af 87 bb 7d 2c 72 ba
       -0.009168323 -0.009252313 -0.00414081 -0.00092381967
000120 92 9d b7 bb 79 c1 d0 bb f0 52 fd bb f2 6a 39 3b
       -0.0056035006 -0.00637072 -0.007730834 0.0028292504
000130 4b 56 12 3b c5 18 8f 3b e7 5b 27 3c 43 3a 1d 3c
       0.0022329267 0.0043669664 0.010214782 0.00959641
000140 eb 72 12 3b f7 4f c0 3b 5c 19 fb 3b 4a 10 45 3c
       0.0022346328 0.0058689076 0.007662935 0.012027809
000150 b7 81 4d 3c f0 f7 d6 3b 57 92 4b 3c be 0c 59 3c
       0.012543133 0.006560318 0.012425027 0.013247667
000160 e5 b0 5b 3c e3 e5 96 3c 79 c5 3b 3c 02 74 5a 3c
       0.013408874 0.018420165 0.011460655 0.0133333225
000170 54 9b 5a 3c 72 85 5f 3c 08 b0 a0 3c f6 f6 72 3c
       0.013342697 0.013642656 0.019615188 0.014829388
000180 24 7b 85 3c ea eb 99 3c f7 ca 98 3c 7e 9b b6 3c
       0.01629407 0.01878925 0.018651469 0.022290941
000190 8f 2a fc 3b 5f 65 1a 3b cb 4d 4a ba e2 7b 00 b9
       0.007695503 0.0023558957 -0.00077172805 -0.00012253181
0001a0 37 11 6c 3b e7 91 08 3c 99 50 34 3b 40 69 4e bb
       0.0036021003 0.008335567 0.002751386 -0.003149584
0001b0 76 dc a5 bb c5 f7 41 bb c9 67 3e 3c f9 28 fa 3b
       -0.0050616814 -0.0029597145 0.011621424 0.007634279
0001c0 f9 a5 c7 39 85 2d cb ba 27 ea 8f bb 80 e5 42 3c
       0.00038079897 -0.0015501237 -0.004391927 0.011895537
0001d0 cf 39 b4 3b 41 93 60 ba d1 60 07 bb fa 9d 33 bb
       0.0055000554 -0.00085668644 -0.0020657072 -0.0027407394
0001e0 2d 05 c1 3b c6 8a e4 39 94 eb 18 bb f5 60 d1 ba
       0.0058905096 0.00043590943 -0.0023333775 -0.001597433
0001f0 4d 72 c2 39 81 e5 2d 3c fc 77 ef 3b 53 6d 97 3a
       0.00037087724 0.0106138 0.0073080044 0.0011552967
000200 aa 35 61 3a 34 12 8a 3b 86 5b 88 3b c0 67 bc 3a
       0.00085910654 0.0042135958 0.004161301 0.0014374182
000210 82 f8 9c ba fa 79 82 3a 3d 93 ab 3b 3f 3d e6 bb
       -0.0011975917 0.0009954565 0.005236058 -0.007026344
000220 36 10 17 bc 1c db e3 bb 74 94 79 bb 2e 7b a2 ba
       -0.009220174 -0.00695361 -0.003808287 -0.001239633
000230 2e fa 9c bb 85 5d ae bb c5 e7 c7 ba d1 eb f6 b9
       -0.004790566 -0.005321207 -0.0015251568 -0.00047096473
000240 89 16 83 3a cd 0a 2e ba b2 a8 e1 3a dc 07 60 3b
       0.0010001223 -0.00066391827 0.0017216413 0.0034184372
000250 10 d1 d1 3b 53 8e a7 3b 3a e4 ff bb e2 ce 28 bb
       0.006403096 0.005113402 -0.007809189 -0.0025758077
000260 1d c5 70 bb 5b 0f 03 bc 71 a7 0d bc 75 b9 c2 3a
       -0.0036738582 -0.0079992665 -0.008645878 0.0014856296
000270 42 10 8a 3b 79 17 02 3b e7 b2 b0 ba 59 36 67 bb
       0.004213364 0.0019850417 -0.0013481051 -0.0035280196
000280 d0 63 93 3b 17 6f 25 3c 35 f6 65 3c 2e db 61 3c
       0.0044979826 0.010097287 0.014035751 0.013785167
000290 6a ad 21 3c a7 96 ee bb 81 d6 04 ba b4 c2 b4 3b
       0.009868005 -0.0072811428 -0.0005067364 0.0055163745
0002a0 1c 24 09 3c 43 85 2b 3c f6 d5 5a bc 38 c4 0e bc
       0.008370426 0.010468784 -0.013356676 -0.008713774
0002b0 bf 75 bc bb 96 98 75 bb 21 32 e1 3a 45 6f e0 3a
       -0.005751341 -0.0037474982 0.0017181077 0.0017123005
0002c0 35 43 96 3b ff be b0 3b 91 61 45 3b b1 ed 1a 3b
       0.0045856484 0.0053938623 0.0030117969 0.002364021
0002d0 1c b0 d6 3b 0b f0 b0 3b 00 d8 b9 3b 38 44 e7 3a
       0.0065517556 0.005399709 0.005671501 0.0017644232
0002e0 78 db 03 3b 48 cd 0e 3c 8d f0 02 3c 8e 51 b4 3b
       0.0020119827 0.008715935 0.007991922 0.005502886
0002f0 f6 74 1b 3b 42 1b 8c ba 26 ed e4 3b 6f a0 f9 3b
       0.0023720837 -0.0010689276 0.006986278 0.007618002
000300 37 09 fe 3b bd ec c9 3b 63 b4 a5 39 76 38 c4 ba
       0.0077525633 0.0061622546 0.0003160565 -0.001497044
000310 83 1e dc ba df 02 20 bb 8b 4b d5 ba 36 db 93 bb
       -0.0016793761 -0.0024415774 -0.0016273124 -0.004512216
000320 31 cc 62 bb 93 ce 9b b9 10 da b5 bb 45 7b 14 bc
       -0.003460657 -0.00029717814 -0.0055496767 -0.009062593
000330 54 e2 34 bc 08 44 0a ba 24 f2 77 b9 62 a2 1c bb
       -0.011040289 -0.00052744197 -0.0002364596 -0.0023900499
000340 ac 81 a6 bb 93 12 0f bc 6b a7 b2 39 c8 91 59 39
       -0.005081376 -0.008732456 0.00034075542 0.0002074904
000350 0d b5 5b bb 40 42 23 ba f5 fd 57 3b 94 e2 ec bb
       -0.0033524663 -0.00062278286 0.0032957767 -0.0072291587
000360 bd 53 9e bb d2 d1 b9 bb 48 5f 6b 3a d2 35 61 3a
       -0.0048317597 -0.0056707645 0.00089787366 0.00085910887
000370 b9 2a f9 bb 27 7d bd bb f0 8e fc ba fc b7 35 bb
       -0.00760397 -0.0057827416 -0.0019268673 -0.0027728071
000380 88 e4 5c ba 18 81 ae 3a 80 dc 07 bb 18 6e f0 ba
       -0.0008426388 0.001331362 -0.0020730793 -0.0018343357
000390 7b 12 8b ba c5 a5 08 bb 8b 86 42 38 a7 58 a5 bb
       -0.0010610366 -0.002085076 4.6378507e-05 -0.0050459686
0003a0 05 bd 05 bc 2e 4e e6 bb 5a 7e c4 bb 43 0a ee ba
       -0.008162742 -0.0070283627 -0.0059965076 -0.0018161017
0003b0 88 ba 9c bb ed 5a 52 bb e5 1d 62 bb bb 50 b0 bb
       -0.0047829784 -0.0032097653 -0.0034502682 -0.0053807176
0003c0 e6 06 9b bb 26 58 cb bb 25 c2 13 bb ab b5 6a bb
       -0.004731047 -0.0062055765 -0.002254614 -0.003581385
0003d0 78 3f be bb 9a 7c 15 bc 5a 32 49 bc 63 50 0b bc
       -0.005805906 -0.009123946 -0.012280071 -0.008503052
0003e0 ec 1d ef bb 22 a4 03 bc
       -0.007297268 -0.008034738

exp_avg_sq f4 [10, 1, 5, 5]
000000 1b 6a 29 3b e9 ae 10 3b ec 24 d3 3a 84 0c b9 3a
       0.0025850597 0.002207691 0.0016109026 0.001411811
000010 34 f8 9e 3a 27 0a 16 3b d8 fc f1 3a be 43 b0 3a
       0.0012128414 0.0022894235 0.0018462194 0.0013447923
000020 72 31 a3 3a c6 e2 82 3a 60 3e f2 3a 15 ab b4 3a
       0.0012450649 0.0009985797 0.0018481724 0.0013783897
000030 80 38 80 3a 61 ac 52 3a f0 ff 75 3a aa 96 c0 3a
       0.0009782463 0.0008036551 0.0009384146 0.0014693339
000040 18 12 85 3a 53 98 4b 3a 23 66 7c 3a 01 9f b9 3a
       0.0010152487 0.00077665335 0.00096282567 0.0014161767
000050 54 4a 98 3a 9a aa 56 3a fc 9d 74 3a 95 fb ce 3a
       0.0011618831 0.0008188874 0.0009331403 0.001579153
000060 ea a8 c3 3a ec 16 06 3a 56 4c f2 39 1b 0f d5 39
       0.001492766 0.000511511 0.00046214712 0.0004063778
000070 3b 62 9e 39 7e b5 9e 39 20 f2 f9 39 8c 4e e7 39
       0.00030209296 0.0003027133 0.00047673378 0.00044118275
000080 e0 ab b7 39 50 2a 63 39 01 98 93 39 e9 04 ee 39
       0.00035032537 0.0002166417 0.00028151277 0.00045398556
000090 9d ed d1 39 78 b2 98 39 2b c0 7b 39 25 37 82 39
       0.00040040622 0.0002912467 0.00024008813 0.00024836618
0000a0 1d 37 e8 39 79 32 cd 39 42 c3 ad 39 95 aa 9b 39
       0.0004429155 0.00039138252 0.0003314261 0.00029690997
0000b0 70 3a 7b 39 ae c4 e1 39 8c c3 ca 39 fd 8f b6 39
       0.00023958995 0.00043061882 0.00038674136 0.00034821025
0000c0 fd 99 a1 39 12 56 82 39 aa a0 e3 39 01 3a de 39
       0.00030823043 0.0002485966 0.00043416518 0.00042386356
0000d0 b8 54 f6 39 d9 05 0f 3a 8e 55 10 3a 99 4b d2 39
       0.00046983897 0.00054558885 0.00055059127 0.00040110646
0000e0 5b 69 cf 39 94 c8 f1 39 6a 5a 07 3a 79 97 12 3a
       0.00039560613 0.00046116544 0.0005163314 0.0005592029
0000f0 b5 8a d8 39 3b 74 d6 39 c7 fe e5 39 27 20 10 3a
       0.00041302075 0.0004090386 0.00043868108 0.0005497955
000100 c0 52 1e 3a bd 2f 01 3a dc c5 f3 39 d2 a8 07 3a
       0.00060395524 0.0004928073 0.00046495988 0.00051749975
000110 f7 5b 11 3a 7d 2b 1c 3a e7 72 24 3a 39 27 21 3a
       0.0005545015 0.0005957408 0.00062732253 0.0006147507
000120 7e 2d 12 3a 43 b6 0e 3a d1 61 16 3a 7d 6c 55 3a
       0.0005576237 0.0005444029 0.00057366217 0.0008141471
000130 40 0d 50 3a 5b e8 54 3a 74 3d 53 3a 51 8a 59 3a
       0.0007936545 0.0008121782 0.00080581685 0.0008298504
000140 4d 08 42 3a e6 33 38 3a 6b b5 30 3a a7 1e 28 3a
       0.00074017496 0.00070267764 0.00067409006 0.0006413259
000150 25 f5 34 3a db 54 2d 3a 71 6b 24 3a 13 0c 1c 3a
       0.00069029845 0.0006612071 0.00062721135 0.0005952727
000160 48 da 1b 3a 68 e9 2e 3a 98 54 1f 3a 87 97 20 3a
       0.0005945307 0.00066723535 0.0006077974 0.0006126095
000170 27 dc 20 3a bf 1d 24 3a 98 49 23 3a 75 94 29 3a
       0.0006136321 0.0006260536 0.0006228923 0.000646896
000180 59 7b 26 3a 6b e2 2a 3a b1 2a 22 3a b6 de 1c 3a
       0.00063507777 0.0006518724 0.0006186171 0.0005984114
000190 9b 23 9a 3a bb c9 86 3a 5e ec 3e 3a a8 ef 0e 3a
       0.0011759879 0.0010283509 0.0007283146 0.00054525817
0001a0 aa 0b 18 3a b4 d3 8c 3a 10 f2 4a 3a bf 61 de 39
       0.0005800078 0.0010744245 0.00077417586 0.00042415966
0001b0 88 81 07 3a 40 5b 17 3a e3 f3 77 3a de d2 0a 3a
       0.0005169143 0.000577379 0.0009458644 0.0005295704
0001c0 57 49 d5 39 ea 26 35 3a 71 f0 07 3a ed 32 3f 3a
       0.00040681168 0.00069104007 0.000518567 0.00072936603
0001d0 0c 65 e7 39 79 f2 1d 3a cd c2 38 3a 61 0d e2 39
       0.0004413504 0.0006025206 0.00070480705 0.00043116047
0001e0 01 1b 1f 3a db c3 05 3a e9 f3 22 3a b5 5c 08 3a
       0.00060693925 0.0005102732 0.0006216155 0.00052018027
0001f0 14 e8 e6 39 24 f8 e1 39 c0 32 d0 39 ea 33 bc 39
       0.0004404193 0.00043100223 0.00039710663 0.00035896833
000200 5d 4f be 39 82 a6 c8 39 87 b8 e9 39 fb 1f bd 39
       0.00036298754 0.0003827103 0.00044578707 0.00036072716
000210 aa e8 a5 39 29 bc ae 39 83 eb bb 39 50 ce d7 39
       0.000316446 0.00033328056 0.0003584289 0.0004116171
000220 4a c1 b7 39 b4 8c b0 39 19 85 b6 39 c9 07 cb 39
       0.00035048492 0.00033674168 0.0003481291 0.00038724978
000230 8b ce e1 39 e7 ea d1 39 3e 63 cb 39 a7 bf de 39
       0.0004306923 0.00040038602 0.00038793118 0.00042485932
000240 64 b8 ee 39 d5 d0 f6 39 1a 26 ec 39 0f a8 ef 39
       0.0004553228 0.00047076368 0.00045041816 0.00045710846
000250 95 c1 e7 39 77 8d f2 39 1d 2b 95 3a 0a c7 63 3a
       0.00044203983 0.00046263236 0.0011380647 0.0008689022
000260 3c f0 36 3a 57 4a 24 3a 4a b0 20 3a d6 c2 77 3a
       0.0006978547 0.0006267181 0.0006129785 0.0009451335
000270 59 61 3a 3a 14 cf 1b 3a ad 5c 14 3a 51 dd 1b 3a
       0.0007109843 0.0005943638 0.0005659562 0.00059457595
000280 3b cc 4b 3a f7 d5 2e 3a 3f a8 26 3a de 6c 37 3a
       0.0007774268 0.00066694565 0.0006357468 0.00069971185
000290 b5 8d 3f 3a a3 4d 27 3a 8f 83 26 3a d7 59 4b 3a
       0.0007307188 0.0006382113 0.0006352001 0.00077572226
0002a0 96 85 4f 3a 68 bf 48 3a 19 27 1b 3a 56 64 38 3a
       0.0007916329 0.0007657916 0.0005918607 0.0007033994
0002b0 2e a6 35 3a b4 36 1a 3a 12 4a 1c 3a 54 03 c6 39
       0.0006929365 0.0005882785 0.0005961965 0.00037767983
0002c0 5f 48 ba 39 2b 7f c1 39 40 36 d2 39 f0 67 e6 39
       0.00035530605 0.00036906576 0.0004009474 0.00043946458
0002d0 a3 e4 be 39 08 eb b3 39 b5 5c b6 39 81 dd bf 39
       0.00036409972 0.00034316652 0.00034782817 0.00036595392
0002e0 4e 7d db 39 b3 ce d1 39 f5 57 c9 39 81 b3 c5 39
       0.00041864294 0.0004001759 0.0003840324 0.0003770851
0002f0 38 33 cc 39 74 68 f7 39 19 77 e1 39 e7 50 f4 39
       0.00038948073 0.00047189335 0.0004300408 0.00046599584
000300 03 06 04 3a 4e 8e 04 3a 1a 8d 04 3a f6 b2 dc 39
       0.0005036296 0.00050566054 0.0005056426 0.00042095006
000310 56 2f ea 39 e4 85 f7 39 8f 3d e0 39 56 b2 d8 39
       0.00044667226 0.00047211268 0.00042770474 0.000413316
000320 f8 8b b2 3a 86 2a 9d 3a 00 2d 90 3a e5 37 86 3a
       0.0013622036 0.0011990822 0.0010999739 0.0010240047
000330 0f eb 5a 3a 29 a3 9f 3a 5e 3c 6f 3a 73 fa 59 3a
       0.00083510665 0.0012179363 0.0009126122 0.0008315213
000340 57 b4 40 3a 32 ad 2e 3a c7 a3 6c 3a 0c 50 39 3a
       0.00073510915 0.00066633814 0.000902709 0.0007069118
000350 06 da 28 3a 2a eb 2f 3a 31 84 51 3a 14 42 4b 3a
       0.00064411794 0.00067107624 0.00079924153 0.0007753682
000360 a3 51 2f 3a c1 b1 1d 3a b5 17 24 3a ba 1d 4e 3a
       0.0006687885 0.0006015562 0.0006259636 0.0007862706
000370 e0 05 54 3a 9e 28 25 3a b6 0a 23 3a 91 e1 24 3a
       0.00080880336 0.0006300303 0.00062195526 0.00062897155
000380 ea de 48 3a 51 0e 2e 3a 26 ad 43 3a 9a 08 55 3a
       0.00076626113 0.00066397066 0.0007464461 0.0008126587
000390 33 97 37 3a 2c 3e 20 3a 12 c4 1a 3a c3 f3 36 3a
       0.00070034264 0.000611278 0.00059038505 0.00069790724
0003a0 e5 e2 33 3a 57 6d 1d 3a c5 19 1c 3a 52 81 1e 3a
       0.0006862118 0.00060053676 0.00059547677 0.0006046492
0003b0 40 35 3f 3a 5e 19 3a 3a 9d c7 2d 3a 01 b0 42 3a
       0.00072940066 0.0007099117 0.0006629171 0.00074267393
0003c0 6f 1f 22 3a 8f 9a 40 3a 97 f1 47 3a dc 2d 3f 3a
       0.00061844935 0.000734725 0.0007627247 0.00072929054
0003d0 f4 01 45 3a ff e2 24 3a 70 b5 32 3a c4 b7 34 3a
       0.00075152447 0.00062899286 0.00068171974 0.0006893838
0003e0 86 39 31 3a 60 bd 35 3a
       0.0006760586 0.0006932821

exp_avg f4 [10]
000000 ce 10 46 3c bc 8e 1b bc 7d 1d 69 3b 88 4a 3e bc
       0.0120889675 -0.00949448 0.0035570555 -0.011614449
000010 d2 b0 4b bc 11 bd f7 3a e9 e6 42 3c 42 63 8d bb
       -0.012432294 0.0018900951 0.011895874 -0.004314811
000020 28 b3 66 3b c9 0d b0 3b
       0.0035202 0.005372737

exp_avg_sq f4 [10]
000000 13 63 10 3b a9 b2 f0 39 23 f2 1d 3a b3 67 58 3a
       0.002203171 0.0004590948 0.0006025156 0.00082551985
000010 26 9b c9 3a b4 6c ee 39 85 6c 7d 3a e4 e9 d5 39
       0.0015381321 0.00045475888 0.0009667355 0.00040800788
000020 2d 1a d2 3a 88 d3 03 3a
       0.001602953 0.0005028774
