2020-S/exercise/01_MNIST_classifier/checkpoint/model_epoch9.pth (torch, 269279 bytes, 24 tensors)

conv1.weight f4 [10, 1, 5, 5]
00000000: 6256 803d e5a1 0b3e c50c df3b f40d 683c
00000010: 5e5a 873d 6d42 843d b970 43be 10fa 37be
00000020: 2f92 eabe 6039 74be 3179 f33d 0c79 003e
00000030: 0595 4dbe 8733 00bf 3624 96be ecf6 413e
00000040: bba8 123e 3d52 0e3f 2608 a93e df81 743e
00000050: b44b 913d f4e3 e8bd 9af1 113e f358 013f
00000060: b5fa d43e 9048 823e 65b3 e93c 990d 44be
00000070: 7981 c03d 701c 753e 27f8 ecbd 91f3 8abd
00000080: 011c 8ebe e3a1 23be 9348 ef3e 1d41 92be
00000090: d16b babd 30b4 6bbe dfab b53d 33e7 dc3e
000000a0: 6357 a4bd eb2d 923c 6591 b33d c8f8 493e
000000b0: 1f55 953d 6523 893e a325 da3d 875e 4fbd
000000c0: 5e58 a7bc 1666 c8bd b0d5 903d e2e7 963e
000000d0: 3d8b 253d ef1f 313e 5108 9d3a d784 c03c
000000e0: 6691 153e 1796 343e e99b e43c 4678 7cbe
000000f0: 9c19 ca3e 9983 b53e adb1 253e 1323 a6be
00000100: eb0b cdbe 1271 c53e 0725 d5bd 2e2d 94bd
00000110: 1020 b6be 1467 81bd 6a8d b43d 1abf 81be
00000120: 992d 10be f6c7 4fbe 7ac7 04be a2af 723e
00000130: 3f48 653e ef1c 3e3e 9663 253e bcbd 9f3e
00000140: 4f0d 94be 9ce5 afbb 5bc2 5e3e 82b6 7e3d
00000150: a74a 0abd 0044 afbd 6eda 6bbe ab66 89be
00000160: 5dce 23bd 1860 54bd dd0e 0ebe 542b d2bd
00000170: a7d5 aebd 9a12 83be 4745 70be 8be9 723e
00000180: eaee b2bd 25d3 47be 1436 59bd 61fd b83c
00000190: 49d4 91be 43c3 efbd 7e06 0cbe 481a 993e
000001a0: d777 473e 59c6 a4be c15b 1ebd b07e a23a
000001b0: 682e 643e 6641 a63e d2e7 a7be f2ce 8ebc
000001c0: ceb4 163e ff62 d13e bd63 083d f410 93be
000001d0: bcd5 983d 3725 db3d e546 6e3e 2395 19bd
000001e0: 9b28 15be 52f3 a6bd 4a59 863e c628 243e
000001f0: d0a6 e33c 3305 563d c105 d73e d451 c03e
00000200: 2b11 2b3e 237c b6be 1f0e 35be 7682 913d
00000210: 51b7 f43e 3b72 5e3e aa8c e7bd d524 04bf
00000220: 9d86 3fbe b80a db3e 1854 ce3e c89b 8ebd
00000230: 5d02 ffbe f00a 4dbe dd38 0abe 10be a13e
00000240: 9306 ee3b d117 2ebb f16f 94be b433 b2bc
00000250: 2cfc 14bd 5c15 4c3d 3ee7 c33a 07d6 a2be
00000260: ddb1 26be 910a d53d cba7 57be 3e1c a43e
00000270: 0497 aa3d b935 65be 303b 40be e13c 91be
00000280: 515a 593d 90e4 a6bc 54b2 ff3d 4434 423e
00000290: b040 2d3e ee16 43be 088b 023e b577 243e
000002a0: 185b 193e 8cf3 a53e fb2a 683e 5c0a 0b3e
000002b0: fc90 983d 32e2 bdbe d41a 16be 024e 7abd
000002c0: 6b44 a9bd c4e7 9abe 3585 2fbe 52f6 a3be
000002d0: d969 7b3c 7731 6cbe d36b 0e3d b206 4abe
000002e0: 927d 563d 62f6 a2bd 2f4d 55be 8254 f9bd
000002f0: 2fc4 93bd 991e a33e 83a6 c0bc d0a8 a93d
00000300: 7b20 e03d 78b2 fd3d 1405 753e 280c 893b
00000310: 578b fe3b a280 2dbc f979 493e 0b83 c83e
00000320: b0c3 71bd 6b80 f3bd d1f0 d83d 5434 443e
00000330: c427 90be fbc1 1dbe 20c2 32bb 88ca a2bd
00000340: 3cb5 053e 8e0a 2dbe 4686 b5bd e53f 013e
00000350: 8a7c 023d 1a77 e33d 415f cc3e 38c3 a33e
00000360: ea02 ad3e 4250 2f3e 18c9 493e d712 b83e
00000370: c9c1 77be dc3f 02be b712 efbe 7db4 c5be
00000380: b015 96be febe 383d 7dda 1ebd e11d 0c3e
00000390: 73d2 61be faa2 173c 8cf2 80bd 1e47 183e
000003a0: 35c7 3a3e e94b d1be e1cc bebe 323e 833c
000003b0: 6c6a e93e 734e 013e 05f4 60be 6d7f 88bd
000003c0: 63e3 36be 90d0 683e 6a75 da3e 2bb0 133e
000003d0: a45c 1ebe cb3f 63be 76cb b23d 4dfe 8abd
000003e0: 1090 043e 1780 01be
0.06266476 0.13635977 0.006806942 0.014163483 0.06609033 0.06457982 -0.19085969 -0.17966485
-0.45814654 -0.23850012 0.1188835 0.12546176 -0.20076378 -0.50078624 -0.29324502 0.1894185
0.14322178 0.55594236 0.3301403 0.23877667 0.07094517 -0.113716036 0.1425232 0.5052635
0.41597524 0.25445986 0.028527925 -0.19145812 0.09399695 0.2393663 -0.11570769 -0.06784738
-0.2775574 -0.15979724 0.46735057 -0.28565302 -0.091025956 -0.23017955 0.088706724 0.4314514
-0.0802448 0.017844161 0.08767966 0.19723809 0.07291626 0.26784816 0.1065171 -0.050627258
-0.020427879 -0.09785096 0.07072008 0.29473788 0.04041599 0.17297338 0.0011980628 0.023500843
0.14606246 0.1763538 0.027906375 -0.24655256 0.39472663 0.35451964 0.16181059 -0.32448635
-0.40048155 0.38562828 -0.10407453 -0.0723518 -0.35571337 -0.06318489 0.08816035 -0.2534111
-0.14079894 -0.20291123 -0.1296672 0.23699811 0.22390841 0.18565725 0.1615127 0.31199443
-0.28916404 -0.0053679477 0.21753828 0.06218577 -0.0337626 -0.08557892 -0.23032543 -0.26836142
-0.039991725 -0.051849455 -0.13872857 -0.102621704 -0.08536845 -0.2560013 -0.23463927 0.23721902
-0.087369755 -0.19514139 -0.05303009 0.022581758 -0.28482273 -0.11707165 -0.13674352 0.29902864
0.19479309 -0.32182577 -0.038661722 0.0012397375 0.22283328 0.3247177 -0.32794052 -0.017432664
0.14717409 0.4089584 0.033298243 -0.28723872 0.074626416 0.107004575 0.23269232 -0.037495743
-0.14566271 -0.081518784 0.26239997 0.16031179 0.027789503 0.052251052 0.41996577 0.3756243
0.16705768 -0.35641584 -0.17681168 0.071049616 0.4779611 0.21723263 -0.113061264 -0.516187
-0.18703695 0.42781615 0.40298533 -0.06963307 -0.4980649 -0.20023704 -0.13498254 0.3159032
0.0072639673 -0.0026564489 -0.28991655 -0.02175317 -0.036373302 0.049825057 0.0014946235 -0.31803915
-0.16278787 0.10402406 -0.21060102 0.32052797 0.08329585 -0.22383775 -0.18772578 -0.2836676
0.053064648 -0.020372659 0.12485185 0.1896525 0.16919208 -0.19051716 0.12748349 0.1606129
0.14976156 0.32412374 0.22672646 0.1357817 0.074495286 -0.37086636 -0.14658672 -0.06110955
-0.08265003 -0.30254948 -0.17140658 -0.32023865 0.01534506 -0.23065744 0.034770798 -0.19729117
0.052365847 -0.0795715 -0.20830224 -0.12174322 -0.072151534 0.31859282 -0.023516899 0.082841516
0.10943695 0.12387556 0.23927718 0.0041823573 0.0077680754 -0.0105897505 0.19675435 0.39162478
-0.059024513 -0.11889728 0.10592807 0.19160587 -0.2815534 -0.15406029 -0.0027276352 -0.07948786
0.13057417 -0.16898558 -0.08863501 0.1262203 0.03185705 0.11106701 0.39916423 0.31984878
0.33791286 0.1712046 0.19705617 0.35951874 -0.24195017 -0.12719673 -0.46693966 -0.38614264
-0.2931342 0.04510402 -0.038782585 0.13683273 -0.22052936 0.009255165 -0.06296262 0.14870879
0.18240054 -0.40878227 -0.37265685 0.016020868 0.45589006 0.12627582 -0.21968086 -0.066649295
-0.17860179 0.2273581 0.42667705 0.14422671 -0.15465027 -0.22192304 0.08730213 -0.06786785
0.1294558 -0.12646519

conv1.bias f4 [10]
00000000: 4e2e 8f3c aa59 d8bc 44af 02be 51b1 0dbe
00000010: e4c5 9fbd 9717 58be f2bc ad3d 6882 dbbe
00000020: 3733 da3c 4e07 3ebe
0.017478134 -0.026409943 -0.12762171 -0.13837172 -0.078014165 -0.21102749 0.08483304 -0.4287293
0.02663575 -0.18557474

conv2.weight f4 [20, 10, 5, 5]
00000000: e04e 6a3c 7c43 913d 61e3 863d fd81 ddbc
00000010: 0e14 82be 169a 873c 57d8 333d d08e b5ba
00000020: 7a9e 1bbe e9cb 0fbe 006d cd3d 5d55 9b3b
00000030: 4ddc d4bd 385a 09be f420 68be 7557 593d
00000040: 1aca c93c 4d59 85be 11a3 35be 158f f0bd
00000050: c801 2d3e 443f 373c 8881 3cbe dd16 a5bd
00000060: 5e36 6bbd 74ab 7abd f4c6 d1bb 304c 88bd
00000070: 3869 f8bc 4268 e63c 1b0c 263d a0c8 503c
00000080: 4e31 9b3b fdab 443d 707d 88bc 60a2 033e
00000090: ece5 f53b 035c c23d fce6 01bd d2ae e4bd
000000a0: c846 853d 6f91 5b3e 6418 2e3e 92e5 ea3c
000000b0: 87ce f8bd 9054 163e 0a86 f03d dc7f fa3d
000000c0: dc43 503e 3a66 dcbd 3d46 53be 7daf 16be
000000d0: 6b3d 1cbd 1019 943c 9731 8f3a 1d89 11bb
000000e0: b21b 8d3c c084 9e3b f3b8 463c 08f5 3ebd
000000f0: f9e4 b23d f5f6 adbd 3355 22be e7f8 e1bd
00000100: 931f 33bc df8d eb3b 29b9 6bbe a6cc 3d3a
00000110: 5ba7 433d dc59 503d 7f19 87bd 830c e63d
00000120: 1d2b 9d3e 3d2d 973d 18b8 943d 3316 32bd
00000130: ce61 18be 9fd9 963c 9df8 613e 1e49 6e3e
00000140: 1f66 d63b 1f87 b23c 97b4 ea3c e42e 2d3e
00000150: 7977 183e e00c ef3d c271 ecbd 2470 57be
00000160: 1d12 a4bd 9065 aebc a652 06be a3c3 cfbd
00000170: 7cf0 41be 791f 61be a9e8 96bd 78b4 16be
00000180: a85c b3bd 673e 49be ad38 06be 5d00 0bbe
00000190: dc96 7abd 0d16 c2bd 58fd 3abd a36d 8abc
000001a0: 81e4 a43c 75fe 47bd eaf4 d0bd 39d6 c1bd
000001b0: fc7e b13d 2263 a93d 44d9 d33d 5cfe 2dbd
000001c0: e10e 44bc 8736 443d bb3f f23d 0cfe 023e
000001d0: 0ca3 d63d 749f 773d 0db4 853d 9712 ad3d
000001e0: 6372 03be 4044 b33d 4eb7 cd3d 1ded 733e
000001f0: 6389 be3d d8a2 9bbd 5869 03be 350d b7be
00000200: a1de d2be fc28 c6be 110c 033c 827e bcbd
00000210: 2629 903d 916c e13d d572 c6bd c138 b4bd
00000220: 7af5 843a 3702 0b3e 6cf1 de3d a28b 3b3e
00000230: b20f 0cbe a308 90bd d62d a83d 3e3f 7f3c
00000240: 5a6e 6dbd 5c81 143e 5cb5 91bd 4192 12bd
00000250: 422a 0dbd 20d7 20be 0083 84bc 6af5 aa3d
00000260: 469c c9bc 4cdd fbbd 5420 2cbe a8ec 143d
00000270: d500 c03d 2973 a43c 3c13 043e e378 d3bd
00000280: 2321 323e 1215 6d3c 2553 9cbd 2156 f4bc
00000290: 4cb9 60bd 1d9a d53c 7bad 02be dbd7 c33c
000002a0: bf5b e83d b82b c63d e88d 2c3e 71e8 a63d
000002b0: 6171 e8bd efa7 4ebd 947f e63d fdba 30bd
000002c0: 94b8 833d 23d8 783d 8b88 993d e01f 103e
000002d0: c6d2 2b3d 622f adbd cfa2 cd3c 127f e63d
000002e0: b56b ffbd 6862 ca3d a941 a8bd 88be f63c
000002f0: 01d1 2fbd 961c 75be d10c 16be 5e6c d6bd
00000300: 543e 32bd c7c0 53be fe73 c5be 3173 c1bd
00000310: 0fd8 a13d b569 1b3e 8abc 5d3c 5174 44be
00000320: 98ec 04bd e738 3dbd 4862 cdbc 92cf 9bbd
00000330: 3a84 6ebe 7691 ccba 76ec 5a3d 3f7e 4e3d
00000340: 9961 7abd 54f6 6bbe 1b33 09bc 9f35 b83d
00000350: f130 d1bd 1ead a4bd ab60 31be af41 a13d
00000360: 4247 63bd db8e bd3a 667c 3fbd 147d dfbd
00000370: 69f9 393e 1360 2b3d a9b0 013e 486d dabc
00000380: aeb4 adbd 49a0 19bd 402a 2ab8 7f28 e6bd
00000390: e21c 5abd 16ed a1be 4fc3 f83b fc20 023d
000003a0: 3198 013e 226b 273e 8d6c 0dbd 5c8f a9bc
000003b0: d5d6 353d 8056 1d3e 2d1b 163e daa4 82bc
000003c0: 2be0 5a3e e2f6 a4bd 65b2 5d3d 6ef0 8c3d
000003d0: d742 933d de00 9e3d bccd a4bd c2fa f93c
000003e0: b5fd 0ebd ef4c 173d 08b7 f13d 9325 6cbd
000003f0: b819 83bd 111f 743d a4cf ee3d 867b 5b3e
0.014301032 0.0709295 0.06586338 -0.027039522 -0.25405926 0.016552966 0.04390749 -0.0013851766
-0.15197173 -0.1404263 0.10030556 0.0047404007 -0.103935815 -0.13413322 -0.2266882 0.05306192
0.024632502 -0.26044694 -0.17737986 -0.11746041 0.1689521 0.011184517 -0.18408787 -0.080610014
-0.057424895 -0.061198667 -0.006401891 -0.066551566 -0.03032361 0.028125886 0.04053889 0.012743145
0.004736102 0.048015583 -0.016661376 0.1285491 0.0075042155 0.09490206 -0.031714424 -0.11166157
0.06507641 0.21442197 0.17001492 0.02867392 -0.12148767 0.14680696 0.11744316 0.122314185
0.20338386 -0.10761686 -0.20632263 -0.14715381 -0.03814451 0.018078357 0.0010924813 -0.002220697
0.01722512 0.0048376024 0.012129056 -0.0466204 0.08735079 -0.08494369 -0.15852813 -0.110338025
-0.010932821 0.007188543 -0.23019852 0.0007240273 0.047767024 0.050866947 -0.0659666 0.11232855
0.30696955 0.073816754 0.072616756 -0.043478202 -0.1488106 0.018414317 0.22067495 0.2327008
0.0065429355 0.021792946 0.028650565 0.16912419 0.14889325 0.116723776 -0.11545135 -0.21038872
-0.08011267 -0.021288663 -0.13117465 -0.101447366 -0.18939394 -0.21984662 -0.07368595 -0.14717281
-0.08757907 -0.19652711 -0.13107558 -0.13574357 -0.061179027 -0.09476862 -0.045651764 -0.016897982
0.02012849 -0.048826654 -0.10202964 -0.09464688 0.086667985 0.08270861 0.103441745 -0.042478904
-0.011966438 0.047903564 0.11828562 0.12792224 0.104803175 0.0604548 0.065284826 0.08450811
-0.12836604 0.08753252 0.10044728 0.2382092 0.09303548 -0.07599419 -0.12833154 -0.35752264
-0.41185477 -0.38703144 0.007998482 -0.09203817 0.070390984 0.110070355 -0.09689871 -0.087998874
0.0010143958 0.13575064 0.10885891 0.18314984 -0.13677862 -0.07032897 0.082118675 0.015579043
-0.057966568 0.14502472 -0.0711467 -0.03578401 -0.03446413 -0.15707064 -0.016175747 0.0834759
-0.02461065 -0.122980684 -0.16809207 0.036358505 0.09375159 0.020074444 0.12897962 -0.10325792
0.17395453 0.014470356 -0.07633046 -0.029826226 -0.054864213 0.026074464 -0.1276149 0.023906639
0.11345624 0.096763074 0.16851008 0.081498034 -0.1134975 -0.050453123 0.11254802 -0.043147076
0.0643169 0.060753 0.07496747 0.1407466 0.041949056 -0.08456303 0.025102047 0.112547055
-0.12471715 0.09882051 -0.08215649 0.03012015 -0.04292393 -0.23936686 -0.14653327 -0.10469888
-0.043516472 -0.20679007 -0.38565058 -0.09445799 0.07902538 0.15177043 0.013533721 -0.19184996
-0.032452196 -0.046196844 -0.025071278 -0.0760795 -0.23292628 -0.0015607316 0.053448163 0.050413366
-0.061128233 -0.23043185 -0.008374001 0.089946024 -0.10214413 -0.08040832 -0.17322032 0.07873856
-0.05548788 0.001446213 -0.046749495 -0.10912529 0.18161549 0.04183967 0.12665047 -0.026663437
-0.084817275 -0.037506375 -4.0570507e-05 -0.11238193 -0.0532502 -0.31626195 0.007591642 0.031769738
0.12655713 0.16349462 -0.03452735 -0.020698242 0.044394333 0.15365028 0.14658804 -0.015947748
0.21374576 -0.08054902 0.05412521 0.06881796 0.07190483 0.07715009 -0.08047053 0.030515078
-0.034909923 0.036938604 0.118024886 -0.05765302 -0.0640139 0.05959994 0.11660698 0.21433839

conv2.bias f4 [20]
00000000: ed46 3b3e 0301 55bd d559 85bc d130 aebd
00000010: 1faa ccbd 7ade 4fbe 460a 853e ccd9 1abd
00000020: ae2b 9b3d 21d1 c8bd b159 c1bd ca0c 9cbb
00000030: 3298 5e3d e536 a73d 322f 13bd a52d 01bc
00000040: 9c51 99bb e831 a63b a0d8 d3bb 1581 04bd
0.18288775 -0.052002918 -0.016278187 -0.08505405 -0.099933855 -0.20299712 0.259844 -0.037805364
0.075766906 -0.09805513 -0.094409354 -0.0047622668 0.054344364 0.08164767 -0.03593368 -0.007884418
-0.004678918 0.0050718673 -0.0064650327 -0.032349665

fc1.weight f4 [50, 320]
00000000: df2a 163e 1fe0 8b3d f520 23bc f9db adbd
00000010: 6e67 d83c ea21 a0bd a12e 813c 29a5 123e
00000020: 4c2a fa3d 2629 b53d ff6d 20bd 2d84 cebc
00000030: 518e a93d 96c1 01bc a32f 11be dcee 5dbe
00000040: e207 ef3d 5fbc ba3d 9523 703c ddb3 b63d
00000050: ca71 e33b 7dc7 2a3c c881 493e 1e9e 173c
00000060: 71e4 79be 7b01 85bd 05a0 0c3e 622a aabd
00000070: 5587 98bd c7f5 823d 1a6b f5bd a870 5bbe
00000080: e8c5 f9bc 77de dd3c df54 f73d ac23 d5bd
00000090: a8ec 20be d57e 01be d858 003d a72a 533d
000000a0: 880d 48be 49d2 46bd a21b 8dbd 02a3 8b3d
000000b0: 566e 35bc 19b9 62bc b60f 303e fd61 9e3e
000000c0: 1f67 d63b 5ae7 873d e7eb 13bb 2023 9ebe
000000d0: 172d 9e3d e03a 29bd 4ccb e4bc 65cc edbe
000000e0: 8ebf 733d 77af 5cbe c747 08be bc49 233d
000000f0: 8272 afbd 0bd6 653d 3630 8d3c 53a5 e63d
00000100: 4f56 2d3e 2032 3cbb dcbd d13c bb5f 213d
00000110: 0e36 ce3d 521c 8c3d 1889 98bc 6f78 4f3d
00000120: 403b 02bd dc84 01be e2d5 16bd cac0 f7bd
00000130: fd24 80be eb6d 08bd 3c81 be3b f10d 3fbd
00000140: e345 bdbc 612c 2ebd 4189 bf3d d520 1e3d
00000150: e524 cebd 7da5 b0bb 7153 163d c8f0 a13d
00000160: d111 9e3d 0336 483d 0f2b 533e d4db 123e
00000170: 3128 01bd 9883 1abd 0b92 163d 17a3 5d3c
00000180: 786b 183d 9a6f d03d 5372 233d 0080 163d
00000190: f141 adbc bd61 2e3d 3d96 233d e13d e0bc
000001a0: 43e6 743e 90a3 d33d 0808 4cbc 4163 0f3d
000001b0: e965 5d3d 2176 a1bd 6ac6 05be 30e4 4dbe
000001c0: 6d9d 143d be17 a53c 0ee0 253d 96ed 553e
000001d0: 1d5c f93c d88a d53d 0d93 e53d f2bd 22bc
000001e0: 42d4 2cbd 5b6e 03be 81c1 a9bd c8b8 a6bd
000001f0: 44da c93c 257d 9cbd 5e60 533d 77b8 393e
00000200: a4b5 2f3e 1277 5b3e 742c 233e ee58 02be
00000210: f059 903c fd77 a33d 6fc2 5e3c 7ed3 11be
00000220: efee fa3c ff9f 91bd dec9 ab3d d8a0 503d
00000230: 4a38 593d f7b9 873d 0903 983d 634c bdbd
00000240: 2200 0dbd 12dd 413c dfc5 b53c ea64 1d3d
00000250: 1b73 afbc db3d 95bc 8833 163c 2579 a63d
00000260: 1676 41be d723 da3d 4556 85bd e132 0f3c
00000270: bf73 f1bd 7fce f4ba 649d 82bd 3af0 493d
00000280: 6df9 c93c a837 523d a955 d93c 1988 64bd
00000290: 133e 8d3c 3a1d 48bc bf5c 7dbe f8df 52be
000002a0: 78d7 883d c6d9 363d 3e79 cebd 5b2c fc3d
000002b0: ba05 e3bc b031 03bd 9038 163c 99a5 5a3d
000002c0: 8372 b13d 9d7f 7e3b 7602 fe3c a632 c1bb
000002d0: 2fb0 02be 9ceb 3cbe db17 f3bd c932 373d
000002e0: ea13 ccbd fbc3 36be f7ff d73c 1dd0 e53d
000002f0: 5a14 893b d069 90bb ed70 b43d f07e 253e
00000300: b26f 243d 3e4a 8bbc d389 99bd b253 eebc
00000310: 8672 62bd 6caa ca3c d060 933d e010 a03d
00000320: b058 013d 636a fb3d e076 5b3c 47c5 f5bd
00000330: 9183 a93d 8b7c 0a3e 5637 c6bd da4c 4dbe
00000340: 4956 933d 9719 b33d 6bd3 1ebd af48 dd3d
00000350: 74e1 c9bc 0671 103d c0ef 96bd f02e 02bc
00000360: 4729 243d f6f1 4f3d 6002 5d3e 44dd 273d
00000370: 177a 0abd 7697 9c3d c5a3 783d 0a46 3dbe
00000380: 4f59 33bc 35f2 e63c ca4d 8ebd cf1c 943c
00000390: f398 283d 369e 91bd cda0 5dbd f9c4 563c
000003a0: b754 b53a 1f35 253d 59e9 afbc 6158 65bd
000003b0: b746 a03d f4b4 0f3d 88dc 78bd 6d0a c3bd
000003c0: dd6a 283e d629 be3d 9270 493c 4e72 34be
000003d0: 9f17 a4bc 2d83 133d 88cf 9c3c 2ee6 643c
000003e0: 4520 3f3c 534e 593c 3064 283c 21a1 5b3d
000003f0: 5bab 523d 5c52 813d aa9e 14be dd87 ecbd
0.14664792 0.06829857 -0.009956588 -0.08489222 0.026416507 -0.078189686 0.015769305 0.14320816
0.12215099 0.08845739 -0.0391674 -0.02520951 0.08279098 -0.00791969 -0.14178328 -0.21673149
0.116714254 0.0911796 0.014656921 0.08921025 0.006941055 0.010423538 0.19678414 0.009254007
-0.2440355 -0.06494423 0.13732918 -0.08308865 -0.074476875 0.063945346 -0.119833186 -0.21429694
-0.030489877 0.027083619 0.12076735 -0.104071945 -0.15715277 -0.12646039 0.031334728 0.05155435
-0.19536412 -0.048540387 -0.06890036 0.06818201 -0.011073669 -0.013838076 0.17193493 0.30934134
0.0065430547 0.06635924 -0.0022571029 -0.30886173 0.07723444 -0.041315913 -0.02792897 -0.46445003
0.059508853 -0.2155131 -0.13308631 0.03986524 -0.085667625 0.05611233 0.017234903 0.11262002
0.16927455 -0.00287164 0.025603227 0.039397936 0.10068904 0.06841339 -0.018620059 0.050651964
-0.031794786 -0.12648338 -0.03682507 -0.120973185 -0.2502822 -0.03330795 0.005813746 -0.046644155
-0.023104614 -0.04252279 0.09352351 0.03860553 -0.10065631 -0.0053908215 0.03670067 0.079072535
0.07718242 0.048879635 0.20621894 0.1434167 -0.03153247 -0.037723154 0.03676037 0.013527653
0.037211865 0.10177536 0.03990395 0.036743164 -0.021149607 0.04257368 0.0399382 -0.027373256
0.23915963 0.103339314 -0.012453087 0.035006765 0.054052267 -0.078838594 -0.1306397 -0.20106578
0.036282945 0.020152923 0.04049688 0.20891413 0.03043943 0.10426873 0.11209688 -0.009932982
-0.042194612 -0.12835066 -0.08288861 -0.08140713 0.02464021 -0.07641057 0.051605575 0.18136774
0.17159134 0.2143214 0.15934926 -0.12729236 0.01762101 0.0798187 0.013596161 -0.14240834
0.03063151 -0.07110595 0.083881125 0.050934643 0.053032197 0.06627267 0.07422454 -0.09243085
-0.034423955 0.011832492 0.022189079 0.038426317 -0.021417191 -0.018217972 0.009167559 0.08128575
-0.18892702 0.10651367 -0.06510595 0.008740158 -0.11789655 -0.0018677263 -0.06377676 0.049301364
0.024655068 0.05132261 0.026530104 -0.055793855 0.017241513 -0.012213999 -0.24742411 -0.2059325
0.066817224 0.04464128 -0.10081719 0.12313148 -0.027712692 -0.032029808 0.009168759 0.053380582
0.086644195 0.0038833388 0.031007033 -0.0058959303 -0.12762521 -0.18449253 -0.118697844 0.044726167
-0.09964736 -0.17848198 0.02636717 0.11221335 0.0041833343 -0.004407145 0.088106014 0.16161704
0.040145583 -0.017003175 -0.07496991 -0.029092643 -0.055285 0.024739467 0.071962 0.07815719
0.03157872 0.12276151 0.013395041 -0.12000518 0.082770474 0.13524072 -0.09678523 -0.20048848
0.07194192 0.08745115 -0.038775843 0.10804879 -0.024643637 0.035264038 -0.073699474 -0.007945761
0.040078428 0.05076786 0.21582937 0.0409825 -0.03380784 0.076460764 0.060703058 -0.18483749
-0.010946586 0.028191665 -0.06948431 0.018080143 0.04116149 -0.071102545 -0.05410843 0.013108485
0.0013834451 0.040333863 -0.021473574 -0.055992488 0.07825988 0.03508468 -0.06075719 -0.09523473
0.16447015 0.09285323 0.012294905 -0.17621729 -0.020030795 0.03601377 0.019141927 0.013970895
0.0116654085 0.013263303 0.010277793 0.05362046 0.05143295 0.06314537 -0.1451365 -0.11549351

fc1.bias f4 [50]
00000000: c538 993e 21e3 8c3d fd28 8abd 9a33 963d
00000010: 277a 813e f306 4a3d ae85 993e e1ab 003e
00000020: bde8 503e 5396 593e ead5 ed3d caa3 563d
00000030: 5e2a 8e3e 9fd0 c13e 8535 253e 0275 a0bb
00000040: bc80 313d 2127 ad3e d24d f1bd 9f01 1f3d
00000050: 3f31 823e b968 423e 7e75 913e c1c9 c63d
00000060: 178c 803e 2759 513e 5565 3f3e 6034 683e
00000070: d0be c03e ebc0 d33e 264a 673e bf9a bf3d
00000080: 0529 b43d 397d c63d 9670 aa3d dd18 c53d
00000090: 7c11 813e a231 17bd 5e63 013e ca54 4e3d
000000a0: 71ba 593e a52b fa3c 141f 4ebd 14a7 8a3d
000000b0: 7d12 543e 68ac cd3d 0426 dd3d 4a2d 413e
000000c0: b807 9e3c 961e ed3e
0.29926124 0.06879259 -0.06746099 0.07334061 0.25288507 0.049323034 0.29984802 0.12565567
0.20401283 0.2124875 0.116130665 0.052402295 0.277667 0.37854478 0.16133697 -0.004896761
0.04333566 0.33818915 -0.11782421 0.038819905 0.25428197 0.18985261 0.28409952 0.0970645
0.2510688 0.20444165 0.18690999 0.2267623 0.37645578 0.41358122 0.22586879 0.09355687
0.08796886 0.09691853 0.08322255 0.09623883 0.25208652 -0.036912568 0.12635562 0.05037383
0.21262528 0.03053839 -0.050322607 0.06770149 0.20710178 0.100426495 0.107982665 0.18864933
0.01929079 0.46312398

fc2.weight f4 [10, 50]
00000000: 6bd3 df3d 4591 2ebd 4811 c73d 3698 86be
00000010: 3a46 8abd a3f6 aabc fd18 96be 12c1 9fbe
00000020: de58 a9be 0adf 89be 5581 2e3e 4fa9 02be
00000030: e022 ea3d 0d9f aabd 4053 393e 5822 72be
00000040: 3bbb 3b3e 0055 133e a6dd d6be b5ff d6be
00000050: 5d65 a5be 9226 823d 521b 82be 8ee8 d13d
00000060: 38df 9fbe fa3b aabe 4bdf b63d fbf0 5dbe
00000070: ce3c b23d e539 3d3e 031b 8ebe b5cd 163d
00000080: 24ab 85bc 0f05 49be adaa 87be 53ad 90be
00000090: ee37 00bf ba4f 3ebe 38e1 323e df1f e53c
000000a0: 5ea4 bcbe 0da7 85be a8ef aabe cbd0 9dbe
000000b0: 5fbd 8ebe a11e 293e 4602 ed3d 0059 313e
000000c0: c987 883c fa86 fe3d 995e ed3d f0ae 9cbe
000000d0: bc50 41be d48c a93d 4b51 ef3d c9f3 163e
000000e0: bc86 513e 2bc4 263c 3a5b e53d f1e3 ea3d
000000f0: fa51 42be a12f 86be fa24 b43d ccc3 493e
00000100: ca73 4dbe 11e0 52be 32fc 8ebe e9ad ae3d
00000110: 58be 96be 9dfc 82be 439e 283e f37e c3ba
00000120: 39f0 2a3e e123 c9be aee5 913d b6fb d83d
00000130: f06f 80be 31ee 3c3e d4b6 343d 96dc 193e
00000140: 7888 e33d f343 8fbe 3096 29be 3f10 8dbe
00000150: bddb eabd 11fb dc3d 7c05 e23d 3604 84be
00000160: 4f16 8dbe e0c7 aebe e717 2d3e 3a96 b1be
00000170: 2903 73be 1ac0 803d 6fca f43d e990 6dbe
00000180: a3b5 32be 2b2b 94be 87ce d0be 168f 7d3d
00000190: 2d61 133e dca1 a43d 6943 d73d d002 63be
000001a0: cb69 333e 39a6 39be 2bc8 553e fc09 983d
000001b0: 25e1 103e d2d5 f2bd bd3f 063e 2a6b 153e
000001c0: a684 2dbe 43f0 8abc 0252 25be 4156 e83d
000001d0: b761 0c3e 3e6a e63d 1739 2ebe a551 3cbe
000001e0: 141a 60bd 8600 983d 8819 1cbe d94b 60be
000001f0: aa3a 77be a2f0 ed3d f4a2 ef3d d744 5d3e
00000200: 414d 2cbe b222 3ebe cc63 f03d f7c8 68bd
00000210: 8b62 473e a2bc 98be 9a0d febd cdd7 093e
00000220: 5941 a3be cb1f ebbd bc7b 66be 3a3c 49bd
00000230: a25b 80be 9174 9ebd d523 e33d 5675 073e
00000240: 4651 89bd b1d5 ca3d ec88 e33d 3eda a5bd
00000250: a021 9abe 450f 28be c93e 35be 1cbc 94be
00000260: 2325 b73d 4514 a1be 5c1d 95be f154 423e
00000270: 0ae9 c93c 6492 673b fc56 213e 87e8 203e
00000280: 82e6 d73d e8c2 26be 51bc 30be 5fb2 62be
00000290: 2faa 35bc 09cc 783d 6dc9 d2bd dc07 85be
000002a0: 3f38 ee3d fc05 903d 245a 50be d8ac 6d3d
000002b0: 37c3 10be 0fba 85be 593c 0c3e 60ab 0a3e
000002c0: 99e3 873d 86ef 35be 2a4f d83d 262c 9bbe
000002d0: c1f4 2bbe 5795 a93d 4e33 393e 5f63 1fbe
000002e0: 5c21 863b 7850 0e3e 461f d33d 56a0 22bd
000002f0: 0910 23be dd13 983d 4c22 61bd 3fa2 4cbe
00000300: f045 c13d e5ae 003e 92a9 0ebc 5654 16be
00000310: b4f1 cd3d e092 acbe 178e 1cbe b5d5 b73d
00000320: 6512 633b 07d3 473e 7df7 cc3d e355 013e
00000330: fc37 143e d537 a0be 2fa2 0abe a550 fbbd
00000340: cff5 febd dcf6 adba cc4f 47be cbe2 51bd
00000350: 1fb6 01be cf09 5a3e b7e5 bdbe 096e 073e
00000360: 4c43 573d 8b75 47bd 6758 32be 8ae0 453d
00000370: ec55 2c3e 40dc 7ebe 5dbe 3b3e 7fe7 aa3d
00000380: 228d 4cbe aa2a 20bc cb29 b53d 8de6 8bbd
00000390: 3bb3 44be 2071 14be 3afb 13be 40a0 2bbe
000003a0: 79c6 6fbc d8eb 9dbd d3e4 3e3e 4a4f 1b3e
000003b0: 5c83 ca3d fa51 4e3e 8b65 73be 5192 f5bd
000003c0: 3559 223e 965b 2bbe 291e 72be 28fa ea3d
000003d0: 9665 86bd 68b8 3bbe e816 93be 5ee9 373e
000003e0: 720c c53d b594 a5be f5db 13be 7709 ab3b
000003f0: ecf2 b1be b6e0 41be 1be9 67be 56fe 353e
0.10928997 -0.04261901 0.09720093 -0.26288003 -0.06751676 -0.020869559 -0.2931594 -0.31201988
-0.33075613 -0.26927978 0.17041524 -0.12759899 0.11432433 -0.08331118 0.18098164 -0.23645914
0.18333142 0.14387894 -0.4196598 -0.41991964 -0.32303897 0.06355013 -0.2541147 0.102494344
-0.3122499 -0.33248883 0.089293085 -0.21673958 0.08703004 0.18479116 -0.27754983 0.03681727
-0.016316958 -0.19630836 -0.26497403 -0.28257236 -0.5008534 -0.18585101 0.17468727 0.027969299
-0.36844152 -0.26104012 -0.33385968 -0.3082336 -0.27878854 0.1651559 0.11572699 0.17319107
0.01666631 0.124280885 0.11590309 -0.30602217 -0.18878454 0.08278814 0.11685427 0.14741434
0.20461553 0.010178606 0.11199041 0.114692576 -0.18976584 -0.26208213 0.08796115 0.19703597
-0.20063701 -0.20593287 -0.27926785 0.085292645 -0.29442096 -0.25583354 0.16466622 -0.0014915153
0.166932 -0.39285186 0.07123886 0.10594885 -0.25085402 0.18450238 0.04411967 0.15025553
0.11110014 -0.2798153 -0.16561198 -0.27551457 -0.11467693 0.107900746 0.11036202 -0.25784463
-0.27556083 -0.34136868 0.1690365 -0.34684926 -0.23731674 0.062866405 0.11952674 -0.2319981
-0.17452101 -0.28939185 -0.40782568 0.061904036 0.14392538 0.08038685 0.10510904 -0.22169042
0.17520826 -0.18129815 0.2087714 0.07423779 0.14148386 -0.11857189 0.13110252 0.14591661
-0.16945133 -0.016960269 -0.16144565 0.113445766 0.1370915 0.11250733 -0.17013966 -0.1839052
-0.05471237 0.07421975 -0.15244114 -0.21903934 -0.24143472 0.11618163 0.11701003 0.21608292
-0.16826345 -0.18567923 0.11737785 -0.05683228 0.19471185 -0.29831415 -0.12404938 0.13461228
-0.31885794 -0.114806734 -0.22508138 -0.049129702 -0.2506991 -0.07737077 0.11090819 0.13228354
-0.06704955 0.0990404 0.111101 -0.08098267 -0.3010378 -0.16412075 -0.17699732 -0.29049766
0.0894263 -0.31460777 -0.29123962 0.18977715 0.024647254 0.0035335058 0.15755838 0.15713702
0.10542013 -0.16285288 -0.17259337 -0.22138356 -0.011087938 0.060741458 -0.10292325 -0.2598256
0.11631822 0.070323914 -0.20346886 0.058026165 -0.14136969 -0.26118514 0.13694896 0.13541937
0.06635208 -0.17767152 0.10561974 -0.3030712 -0.16792585 0.082804374 0.18085977 -0.15565251
0.004093332 0.13897884 0.10308699 -0.03970369 -0.15924086 0.074256636 -0.05496435 -0.19983767
0.09437168 0.12566717 -0.008707421 -0.14680609 0.10055867 -0.33705807 -0.15288578 0.08976308
0.0034648415 0.19514094 0.10008142 0.1263042 0.14474481 -0.31292596 -0.1353843 -0.12271241
-0.12449228 -0.0013272422 -0.19464034 -0.051241677 -0.1266713 0.21292804 -0.3708932 0.13225569
0.052554414 -0.048696082 -0.17416535 0.04830984 0.16829652 -0.24888706 0.18334337 0.083449356
-0.19975713 -0.009775797 0.08845862 -0.068310834 -0.19208996 -0.14496279 -0.14451304 -0.1676035
-0.014634722 -0.07710999 0.18641977 0.15166965 0.09888336 0.20148459 -0.23769204 -0.11990798
0.15854342 -0.16734156 -0.23644318 0.11473495 -0.06562345 -0.18332064 -0.28728414 0.17960116
0.096215144 -0.32340017 -0.14439376 0.005219634 -0.34755647 -0.18933377 -0.22647516 0.17772803

fc2.bias f4 [10]
00000000: a85e ef3e ef4a 1e3f 8d4c 97bd f1e3 bbbe
00000010: 1a14 61bd bc64 31bd ffb7 b6bd 9765 24be
00000020: 6e95 8a3e 8808 07bc
0.46751904 0.6183309 -0.07387648 -0.36697343 -0.05495081 -0.04330896 -0.08921813 -0.16054378
0.2706713 -0.00824178

exp_avg f4 [10, 1, 5, 5]
00000000: 49e2 613c c214 713c 0a1e 223c 7696 253c
00000010: 425b 4a3c 3b40 623c 2c8b 6c3c 7470 5a3c
00000020: 2d5d 653c bd8d 483c 7e22 7b3c 55e0 7a3c
00000030: 3edb 833c dbee 723c 08ed 573c 5304 1d3c
00000040: 012a 273c f88a 423c 0d32 b93b 21b1 ba3b
00000050: 357c 573b 22fc e43b 0795 5b3c 4af1 ef3a
00000060: 24db 443a a92b d2bb 8751 89bb 3071 54bb
00000070: c351 5e3b b223 0c3c 82cf be3a 561f 133a
00000080: 52e3 88b9 2552 723b cb63 023c d1ac b3b9
00000090: e999 963a 2add 5eba 9c11 013b ed4a 5b3b
000000a0: 7d63 ccbb f838 f8ba 15ad 0f3b d336 9a3b
000000b0: fb17 493b a20c 03bc 3f6d 82bb 8216 8a3b
000000c0: 58c4 c63b 41f1 653a 9928 983b 413f 5b3b
000000d0: 98ed 8c3b 0d18 8f3b 869d 873b 4a22 533a
000000e0: d6fd ae3b 7328 e93b fec0 333c 10a9 153c
000000f0: b01f aabb 8c6d c43b 2d2d 7e3c 0346 2c3c
00000100: 511f 0f3c 30e2 b2bb 4612 a03b ade7 043c
00000110: 3909 113c 267a 0c3c 9241 bfba 767e b1ba
00000120: 9884 6bba 8965 9039 d680 a73b 51b1 9ebb
00000130: 83c2 04bc 4d93 49bc 2bbc 51bc d71f 59bc
00000140: fa17 12bc c1c2 31bc fb47 2bbc 4642 48bc
00000150: d063 70bc 2820 06bc 7ab8 20bc 579a 01bc
00000160: 7e72 d6bb 1af2 3ebc 0b0c b2bb 5cba cabb
00000170: cb7d 56bb a0d4 2ebb 2850 cbbb 19dc 8a39
00000180: a0b4 bfbb 17a8 05bc 6fdb 20bc c0b3 3fbc
00000190: 33fe 6cbb 2670 d4bb 6452 16bc e6f7 34bb
000001a0: b5a2 d5b9 45ee 2e3a 4ec9 29bb e438 f8bb
000001b0: 9129 b9bb 59ce 6ebb 9881 d2ba b9bd 31b9
000001c0: 0420 0cbb 1147 8abb fdfe 9fbb 7e09 4abb
000001d0: 0c08 b739 554c 22bb 3fa3 01bc c29f c5bb
000001e0: fda9 1dbb 8218 8cba b88e b4bb 8f4e 14bc
000001f0: 710c 0bbc 62cb eaba e2ff 1f3b 1d41 133b
00000200: aa40 08ba 9460 bfba 5803 c6bb 9e87 1f39
00000210: 53fd 9e3a a477 483b ce97 3cb9 e779 1fbc
00000220: 6ecd a9bb 17f3 40ba e4af 20ba f90c 02ba
00000230: 583b 14bc 0b77 a9bb fc33 c7bb 5ccb adbb
00000240: 2922 f0ba a5d8 30bc 17be 1bbc 52ca 09bc
00000250: ae96 e2bb 1c45 dbbb 6894 183c 0c00 6d3b
00000260: 9d6b 2cbb 08f5 a5bb 4649 16bc da4e 053c
00000270: e672 89b9 cf31 e3bb 5719 1dbc b851 48bc
00000280: f173 de39 dfc1 b5bb 3326 37bc a14a 2cbc
00000290: 80ae 80bc 8e64 2339 e191 5abb 230f 1abc
000002a0: 2fdd 0bbc ce2c 03bc fc75 49b8 c233 303b
000002b0: b37d 523a ecd9 8cba 50a4 093b 1a56 b53a
000002c0: 8b8e 303b dfd5 933b c9dd b2b9 3701 5cbb
000002d0: 49b8 a63b 969d 003c 46f2 203c bec0 653b
000002e0: d5d0 be37 d2d4 883b 4d70 2e3b d4ee c939
000002f0: a83b 7eb9 ca3b 09ba 1ee9 0a3a 195e e6ba
00000300: 9bce 99bb b7a4 edbb 5e2a f4bb 447d 8fb8
00000310: 5297 293b a0ce 5e3b f0a7 9c3a 9d3e c2bb
00000320: f111 8abc 4b4f 3dbc fab4 0abc d9c8 1bbc
00000330: 7915 62bc 73c4 3abc 2c7f 47bc ce5b 2abc
00000340: 9634 0cbc ca3b 64bc adbb 61bc 20e9 73bc
00000350: fc4c 92bc 891a a8bc 6f07 aabc 27a3 60bc
00000360: 0ed5 3abc 1fd9 62bc 24cc 86bc fc5f 90bc
00000370: e161 86bc a764 3dbc 0960 39bc 74df 1dbc
00000380: ce04 25bc 64cf 9dba 3a42 ca3a f297 cfb8
00000390: dfd1 34bb 701f 36bb b91a 253b 112c a23b
000003a0: fdcf 69ba d543 62bb b1b3 b7bb 7c21 883b
000003b0: d0ab cb3b bc8e ae3a 2dcd bdbb 0198 0fbc
000003c0: b57f 063a 31cd 8b3b 7bdc 533b 56c4 cfb8
000003d0: ab8d dfbb 09d3 3abb 909f ea38 88ed 913a
000003e0: 5243 63b9 81a8 26bb
0.013786861 0.014714422 0.009894857 0.010106673 0.012350859 0.013809259 0.014437478 0.013332475
0.013999266 0.012240824 0.015328048 0.015312274 0.016095754 0.014827455 0.013179071 0.0095835505
0.010202886 0.011873953 0.0056517185 0.005697385 0.003288043 0.0069880644 0.01340223 0.0018306163
0.0007509461 -0.006413896 -0.004190627 -0.0032416098 0.0033923246 0.008553432 0.0014557692 0.00056122744
-0.00026109308 0.0036975231 0.007958363 -0.000342703 0.0011489961 -0.0008501584 0.0019694334 0.0033461407
-0.006237446 -0.0018937876 0.0021923233 0.0047062426 0.003068446 -0.007998617 -0.0039803083 0.004214109
0.0060658865 0.00087716064 0.0046435115 0.003345445 0.0043007843 0.0043668807 0.0041386513 0.00080541207
0.005340318 0.0071154176 0.010971306 0.009134546 -0.0051917657 0.0059945043 0.0155137 0.010514739
0.008735494 -0.0054590926 0.004884991 0.008111876 0.0088522965 0.008574044 -0.0014591685 -0.0013541717
-0.00089842966 0.0002754147 0.005111794 -0.004842915 -0.008103016 -0.012303186 -0.01280121 -0.01325222
-0.008916849 -0.010849656 -0.010454173 -0.012222832 -0.014672235 -0.008186378 -0.009809608 -0.007910333
-0.0065444103 -0.011654401 -0.0054335645 -0.0061867665 -0.0032728787 -0.0026677027 -0.0062046237 0.00026485397
-0.0058503896 -0.0081577515 -0.009817942 -0.011700571 -0.0036162257 -0.0064830957 -0.009174917 -0.002761358
-0.00040747752 0.0006673078 -0.002590734 -0.0075751413 -0.005650707 -0.003643891 -0.001606035 -0.00016950713
-0.0021381387 -0.0042198976 -0.004882692 -0.0030828412 0.00034910475 -0.0024764736 -0.007912456 -0.0060310075
-0.002405762 -0.0010688456 -0.0055101775 -0.009051933 -0.008486853 -0.0017913396 0.0024413993 0.002246923
-0.0005197624 -0.0014600926 -0.006042879 0.00015213943 0.001212994 0.003058889 -0.00017985629 -0.009733654
-0.00518196 -0.0007360442 -0.00061297254 -0.00049610395 -0.009047352 -0.0051716617 -0.006079195 -0.0053037833
-0.0018320727 -0.01079384 -0.00950577 -0.008410053 -0.006914935 -0.006691588 0.009312727 0.0036163358
-0.002630926 -0.0050646104 -0.009172743 0.008136475 -0.00026216282 -0.006933428 -0.009588561 -0.0122265145
0.00042429523 -0.005546793 -0.011178541 -0.01051584 -0.015708208 0.00015582351 -0.003335111 -0.009403023
-0.008536621 -0.008006288 -4.8032016e-05 0.0026886319 0.0008029595 -0.0010746098 0.002100248 0.0013834864
0.002694043 0.0045115794 -0.00034116048 -0.003357006 0.0050878865 0.007850071 0.0098233875 0.003505751
2.274701e-05 0.004175761 0.002661723 0.00038515648 -0.00024245551 -0.00052350445 0.00052990194 -0.0017575651
-0.0046938187 -0.0072523016 -0.0074513396 -6.842104e-05 0.0025877547 0.003399767 0.0011951905 -0.0059278742
-0.016854258 -0.011554549 -0.008466 -0.009508335 -0.013799065 -0.011399376 -0.012176316 -0.0103978645
-0.008557459 -0.01393027 -0.013777656 -0.014887124 -0.017858975 -0.020520465 -0.020755498 -0.013710774
-0.011403335 -0.013845711 -0.016454764 -0.017623894 -0.016404094 -0.011559642 -0.0113144005 -0.009635795
-0.010071946 -0.0012039957 0.0015431114 -9.898831e-05 -0.0027590913 -0.0027789734 0.002519293 0.004949101
-0.00089192373 -0.0034525294 -0.0056061377 0.0041543823 0.00621555 0.0013317685 -0.005792281 -0.008764268
0.0005130724 0.004266404 0.0032327462 -9.9070996e-05 -0.006822308 -0.0028507134 0.0001118771 0.0011133412
-0.00021673486 -0.0025430026

exp_avg_sq f4 [10, 1, 5, 5]
00000000: 1d4a 693b be93 4b3b 8c8a 193b 071c 073b
00000010: a143 de3a d555 553b 41fb 3a3b 5a2c 113b
00000020: da17 003b 1adc b93a 737b 373b 38f7 193b
00000030: 6abb ee3a f0fe b63a c50a b33a 89ab 163b
00000040: 3570 e43a 7603 ae3a cf34 bf3a 5fca 153b
00000050: db89 f33a 4e78 ad3a 9420 ac3a 5e9d 213b
00000060: 70e5 1b3b c9e1 5f3a 40ff 4a3a eff8 343a
00000070: 0dae 063a 42a9 f439 9790 493a 9f49 393a
00000080: 3320 163a 83e0 a639 72ca ff39 7299 3f3a
00000090: 2b84 213a 152a ea39 0db5 c639 09c2 f839
000000a0: 9fd7 343a 96ed 173a 73d5 073a 162a 013a
000000b0: 596d e539 3c85 3f3a 51fe 263a 9172 0d3a
000000c0: 7846 f939 d650 e239 0588 393a 9105 293a
000000d0: a019 323a 9511 4a3a aa98 583a a708 193a
000000e0: 7d15 193a 9ca7 293a ae71 463a c1ad 663a
000000f0: 1c35 1e3a 7cd8 213a b757 2b3a 5565 503a
00000100: 5482 5d3a c9af 473a f7fd 423a d3c4 493a
00000110: f2e8 553a a68e 543a 76b7 803a b0d6 663a
00000120: 70b4 4c3a 890f 483a 606b 543a 89a0 be3a
00000130: 2b4d c33a 0620 cd3a 361d d23a d086 d23a
00000140: 21ed b63a 491c b33a 8396 b13a 043e ab3a
00000150: fa10 af3a fb70 a53a 1ab6 9c3a 71f0 903a
00000160: 6196 903a 5557 9e3a fc8d 993a 183d 933a
00000170: a18b 8a3a 45e7 913a 3d21 923a 3514 9e3a
00000180: be29 8f3a c460 923a a77b 8f3a 782c 903a
00000190: 6317 fe3a a9a8 d73a 9a9a 933a 1f88 693a
000001a0: 6a31 833a ecc4 ee3a 62ba aa3a 0ea0 333a
000001b0: 6be1 783a 16f5 8b3a 061c d43a a8b4 6f3a
000001c0: 3424 4f3a 3dc7 af3a eed6 833a 64ec b13a
000001d0: 5be6 563a 0457 8e3a 30a1 a93a 9bf1 523a
000001e0: 263e 903a 5b75 6c3a 8c66 933a e6ec 773a
000001f0: 5400 503a 9d18 303a 338e 203a 0f76 0e3a
00000200: 1d8b 093a 75b1 063a c3b0 273a 251c 0b3a
00000210: 187b f539 89f4 013a bf73 063a 2848 153a
00000220: ddec f339 d3c7 003a 6a24 103a fcfc 1b3a
00000230: 2a38 123a 35ef 163a de89 213a 9de1 253a
00000240: a48d 303a 2d1a 293a 0740 343a 54b3 393a
00000250: d84e 2a3a 1bf2 2d3a b54c bd3a 03a7 903a
00000260: ce62 583a 412c 3f3a f632 483a 3cab 9b3a
00000270: b79e 683a ef60 3b3a db75 3b3a cbed 553a
00000280: 3d8a 803a b56d 593a 42f0 683a 33bc 7f3a
00000290: 84a4 813a 83cc 5a3a 3c35 613a b36d 953a
000002a0: 65bd 8b3a a7c0 7a3a c97a 563a 4806 8b3a
000002b0: 41ae 803a 0b11 4d3a 8187 483a 4da6 073a
000002c0: b034 053a 4614 143a 024c 1c3a b958 243a
000002d0: 3b98 003a 3ac4 fb39 1596 0a3a 0560 113a
000002e0: 9b60 123a 1126 063a 0e0b 083a be3e 073a
000002f0: 5358 033a 99e2 0a3a 4f4e 0c3a 3790 153a
00000300: fd28 1b3a ca7b 153a bee9 143a b4fd 033a
00000310: 90d3 083a d0cb 083a f837 033a 0886 f639
00000320: 4e3c 1a3b 53ac 013b 60cd d33a b486 c53a
00000330: d8d0 af3a d416 0b3b 498f bc3a f6bf a43a
00000340: 0fb9 9b3a ddb6 9b3a fbda d23a 38bd 953a
00000350: e654 8f3a 0d28 9e3a 951d ca3a ecec ae3a
00000360: 63d6 8d3a 1174 823a 8e26 8a3a cbc5 b93a
00000370: d677 b23a 651a 863a e822 8c3a e279 8d3a
00000380: 3622 ab3a 9765 363a 7de1 4b3a 6e85 603a
00000390: a2fe 373a 7d02 273a 010a 2b3a aa75 343a
000003a0: 933b 2f3a 3b40 1e3a 3c1b 233a 5936 093a
000003b0: 5ff0 0c3a 6f31 1b3a f7ec 273a 14ae 393a
000003c0: ea04 093a 0dc4 183a fe97 413a 5240 483a
000003d0: 06bb 423a 6f89 193a cb8b 1f3a e6b6 3d3a
000003e0: 5998 3d3a 502c 3a3a
0.0035597153 0.0031063403 0.0023428528 0.002061607 0.0016957411 0.003255238 0.0028531107 0.002215168
0.0019545467 0.0014179975 0.0027997165 0.00234933 0.0018213813 0.0013961475 0.0013659826 0.0022990427
0.001742846 0.0013276178 0.0014587882 0.0022856218 0.0018580513 0.0013234706 0.0013132268 0.0024660449
0.0023787878 0.00085404195 0.00077437237 0.0006903549 0.000513763 0.00046665414 0.0007689087 0.00070681603
0.0005726844 0.00031829262 0.00048788224 0.0007308937 0.0006161357 0.00044663312 0.00037900396 0.00047446814
0.0006898585 0.0005795596 0.0005181648 0.0004927231 0.00043759754 0.0007305925 0.00063702936 0.0005395795
0.00047545484 0.00043166307 0.00070774584 0.0006447668 0.00067939796 0.00077083084 0.0008262495 0.0005837776
0.0005839689 0.0006471814 0.000757004 0.0008799695 0.00060351356 0.0006173921 0.0006536203 0.000794967
0.00084499014 0.00076174416 0.00074383564 0.00076968706 0.0008160017 0.00081084145 0.0009820301 0.00088057946
0.00078088697 0.00076317094 0.00081031583 0.0014543693 0.0014900317 0.0015649803 0.0016030434 0.0016061906
0.0013956168 0.0013665046 0.0013548884 0.0013064747 0.00133565 0.0012622172 0.0011956126 0.0011057985
0.0011031145 0.001208047 0.0011715288 0.0011233417 0.0010570177 0.0011131546 0.0011148822 0.0012060466
0.0010922474 0.0011167754 0.0010946885 0.0010999581 0.0019385632 0.0016453463 0.0011261285 0.0008908528
0.0010009233 0.0018216646 0.0013025517 0.0006852158 0.0009494039 0.00106779 0.0016182668 0.00091440463
0.0007901818 0.0013410818 0.0010058561 0.0013574478 0.0008197778 0.0010859673 0.0012941714 0.0008046866
0.001100485 0.0009020173 0.0011245771 0.0009457603 0.0007934619 0.0006717535 0.0006124705 0.0005434462
0.0005246865 0.00051381375 0.0006396884 0.0005306623 0.00046821753 0.0004957398 0.0005128942 0.0005694651
0.0004652505 0.00049125886 0.000549859 0.00059504784 0.0005577827 0.00057576905 0.00061622064 0.00063278695
0.0006734973 0.0006450739 0.0006875996 0.0007083912 0.0006496734 0.0006635503 0.0014442416 0.0011036101
0.0008254469 0.0007292666 0.00076369883 0.0011876593 0.0008873748 0.0007147928 0.0007151046 0.0008160739
0.0009806823 0.00082942407 0.0008885899 0.0009755522 0.0009890948 0.00083465147 0.00085910014 0.0011400491
0.0010661302 0.00095654506 0.00081817486 0.001060673 0.0009817557 0.0007822669 0.0007649586 0.0005174622
0.00050813984 0.0005648773 0.0005962254 0.0006269324 0.00049054966 0.0004802065 0.0005286646 0.0005545619
0.00055838533 0.00051173667 0.00051896356 0.00051591906 0.0005010415 0.0005298048 0.0005352245 0.00057053886
0.00059188885 0.0005702345 0.0005680582 0.0005035058 0.00052195136 0.0005218359 0.00050055934 0.00047020637
0.002353448 0.001978655 0.0016159229 0.0015070052 0.0013413681 0.0021223323 0.0014385964 0.0012569416
0.0011880713 0.0011880059 0.001608699 0.001142419 0.0010935336 0.001206638 0.0015420193 0.0013345755
0.0010821339 0.0009952803 0.0010540055 0.0014173327 0.0013616036 0.0010231255 0.0010691555 0.001079377
0.001305646 0.0006957887 0.0007777436 0.00085648044 0.0007018839 0.0006370915 0.0006524623 0.00068839884
0.00066845975 0.0006036793 0.0006222015 0.00052342337 0.0005376394 0.0005920147 0.0006405855 0.00070831296
0.00052268675 0.00058275537 0.00073850143 0.0007638979 0.00074283814 0.0005856966 0.00060861994 0.0007237032
0.00072324794 0.000710194

exp_avg f4 [10]
00000000: 6bed 063c 73cf a53b 4c1d 45bc 7e42 c63b
00000010: 85d8 43bb 74f2 cd3b c618 a63b a5be 5ebb
00000020: 7f1a bf3c 7055 3b3c
0.008235316 0.0050601303 -0.012030911 0.006050407 -0.0029883694 0.006285006 0.005068871 -0.0033988145
0.023328064 0.011433944

exp_avg_sq f4 [10]
00000000: dee3 643b e612 5b3a 00d3 7a3a 1b87 aa3a
00000010: 8bcd 313b 898d 343a 226a bf3a 8301 1f3a
00000020: b377 403b 78fa 173a
0.0034925858 0.0008357003 0.00095681846 0.0013010235 0.002713057 0.00068875455 0.0014603774 0.0006065594
0.0029368221 0.00057975156

exp_avg f4 [20, 10, 5, 5]
00000000: e05a 4abc 55ff 38bc e89e 01bc acfc b1bb
00000010: bdcb c3bb bfdc 823b 4761 cb3b c930 2c3b
00000020: 0c6d 36bb ced8 a1bb 70a7 153b 79b9 713b
00000030: ed20 813b 95d5 0dbb 5c4e 46bb 75cf 55bc
00000040: 55e0 a0bb 5608 1eba cf2f 69ba 86ab e6ba
00000050: 7611 69bc dea1 6dbc 09c4 80bb 1f45 2839
00000060: e0aa 893a de44 a537 b911 59ba 3619 42ba
00000070: 6c3b 52ba 0e00 623a 9827 22bb bbd0 a5b9
00000080: 7855 c239 c01a 24b9 81df 4ab9 31de a83a
00000090: 62bc 6eb8 c315 a1ba faba cdba b586 3bbb
000000a0: bd61 c43a b39a 7bba c66f 61ba 428a 32bb
000000b0: c46e bdba 42a9 733a 85c9 1ebb 233c 4eba
000000c0: a4a6 05bb feba 85ba 1fdb 143b efe8 e43a
000000d0: 27ae 92ba 7a87 d6ba fa33 60ba d38c 4cbb
000000e0: 47cb f6bb ce70 06bc 2813 34bb fd9d 2d3b
000000f0: 50b9 07bc dd02 03bc c494 34bb 0d0c 5a3b
00000100: 568f ae3b 3816 efba dc05 053a 9186 813b
00000110: bbe4 543b 0e64 353b 0799 d6b9 ea9d b239
00000120: 7dfa 083a 90b4 f239 efe2 83ba 1e99 4cba
00000130: 396a ae39 59b1 4eba 6183 beba bb10 faba
00000140: fff0 0db9 c467 99b7 7094 873a 12c0 5b39
00000150: b5e0 03ba 18d6 15bc 6646 0ebc 3aa5 c7bb
00000160: 9853 15bb 0f09 7738 503e b3bb 073f 98bb
00000170: 2750 14bb e561 14bb 71fb 5eba cf79 c7ba
00000180: 2a4c a1b8 f75f d0ba 6488 83bb 68f3 84bb
00000190: d851 91b8 7dab 2cba daaf 15bb c3be 70ba
000001a0: 1d33 c03a 235b ddba 9020 89ba f4c7 29bb
000001b0: 7f1b c3ba 98e0 bdba 2f09 423b d3cb f039
000001c0: c574 6cbb 4225 83bb 8704 27bb f207 9e3b
000001d0: fd4b 0fba 73f7 47bb 4738 4cbb 8110 7fbb
000001e0: c2f3 933b 7bf9 45bb b59a 16bb 98fa f3b9
000001f0: 29d6 5cbb d357 383a b5b0 9b39 2959 8f39
00000200: c7bf df3a 1b73 273a 2e45 06bb c7ab 0aba
00000210: ece9 e6ba d980 8fba b25c 51ba 9353 85ba
00000220: a32d 1abb 0ca5 88bb f93d 3cbb df67 baba
00000230: 5c1a 6a3b eaf7 1a3b 2d62 db3a 2002 c6b7
00000240: b258 66bb 97bf 90bb 4566 75bb 0f55 28ba
00000250: 3af3 ad3a f4d9 c1bb 531f 8fbb 8508 b0bb
00000260: f1e8 87bb 22f8 f9ba 39d9 98ba 0d67 e7bb
00000270: 66a8 b5bb e6df 2fbb 4a83 f2ba 792e 6dbb
00000280: 7eb2 853b 3500 8c3b 0f21 4f3b 4aeb 123a
00000290: 1cb7 adba bdeb 15bb 2570 0bbb cd91 4439
000002a0: c778 7c3a a318 37ba 4e2d 02bc 9d71 a3bb
000002b0: e6f3 0abb 8408 8fb9 af1b 523a 4544 e9bb
000002c0: d405 dfbb bc6a 6fbb 942a 16bb b3bb 5dbb
000002d0: f4bf 32b8 70b0 613a 34a8 a7b8 9abb 29bb
000002e0: fd60 80bb 9320 333b e4c4 553a f614 3dba
000002f0: 333a faba 09be 86ba dddb b5bb 07f2 a8bb
00000300: acdb 35bb c8d0 0fbb 4b67 0a3a 4113 cabb
00000310: 49de a5bb f558 eeba 98ac 26ba 1504 3c3a
00000320: 2564 55ba 542a 0bba 833a 13bb a083 bfba
00000330: 66ce 5bb9 4277 1dbc bbfb 1dbc 275e b9bb
00000340: 2f54 9bba f699 8a3a fb50 1f3b 5f46 543b
00000350: 4c60 0b3b 7070 543a acfa f0b9 f9bd c739
00000360: 80cc 8b3a 56fc d9b9 148e f8ba e55a edba
00000370: 36b2 0fbc 4d41 53bb ee97 d4b9 3a64 f7b9
00000380: 130c 9038 ab8a 6ebb 4a44 8ebb c961 42bb
00000390: a8ab f8ba b086 6aba 35ad 60b8 1cf0 f4ba
000003a0: d1f2 3cbb 6e30 23bb 3369 bdba 70c8 3a3b
000003b0: d437 363b 787f 603b fbfe e33a 514a efb8
000003c0: 50fc 6fbb 59f3 5b39 436b 543b fbc6 763b
000003d0: d080 31ba 574b 1cbc 371a 11bc 72cf e6ba
000003e0: 8cee 2b3b 9af6 773a bffd 4438 2612 b539
000003f0: e141 a739 612a 143a f692 263a 4882 4b3b
-0.012350768 -0.011291345 -0.007911421 -0.005431732 -0.005975215 0.0039936 0.0062066647 0.0026274195
-0.0027835993 -0.004939175 0.0022835396 0.0036884232 0.0039406926 -0.0021642197 -0.0030259108 -0.01304995
-0.004909555 -0.0006028464 -0.00088953687 -0.0017598725 -0.014225354 -0.014503924 -0.003929619 0.00016047478
0.0010503195 1.9701602e-05 -0.0008280534 -0.00074042694 -0.0008019719 0.0008621224 -0.0024742838 -0.0003162677
0.00037066243 -0.00015650224 -0.00019347483 0.0012883601 -5.6919067e-05 -0.0012289811 -0.0015695982 -0.0028614227
0.0014982742 -0.0009597942 -0.00085997244 -0.0027243053 -0.0014452566 0.0009294936 -0.0024229002 -0.00078672374
-0.0020393515 -0.0010202823 0.0022713614 0.0017464439 -0.0011190817 -0.001636728 -0.0008552667 -0.0031211867
-0.0075315568 -0.008205606 -0.0027477238 0.0026491873 -0.008283928 -0.007996288 -0.0027554492 0.0033271343
0.0053271456 -0.0018240875 0.00050744205 0.003952809 0.0032484967 0.0027678045 -0.00040931275 0.0003406846
0.0005225314 0.00046292366 -0.0010062138 -0.00078047987 0.00033267008 -0.0007884703 -0.0014535004 -0.0019078472
-0.00013536586 -1.8287341e-05 0.001034392 0.0002095702 -0.00050307374 -0.009145282 -0.0086837765 -0.0060926946
-0.0022785421 5.8897826e-05 -0.0054700747 -0.0046461853 -0.0022630782 -0.0022641358 -0.00085060956 -0.0015218797
-7.691265e-05 -0.001589774 -0.0040140618 -0.0040573366 -6.9293834e-05 -0.0006586833 -0.0022840411 -0.0009183699
0.001466367 -0.0016888123 -0.0010461975 -0.0025906535 -0.0014885514 -0.001448649 0.0029607525 0.00045928228
-0.0036080342 -0.004002244 -0.0025484876 0.0048227245 -0.000546634 -0.0030512481 -0.0031161474 -0.003891975
0.004515142 -0.0030208516 -0.0022980396 -0.0004653528 -0.0033696985 0.000703213 0.0002969556 0.00027341515
0.0017070704 0.00063876965 -0.0020488012 -0.0005289879 -0.0017617322 -0.0010948434 -0.000798653 -0.0010172002
-0.0023525737 -0.0041700657 -0.0028723462 -0.001422163 0.0035721278 0.0023646303 0.0016737633 -2.3604429e-05
-0.0035148081 -0.0044173705 -0.003744499 -0.0006421366 0.001327134 -0.0059158746 -0.004367748 -0.0053721094
-0.004147642 -0.0019071142 -0.0011661417 -0.007061845 -0.0055437563 -0.0026836335 -0.0018502262 -0.003619103
0.004080116 0.0042724856 0.0031605398 0.0005604519 -0.0013253423 -0.0022876107 -0.002127656 0.00018746332
0.00096310343 -0.0006984567 -0.007945372 -0.004987909 -0.0021202504 -0.0002728143 0.00080149894 -0.007118734
-0.0068061147 -0.0036532125 -0.0022913562 -0.0033833801 -4.2617277e-05 0.000860936 -7.994511e-05 -0.0025899173
-0.003917812 0.0027332648 0.0008154644 -0.0007212901 -0.0019090831 -0.0010280024 -0.0055498914 -0.005155805
-0.0027749343 -0.0021944512 0.0005279674 -0.006166846 -0.005061899 -0.001818447 -0.0006358116 0.0007172239
-0.0008140228 -0.00053087366 -0.0022465296 -0.0014611371 -0.00020962357 -0.009610953 -0.009642537 -0.005656976
-0.001185065 0.0010574448 0.0024309743 0.0032390577 0.0021267114 0.00081039127 -0.00045963132 0.00038097778
0.0010665804 -0.0004157747 -0.0018963241 -0.0018108754 -0.008770516 -0.0032234967 -0.00040548987 -0.00047186186
6.868704e-05 -0.003639857 -0.004341637 -0.0029660335 -0.0018972056 -0.00089464616 -5.3567073e-05 -0.0018687281
-0.0028831253 -0.0024900693 -0.0014450907 0.0028500818 0.0027804272 0.0034255665 0.0017394716 -0.000114102506
-0.0036618896 0.00020976122 0.0032412566 0.0037655223 -0.0006771209 -0.009539447 -0.008856348 -0.0017609431
0.0026234714 0.0009459049 4.696636e-05 0.00034536532 0.00031901806 0.0005652067 0.00063542963 0.0031052995
