2020-S/exercise/01_MNIST_classifier/checkpoint/model_epoch6.pth (torch, 269279 bytes, 24 tensors)

conv1.weight f4 [10, 1, 5, 5]
00000000: edbb a93d 4909 273e 46e7 a0bc 325d 28bd
00000010: 316d c63b c018 263d 80f1 3fbe ba44 37be
00000020: 69e7 e0be d3cf 85be aa9d 083e 6070 1a3e
00000030: bc90 4abe 99c0 f3be 81ae 9bbe 8b65 3f3e
00000040: 4eba fd3d 73fd 053f a95e ac3e 7e27 7a3e
00000050: 65da 8a3d 059a 88bd cfb4 3f3e 0b90 063f
00000060: 54da de3e ae3e 573e 0b77 dabc 17fc 5fbe
00000070: bc52 023e 2187 713e 54e5 edbd 3ef0 8cbd
00000080: 8dff 7dbe 5fc5 1fbe 7dd0 e23e efc3 85be
00000090: 362a efbc de6e 3ebe 9ab6 cd3d 58d1 eb3e
000000a0: 0983 5bbd 7f92 683d 9ec6 1b3e 72b4 843e
000000b0: 8b75 0e3e 2d1a 803e c39b 9b3d d4b9 b4bc
000000c0: 726e 843d 8213 95bd e153 fb3c 203d 923e
000000d0: 43eb ec3c ba2b 323e 8fb5 d6bb b06e 8b3d
000000e0: ebb3 b13d b097 3b3e 92af 383d a7f2 79be
000000f0: 187b d63e 29e9 b23e 3fa4 643e 33ef 9abe
00000100: aed8 d6be 3cbd c53e e000 a4bd bc7f 1dbd
00000110: 230b c5be e231 85bd db33 103e 4866 79be
00000120: 3a0e 25be 62c9 78be 129e f2bd 9a73 863e
00000130: e710 6b3e 01eb 483e 167a 2a3e 3bd1 a23e
00000140: 27a9 7bbe 05e6 a2bb 41c8 503e 1bea 643d
00000150: 7f4d 1abd f2d6 6dbd 29b0 6abe 7416 8fbe
00000160: 14df 36bd 9940 d8bc c3ad 34be c343 c7bd
00000170: 2777 80bd 1f3f 66be 3b83 44be 2cee 3e3e
00000180: 0b80 e5bd 4a1e 42be 2454 1fbd 9daf 9c3c
00000190: c4d8 98be 2655 fcbd 6268 0cbe 809f 9a3e
000001a0: d6e5 363e c739 a4be 4779 85bc 2e80 303d
000001b0: 4a86 693e beb8 a53e e0b7 a5be d046 eebc
000001c0: 7bf6 133e 43be dc3e cff7 6b3d ca98 95be
000001d0: 2bf5 a23d 7736 0e3e 6e7b 8b3e 892e c5bc
000001e0: 83f3 38be 73cc 37bd 9600 9b3e 1abc 263e
000001f0: abdb 183c 5843 dc3b 30e9 e63e 037b d63e
00000200: 1d8f 433e 0b4f b8be 4d5d 2cbe 988c fa3d
00000210: 694d e33e c2f9 623e d293 cbbd 3c9e 02bf
00000220: de49 52be 8f60 cb3e 3e91 d43e 47d8 6cbd
00000230: 8382 01bf 3ca7 4bbe cf34 02be d251 b43e
00000240: 5f6e 243d b7dc 2bbd 82e3 9ebe a3e8 15bc
00000250: bd25 cfbc 43f8 883d 9701 573c e9be 9abe
00000260: 1993 30be 0d29 a93d 8b53 6bbe b9e6 a33e
00000270: a8b2 603d 1be1 70be f3ab 43be c479 90be
00000280: de91 863d 5257 d4bc 69df ff3d fc73 3c3e
00000290: 7f69 223e d224 29be 0326 063e 890b 223e
000002a0: b9d2 293e 3c7a b13e e49c 613e feb6 123e
000002b0: 7dfe 9a3d 7bad aebe 52d4 f7bd 9628 bdbd
000002c0: cbd6 bebd 9d91 a3be 550d 42be 276f a0be
000002d0: f50a 743c 126c 83be 5c40 da3c b975 5ebe
000002e0: 3603 963d 8739 b8bd e386 5cbe 19ca 0ebe
000002f0: b9ce c3bd b1cb ac3e 96f8 aabc 8287 d93d
00000300: 3512 103e d194 273e c7b0 913e 34ca 143d
00000310: 0420 813d edc9 033d cb1f 5a3e 773d d73e
00000320: f4b0 b7bd 21f2 07be b7e4 e53d d2b1 373e
00000330: b2fd a7be 9219 2abe 36ce ab3c ffa1 6cbd
00000340: e3ca 1e3e fff9 36be 6607 b3bd b836 263e
00000350: 1794 3d3d 39e1 e43d 02d1 d63e 5afd 9f3e
00000360: 79d3 ac3e 04ff 0a3e 08eb 413e aeee c33e
00000370: 14c1 47be a86a c3bd 2c12 ebbe 901b acbe
00000380: ddd2 65be 2075 7d3d 9a3c 13bc 6dd0 193e
00000390: a83d 62be 35dd a6bb 07c0 60bd 3021 fe3d
000003a0: e20e 553e b4ab cdbe 0357 dfbe 0c67 ca3d
000003b0: 9ac1 df3e be57 fd3d ef7f 48be 558d b1bd
000003c0: ea1b 18be 97c1 533e 0609 eb3e c27d 3f3e
000003d0: 1586 3dbe 01d5 77be 0adc eb3d 6167 5cbd
000003e0: a685 ee3d 3c26 30be
0.08287797 0.16312136 -0.01964153 -0.041104503 0.006055497 0.040550947 -0.18744469 -0.17897311
-0.43926552 -0.2613512 0.13341394 0.1508193 -0.19781774 -0.47607878 -0.30406573 0.1869108
0.123890504 0.5233986 0.3366597 0.24429128 0.06779937 -0.06670002 0.18721317 0.5256354
0.43525946 0.21020004 -0.026668092 -0.21873508 0.12726873 0.23586704 -0.116160065 -0.0688176
-0.24804516 -0.15602635 0.4429969 -0.26126048 -0.029194932 -0.1859698 0.10044594 0.46058154
-0.05359176 0.056780335 0.15212485 0.2591892 0.13912027 0.2501997 0.075980686 -0.022061266
0.06466378 -0.072791114 0.030679645 0.2856226 0.028920775 0.17399493 -0.006552405 0.06808221
0.08676895 0.18319583 0.045089312 -0.24408971 0.41890788 0.34943512 0.2232828 -0.3026062
-0.41962188 0.38620937 -0.080079794 -0.038451895 -0.3848506 -0.06503655 0.14082281 -0.24355423
-0.16118708 -0.24295571 -0.11846556 0.26260072 0.22955666 0.19620897 0.16648135 0.31800255
-0.24576245 -0.004971268 0.20388891 0.055887323 -0.037671562 -0.058066316 -0.22918762 -0.27946818
-0.044646338 -0.02639799 -0.1764441 -0.097297214 -0.062727265 -0.22485016 -0.19190685 0.18645543
-0.11206063 -0.18956867 -0.038898602 0.019126708 -0.2985288 -0.12320928 -0.13711694 0.30199814
0.17861113 -0.3207533 -0.016293181 0.04309099 0.22805133 0.3236751 -0.32366848 -0.0290865
0.14449494 0.43113908 0.057609376 -0.2921813 0.07956918 0.13887964 0.27242607 -0.024070041
-0.18061642 -0.044872712 0.30273885 0.16282693 0.009329717 0.006721895 0.45099783 0.41890725
0.19097562 -0.35997805 -0.16832466 0.122338474 0.44394997 0.22165588 -0.09940304 -0.51022696
-0.2053599 0.39722106 0.4151706 -0.057823446 -0.5058977 -0.19888014 -0.12715457 0.35218674
0.04014432 -0.041958537 -0.3103295 -0.009149703 -0.02528655 0.06687977 0.013122938 -0.30223778
-0.17243613 0.08259783 -0.22981088 0.32011965 0.05485788 -0.23523371 -0.19108562 -0.282179
0.06570791 -0.025920544 0.12493784 0.1840362 0.15860556 -0.16517952 0.13100438 0.15824713
0.1658429 0.3466357 0.22032505 0.14327618 0.07568071 -0.3411673 -0.12101044 -0.09236257
-0.09318312 -0.31947032 -0.18950398 -0.31334803 0.0148951905 -0.2566839 0.026642017 -0.21724595
0.07324831 -0.089953475 -0.2153583 -0.13944282 -0.095609136 0.33749154 -0.020870488 0.10621549
0.14069445 0.16365363 0.28455183 0.03632565 0.063049346 0.032174993 0.2130119 0.4203908
-0.08969298 -0.13275959 0.112252645 0.17938927 -0.32810742 -0.16611317 0.020972352 -0.05777168
0.15507083 -0.17868803 -0.087416455 0.16231811 0.046283808 0.1117577 0.41956335 0.3124798
0.3375509 0.13573843 0.18937314 0.38268036 -0.19507247 -0.095418274 -0.45912302 -0.3361478
-0.22443719 0.061879277 -0.0089866165 0.15020914 -0.22093832 -0.005092288 -0.05487063 0.12408674
0.20806459 -0.40170062 -0.43621072 0.09882936 0.43702394 0.12370251 -0.19580053 -0.08669535
-0.14854398 0.20679317 0.45905322 0.18700317 -0.1850818 -0.24202348 0.115165785 -0.053809527
0.11646585 -0.17202085

conv1.bias f4 [10]
00000000: 3c7a 643d 0b7e 9b3d 8448 68bd dd2f a1bd
00000010: 25ca d5bc df89 cdbd 3da3 d43d 73a7 b2be
00000020: af69 f33d 32ab 89bd
0.055780634 0.075924 -0.05670978 -0.07870457 -0.026097367 -0.100360624 0.10382698 -0.3489338
0.11885392 -0.06722106

conv2.weight f4 [20, 10, 5, 5]
00000000: d880 9d3a aa35 933d f333 713d 8019 95bd
00000010: 7ae6 8dbe 9589 f73c d21f 293d c6cd ba3c
00000020: 1bbf 0fbe 4049 0abe d63e f33d dc0d e53c
00000030: 7d3e c9bd 25dd e9bd b3a2 39be 68e1 e83c
00000040: ac1f 9a3d eee4 48be 467e 1cbe 3687 f5bd
00000050: f01d 173e 88a0 243d a928 29be 6d6e 4abd
00000060: b83c eabb 1bd9 96bd efc9 03bd ded4 41bd
00000070: 7b70 fcbc 85bf 1b3d 582f 293d 99aa 123d
00000080: e2c2 a2bb 07af 263d 247a 273c 7f90 ab3d
00000090: bdbe ddbc 4522 ac3d da94 c1bc 422f 39bd
000000a0: f2bf 713b 8d2c 263e f3ab 2b3e 4e14 833d
000000b0: 75b6 78bd 7c6e 0a3e 3e44 c23d fcce e23d
000000c0: 8da2 503e 28b2 d0bd 8079 0fbe 3a85 0ebe
000000d0: 4d4d 35bd 6a8d b63c cfb4 a23c 500e dc3b
000000e0: dfb0 31bc 80ee 3339 8616 863b 1a7f d2bc
000000f0: 5e4e a63d 71a7 adbd 0f5c 41be 3f9c c0bd
00000100: 19d7 d13c fe46 163c 2577 65be 4394 2dbd
00000110: 61b5 5f3d 5d4a b23d 3d36 e5bd 065c bd3b
00000120: dc76 9a3e 0485 cf3d 5e6c 743d c811 36bd
00000130: df84 01be d7bb 2dbc bfb5 1b3e c309 2c3e
00000140: d9b5 d4bc 7b3e d63b 1582 48bc 1e83 4f3d
00000150: 66ac a63d 20a3 083d ae5f 0cbe 440f 33be
00000160: 5e29 e6bd 91f3 72bd bce9 0cbe 84cd c7bd
00000170: 9ffe 56be 25bf 5fbe 03d5 30bd 7025 73bd
00000180: 27e7 babd 2828 2fbe e0b8 c9bd 86d0 f5bd
00000190: ce02 97bd 9751 85bd 7ec1 98bc cfaf 1abd
000001a0: b42a e43c 4c22 79bd 4ce1 acbd 2550 d6bd
000001b0: b159 4e3d bea6 903d 42df 873d 5376 83bd
000001c0: 3d9b 56bd 123a 853c e415 103e e06b 9b3d
000001d0: cf88 8f3d 4aa4 443d 5a1c 533d 9640 b03d
000001e0: d228 d8bd 1ea9 ec3d 6c37 913d 1580 5b3e
000001f0: 6b0d 343d b773 0bbe 39c6 11be 7c55 99be
00000200: 925d 9dbe 249b a7be 0b26 cbbb 33ed d6bd
00000210: fecb 2c3d 95ae 003e b5b9 94bd 82d2 b5bd
00000220: 47e8 26bd e6d3 0f3e 6822 d43d 6641 373e
00000230: 0491 abbd ed77 3fbd 4cb3 983d ba34 6e3b
00000240: 47eb 49bd e48c 333e a105 273b 1b4e 49bd
00000250: d41a 10bd a5ca 35be 1df1 62bc dbe9 8b3d
00000260: 481e 32bb 0283 bbbd 158b 28be 27b6 243d
00000270: 6caa af3d 53a4 23bb 256d b43d 7071 bdbd
00000280: 4080 383e c0c4 933c 7dc1 9ebd 00f4 0c3c
00000290: 9d90 bbbc 3072 a63c 2ecb debd 24d8 fb3c
000002a0: 6c7d 573d a1fc 813d 89a6 bf3d d5af 243d
000002b0: 4d3d 55bd 5f6f 0bbd 8262 bd3d 12b6 0bbd
000002c0: e28f c03d 863b 4f3d 6883 1b3d 8e6a fd3d
000002d0: 85df e13c 0da5 bdbd cb39 44bc a7f8 9a3d
000002e0: 99dd d8bd 99bb 973d 428f d4bd 25b6 ae3c
000002f0: 3f86 26bd 9eb6 48be c2c8 07be f879 bdbd
00000300: 1722 10bd 5809 34be c96e a2be 20cc 0ebd
00000310: 93ee a53d 736d 0c3e 54d4 883b d4a8 3abe
00000320: 33b1 3ebd 7d8c 62bd c7ea b9bc 5432 8fbd
00000330: b571 47be 63dc 3fbd cec3 8a3c 2e75 593c
00000340: e844 b5bd 0ef3 67be a204 3b3d df80 8c3d
00000350: dc4e bebd 8cfe ccbd ee80 24be 09da c23d
00000360: be3a 4dbd 392b ecbb 40de abbc 6045 66bd
00000370: 4d7f 003e 38a8 92bb e55c 0e3e 2490 e4ba
00000380: 5cb4 60bd 0ab7 2dbd 1c3d 09bc 99b4 b8bd
00000390: a38e f83b 9f57 63be 950f 123d c6bf 79bb
000003a0: f8c0 ed3d b356 433e 3a55 0abd 7dd0 7d3a
000003b0: a831 353a bced eb3d c0cd 193e 31a8 803b
000003c0: 7739 2f3e 7aa2 85bd 535d f33c 91cd a23d
000003d0: d8d6 463d 230a 5eba 8e8f 9fbd 7113 6a3d
000003e0: 685a 9bbc 117e 1d3d 1cdc b23d 9400 85bd
000003f0: 66db 12bd 2482 033d 93f4 613d 15fa 773e
0.0012016548 0.0718797 0.058887433 -0.07280254 -0.27714902 0.030216971 0.04129011 0.022803199
-0.14037745 -0.13504505 0.118772194 0.02796071 -0.09826372 -0.11419133 -0.18128471 0.028427795
0.07525572 -0.1961858 -0.15282544 -0.1198868 0.14757514 0.040192157 -0.16519417 -0.049421716
-0.0071483515 -0.07365628 -0.032175 -0.047322147 -0.030815354 0.038024444 0.041304916 0.035807226
-0.0049670795 0.040694263 0.010221992 0.0837717 -0.02706849 0.08404974 -0.023630548 -0.045211084
0.003688809 0.16227932 0.16764812 0.06400357 -0.06072088 0.13518709 0.094856724 0.110746354
0.20374508 -0.101902306 -0.14011192 -0.1391801 -0.044263173 0.022284228 0.019861607 0.0067155734
-0.010845392 0.00017159618 0.0040920405 -0.025695372 0.08120416 -0.084792025 -0.18882774 -0.094048016
0.025615262 0.009172199 -0.22408731 -0.04237772 0.054616336 0.0870559 -0.11191986 0.0057787923
0.30168808 0.101327926 0.05967366 -0.04445055 -0.12648343 -0.010603867 0.1520605 0.16800599
-0.025965618 0.00653821 -0.012238045 0.050662152 0.08138351 0.033358693 -0.13708374 -0.17486292
-0.11238359 -0.059314314 -0.13761038 -0.09755996 -0.20995568 -0.2185026 -0.043171894 -0.059361875
-0.0912612 -0.17105162 -0.09849715 -0.12002663 -0.07373582 -0.06509703 -0.018646952 -0.03776532
0.027852394 -0.060823724 -0.084414095 -0.10464505 0.050378505 0.070630535 0.0663438 -0.06419053
-0.05239414 0.016263042 0.1407085 0.07588935 0.07008516 0.04800824 0.05154071 0.08606069
-0.10554661 0.11555694 0.07090649 0.21435578 0.04395811 -0.1361836 -0.14235772 -0.29948032
-0.3073545 -0.3273555 -0.0061996034 -0.10494461 0.04218673 0.12566598 -0.07261983 -0.08878042
-0.04074886 0.14045677 0.10358125 0.17896041 -0.08377269 -0.04674523 0.07456073 0.0036347345
-0.049296644 0.17534214 0.0025485533 -0.049146753 -0.035181835 -0.17753084 -0.013851431 0.06831714
-0.0027178694 -0.09155847 -0.16459306 0.040212777 0.08577427 -0.002496977 0.0880988 -0.09250152
0.18017673 0.018038154 -0.07751749 0.008603096 -0.022896105 0.02031812 -0.10878597 0.030742712
0.052609846 0.06347013 0.09357936 0.04020675 -0.052060414 -0.03404176 0.092473045 -0.034109183
0.094024435 0.050593875 0.037967116 0.12373839 0.027572403 -0.092599966 -0.01197667 0.07566958
-0.105891414 0.07408828 -0.10378887 0.021327088 -0.04065537 -0.19600913 -0.13260177 -0.09251779
-0.03518876 -0.1758169 -0.31725147 -0.034862638 0.08102145 0.13713627 0.004175702 -0.18228465
-0.04655571 -0.05530976 -0.022694958 -0.06992021 -0.1947697 -0.046841037 0.01693907 0.013272567
-0.088510334 -0.22651312 0.045658715 0.06860518 -0.09292385 -0.100094885 -0.16064808 0.09514243
-0.05010485 -0.007207301 -0.02098 -0.056218505 0.12548561 -0.0044756196 0.13902624 -0.0017437977
-0.054859504 -0.042410888 -0.008376386 -0.09018821 0.007585363 -0.22201394 0.03565939 -0.003810869
0.116090715 0.19076042 -0.033772685 0.0009682251 0.00069120014 0.115199536 0.15019894 0.0039263
0.17111765 -0.065251306 0.029707586 0.07949365 0.048544735 -0.00084701384 -0.07791053 0.057147447
-0.018964007 0.038450304 0.08733389 -0.06494251 -0.035853766 0.032106534 0.055164885 0.24216492

conv2.bias f4 [20]
00000000: 69b5 ca3d 5f47 38bd 5ce8 33bd 192e a2bd
00000010: f5ff d7bd a16b 23be 2f26 263e fac4 80bd
00000020: d77c 423d 11b4 42bd 0dae 3fbd c4b5 6c3c
00000030: 7739 523d cba0 853d 389d e4bc a5c1 5bbc
00000040: 15a9 103b 10ca 8d3c 23e6 213d dfd3 2bbd
0.098978825 -0.04498994 -0.043922767 -0.07918949 -0.10546867 -0.15959026 0.16225503 -0.0628757
0.047482338 -0.047535006 -0.046796847 0.014447633 0.051324334 0.065248094 -0.027906999 -0.013412868
0.0022073437 0.017308265 0.039526116 -0.041950103

fc1.weight f4 [50, 320]
00000000: 5adb 993d 9b40 b03c db2d 18bd 6550 cbbd
00000010: 32ac 5b3d 4589 49bd 5e08 dd3a dbcb a03d
00000020: 8e19 de3d b39a af3d 811e 9dbd 9151 26bd
00000030: ad08 f63d a5c6 b9bc 3214 16be ad9e 7cbe
00000040: 9615 6f3d 02f7 e43d b6d5 283d e803 c03d
00000050: fe16 8f3d 31f6 893d c856 3e3d 1e91 a43c
00000060: f5fd 23be bb5f 98bd cbda 693d f284 adbd
00000070: bd87 5abd 9ed9 94bc beeb dfbd 6d1a 25be
00000080: 1731 13bd dec5 0a3d b193 0b3e 9212 9bbd
00000090: f915 b9bd 2190 e3bd c7cc 8a3d 4e95 713d
000000a0: 2250 1dbe bee5 c6bd ae04 68bd 3e66 be3d
000000b0: 4466 3cbd d0ea a9bb 3b25 103e 741a 663e
000000c0: 4c1f 1d3d e72a fe3c 2694 9ebc d194 74be
000000d0: fc50 5f3d b5c1 5d3c 2408 31bd 3012 b2be
000000e0: 760a fe3c ec8f 56be d035 05be c1df 913d
000000f0: 2441 b2bd eba9 4f3d 12b6 33bc 896e b43d
00000100: d88a 083e 1d13 32ba 57f4 ea3c 9961 9f3b
00000110: 349c 833d 3abd 1b3d 0669 b7bc be99 5e3d
00000120: 5526 8fbd 2125 0abe 118e e3bc b0c8 d2bd
00000130: d0b8 82be e859 90bd 29ce bcbc 8d0a 16bd
00000140: 9344 dcbc 7397 1bbd 0455 e53d 6ba3 7d3d
00000150: 0b98 36bd 2294 543b 21d4 823d f282 e73d
00000160: 528d 0a3d 3d84 343d 2fdf 363e bdd5 b53d
00000170: edf9 96bd 660e 0cbc 8cac 5a3d 8370 21bd
00000180: ed01 773d 5114 fd3d 8be1 173c aac5 ba39
00000190: 4936 893c 07c0 973c 11c3 5e3c 4fda a2bc
000001a0: d98c f83d 9b05 073d f1c7 953c c467 893d
000001b0: 94ec de3d c33b dcbc 7bae 83bd 65fc 32be
000001c0: 8d4c 2b3d d6a6 813c 30e0 f03a 8bfd 053e
000001d0: 40f5 353d 0a2b 323d b23e a03d 61f2 a2bc
000001e0: 81fa 9fbd 5369 90bd c0e8 ccbd 599b eabd
000001f0: 5656 57bd 44f5 dbbd 6820 af3c 2a4f ee3d
00000200: d051 063e ebd3 1f3e 5eeb a43d 03d5 01be
00000210: ef02 ab3d d617 d83d b7ba 76bd c0a2 b1bd
00000220: 9ef6 b03c 3c04 68bd cb25 453d f62c 5d3d
00000230: 8dfd 803d 9bd7 b43d 84e8 a43d a5c5 a8bd
00000240: d52f 08bd 448b cb3c a39a 153d 2585 7a3c
00000250: 0f07 c9bc b238 6d3c 0895 353d 81bd e03d
00000260: 1ae4 38be 6cfd 4d3d bddc ddbd 9256 e93c
00000270: f649 a1bd 2f26 4bbc 463a a1bd d78f 3f3d
00000280: 4534 023c 44ae dd3c 534b 223c 99e7 0fbd
00000290: 2dde ed3b f6aa 913c 94f5 2bbe 7fe0 06be
000002a0: ec57 ac3d 785a 223d f8ca debd 277c ca3d
000002b0: 06da babc 3c8d 2fbc a200 2fbc 8818 273d
000002c0: 6d0f 253d d392 ccbb 1a2b 8a3d 27cc 82bc
000002d0: 5ef7 f7bd 0607 36be eca3 8fbd b77c bd3d
000002e0: 60fd fbbd 7f05 e6bd 5d3c 683d 392e d63d
000002f0: d424 363c 33ec dcbc 14cd b33d 3141 d43d
00000300: f745 1c3c b38f 46bc bff7 05bc 901c bfbb
00000310: 5616 87bc 0e21 4fbc c26c 543d 57de 973c
00000320: 4f00 b33d e608 b13d e34c 67bc 0f3f 08be
00000330: 92dc d83d d755 9d3d d8be b9bd e841 38be
00000340: 932e ff3c a25c f13c 50f5 9abd 052c b63d
00000350: 6921 0bbd 5201 083d f6b9 12be 39fb c83c
00000360: aeb1 d3ba 5862 483d 0dad 0f3e 3c24 1c3d
00000370: 038f 5d3c c9b7 893d 893c f13c cd2a 09be
00000380: 0650 41bd 7eb9 4a3c 35cd c8bc d511 89bb
00000390: f462 5c3c 3900 a3bd c810 6abc a123 603c
000003a0: 657a 5bbd b185 ba3c c11a 49bd db13 13bd
000003b0: 64b7 5f3d 84f3 823d 4393 8abd 6ab3 a2bd
000003c0: 1080 0e3e 7b56 4c3d f4ce c93c 2aa2 dcbd
000003d0: 561d 2fbd 0b37 39bc 8595 203c 65e7 263d
000003e0: 0f06 ea3c 9578 823b e0c6 d03c cded 193d
000003f0: ea8c 823d ead4 a93d 8b52 44be 0081 0fbe
0.07512541 0.021515181 -0.037153106 -0.099274434 0.053631015 -0.049203176 0.0016863456 0.07851382
0.10844718 0.085744284 -0.07671834 -0.04060513 0.120133735 -0.022677729 -0.14656141 -0.24669905
0.058370195 0.111799255 0.041219436 0.09375745 0.06986807 0.067364104 0.04646948 0.020088729
-0.16014846 -0.07440134 0.057093423 -0.08472623 -0.053352106 -0.018170174 -0.10933636 -0.16123362
-0.035935488 0.033880107 0.13630559 -0.075719014 -0.09037394 -0.11111475 0.067773394 0.05898028
-0.153626 -0.097117886 -0.056645088 0.09296845 -0.045995966 -0.0051854625 0.14076702 0.22471029
0.038359925 0.031026317 -0.019357752 -0.23884894 0.054520592 0.013534953 -0.043220654 -0.347795
0.031010848 -0.2095334 -0.13008809 0.07122756 -0.08703831 0.050699156 -0.010968702 0.088101454
0.13334215 -0.0006793009 0.028680963 0.0048639295 0.06426278 0.038022257 -0.022388946 0.05434584
-0.06989733 -0.13490726 -0.027777703 -0.10292184 -0.25531626 -0.07048398 -0.023047524 -0.036631156
-0.026888167 -0.03798623 0.11197856 0.061923426 -0.044578593 0.0032436927 0.06388117 0.11304273
0.03382618 0.044071425 0.17858575 0.08878658 -0.07371888 -0.008548355 0.05338721 -0.03941394
0.06030457 0.12357391 0.009270082 0.00035623956 0.016749518 0.018524183 0.013596312 -0.019879488
0.121362396 0.03296433 0.018283816 0.06709245 0.108849674 -0.026883965 -0.06429764 -0.17479093
0.04182105 0.015826624 0.001837736 0.13085 0.04442334 0.043498076 0.07824458 -0.019890966
-0.07811452 -0.07051339 -0.10005331 -0.114554115 -0.05257257 -0.1074014 0.021377757 0.11636193
0.13117146 0.15608184 0.08052705 -0.12678914 0.08350169 0.10551421 -0.06023666 -0.0867362
0.021601971 -0.056644663 0.048131745 0.053997956 0.06298361 0.08830186 0.08052161 -0.08240823
-0.03324874 0.02484668 0.036524426 0.015290533 -0.024539499 0.014478849 0.04433158 0.10973645
-0.18055764 0.05029051 -0.10833118 0.028483663 -0.07875435 -0.01239924 -0.07872443 0.046768036
0.007947032 0.027060635 0.009905654 -0.035132978 0.0072591514 0.017781716 -0.167929 -0.13171576
0.08415207 0.03963706 -0.10878557 0.098869614 -0.02280904 -0.010714825 -0.010681303 0.04079488
0.040297914 -0.0062430887 0.06746502 -0.015966488 -0.121077284 -0.17776117 -0.070136875 0.09252303
-0.12304187 -0.11231517 0.056698192 0.10458035 0.011117179 -0.026968097 0.0877935 0.10363997
0.009538165 -0.0121192215 -0.008176743 -0.0058322623 -0.016490143 -0.012642158 0.051861532 0.018538637
0.08740293 0.08644275 -0.014117452 -0.13305305 0.105889454 0.07682388 -0.09069604 -0.17993891
0.031150138 0.029463116 -0.07566321 0.08895115 -0.03396741 0.033204384 -0.14328751 0.024533855
-0.0016150975 0.048921913 0.14030857 0.038120493 0.013522866 0.06724507 0.02944781 -0.13395233
-0.047195457 0.012373326 -0.024511913 -0.004183034 0.013451327 -0.07959027 -0.0142862275 0.01368037
-0.05358352 0.022768827 -0.04909778 -0.035907608 0.054618254 0.06394103 -0.06766369 -0.07944377
0.1391604 0.04988716 0.024634816 -0.10773118 -0.042752586 -0.011304627 0.009801273 0.04074802
0.028567342 0.0039816597 0.025485456 0.0375803 0.063745335 0.08292563 -0.19172113 -0.14014053

fc1.bias f4 [50]
00000000: 9133 463e cf97 863d bc01 82bd f60a 6e3d
00000010: 7eb9 1a3e 4767 ad3c f39f 553e 4b07 a73d
00000020: d77c 293e 0174 313e 0d43 bc3d bb04 c43c
00000030: e0cd 4e3e 2aa7 8e3e c26d dc3d 660d 4bbd
00000040: bc45 263d 00f6 743e 864f 93bd af9b 1d3d
00000050: 88b3 383e 5510 193e f5b1 4b3e 961c 883d
00000060: 4996 4f3e b709 303e c966 ca3d 5f9f 4f3e
00000070: c8fc 9c3e c2b4 b13e f326 3e3e e869 913d
00000080: 474d b33d 265d 4d3d 8b39 2c3d 7d4b 703d
00000090: cb1a 3f3e 2536 56bd 8784 d93d 221f 2d3d
000000a0: 12a0 203e 7393 c8bc c356 7ebd 4f47 673d
000000b0: 75bc 3a3e 7647 6a3d 5370 a63d a42c 093e
000000c0: f4f0 c23c fb8e bd3e
0.19355609 0.06571924 -0.06347987 0.058115922 0.15109822 0.02116741 0.20861797 0.08155688
0.16551529 0.17329408 0.091924764 0.023928037 0.20195723 0.2786191 0.10763122 -0.049573325
0.040593848 0.23921967 -0.07192902 0.03847855 0.18037236 0.14947636 0.19892104 0.06646077
0.20272173 0.17191206 0.09882886 0.20275639 0.30661607 0.3470822 0.18569545 0.07100278
0.08754974 0.05013766 0.042047065 0.05866574 0.18662564 -0.05229773 0.10620981 0.04226602
0.15686062 -0.024484372 -0.06209446 0.05646449 0.18235953 0.057197057 0.08126893 0.13395935
0.023796536 0.37023148

fc2.weight f4 [10, 50]
00000000: 2477 003e 940b c0bc 0644 c13d 57ae 84be
00000010: acc4 92bd 2d3d 763d 32c2 91be b580 96be
00000020: 7738 88be d96b a0be 1b24 323e 996e 08be
00000030: 54db d33d b2ee 1dbd 010e 4f3e d29b 57be
00000040: 6935 1b3e 4dba 093e dac6 d0be 5372 ccbe
00000050: d26b 7dbe f5ef 4d3d 0016 21be 4607 c43d
00000060: d0da a1be 590f 9dbe 4a3f 8c3d 2270 63be
00000070: d52a fb3d 403a 323e dba8 90be 4226 893d
00000080: bb49 423d edda 3ebe 23d8 37be baf5 79be
00000090: 0450 ddbe ad2a 56be 20b3 283e cca9 b1ba
000000a0: cd80 b3be 4a6a 31be fd51 9fbe 919e 84be
000000b0: 4b83 4fbe 561d 1d3e 752c cc3d b778 1c3e
000000c0: 1c10 f23c a87e 103e bf6d 993d 9080 85be
000000d0: 794a 37be 72a8 adbc 5455 0c3e 66ca e03d
000000e0: df5b 3e3e 6e35 873c c26c fc3d 5e75 fd3d
000000f0: 824b 17be 5e1d 29be c96c ae3d 7c6c 5a3e
00000100: e4a7 57be e217 30be fd27 77be aa30 9e3d
00000110: bbe3 a9be c9ab 70be 8645 2f3e 50a6 303c
00000120: ffee 423e e4ad 9abe 0c0d 9c3d f23e e33d
00000130: 7601 80be 5870 293e 09c4 6d3d c4ca 283e
00000140: 119a d43d b12a 9bbe c91f 0cbe 78df 79be
00000150: 184d ebbd 0693 cb3d 620a d13d c6ce 1ebe
00000160: 65d9 3cbe 51bf 83be af38 403e be42 acbe
00000170: c437 35be bcb3 a53d 4db4 033e 19b0 7bbe
00000180: c04a 1abe 249a 6dbe 1f10 9cbe ba63 ba3d
00000190: b9dd de3d 6ce2 9c3d 7f4b c73d 91d1 77be
000001a0: 119b 153e 1cb2 5fbe eb96 5f3e 9c02 3c3d
000001b0: e573 193e 6f78 f7bd a2ef e13d e964 bb3d
000001c0: 3c65 52be 2b89 523c adda d4bd 2617 ec3d
000001d0: c136 1e3e 8057 f33d aa15 14be dd69 19be
000001e0: f5cd 40bd 1e9a bb3d 7b5c 01be 5e93 58be
000001f0: 2800 45be a35c f13d b5ed 9f3d 17a3 623e
00000200: 2d6d 42be 65b2 09be 69a0 b83d d2cb 4bbd
00000210: a1d0 373e ed38 84be 6dc5 b1bd d59a 003e
00000220: 4923 97be 81e0 71bd 393e 4cbe de1d 31bd
00000230: 5e08 43be e7ae 5ebd eee6 fb3d 627e 0f3e
00000240: edf4 97bd 5b1a d93d a70b dc3d 3e88 99bd
00000250: e396 87be cd6e 20be 391f dbbd 8738 51be
00000260: 0413 a23d dda8 85be 730d 8bbe 4018 423e
00000270: 2cd4 eabc f60f a9ba aa15 f63d a341 1f3e
00000280: f17e 113e 63ce 86bd 423f 26be 93ba 66be
00000290: b37a 4bbc 0d22 5d3d 4cef 8dbd 0be6 6bbe
000002a0: ef04 c33d a4e3 9d3d d76a 6abe e439 803d
000002b0: 0bce 10be 1c68 71be 8aee 123e 2a68 043e
000002c0: 2900 bf3d 0486 16be 81d8 b13d 646f 99be
000002d0: f688 20be eb97 c83d f064 343e bf95 f3bd
000002e0: f801 2cbc 2b7a 063e 53df e53d 4a4d bebd
000002f0: 81ac 3fbe 1436 a23d 41e2 eebc cc37 2fbe
00000300: 5ddb a63d e2c4 f23d 77f7 133d c4b4 0abe
00000310: f997 e33d e7e9 92be 0190 10be acbe da3d
00000320: b88f 803c 1764 543e 3d8f d13d ce9f fe3d
00000330: c2cb 0d3e d6c3 85be 6a31 04be 3573 e3bd
00000340: 465b 50bd a7e4 16bd cc9e 32be 5a26 84bd
00000350: ea53 f2bd 616b 4e3e ec4f a8be 3c93 e73d
00000360: 9eb5 793d bfe6 b6bc ed86 25be 96e1 633d
00000370: 9fc5 303e 2d10 92be df4b 2d3e 6abc b73d
00000380: b5d5 44be 62fb 97bb 993a cb3d e578 80bd
00000390: 3640 20be 8075 01be 743f c5bd e715 33be
000003a0: 3555 e3bc d3d4 c9bd 3d56 463e b913 0c3e
000003b0: 85f9 ac3d 9ebd 523e 8432 7abe 3e98 afbd
000003c0: 7f36 0f3e 1813 28be 52aa 6cbe 096e 033e
000003d0: 0c13 87bd 43ad 27be 1393 a0be 5c26 2d3e
000003e0: 872a 973d ecb3 75be da7a 20be c60b 72bd
000003f0: 6682 9fbe 1bd1 14be 2cd6 37be 2f1c 403e
0.12545449 -0.02344302 0.094368026 -0.2591426 -0.071664184 0.060116936 -0.28468472 -0.2939507
-0.2660558 -0.3133228 0.17396586 -0.1332344 0.10344568 -0.038557716 0.20220186 -0.21055534
0.15157093 0.13449974 -0.40776712 -0.39930972 -0.24748161 0.05027767 -0.15731049 0.095717
-0.31612253 -0.30675772 0.06848009 -0.22210744 0.12264029 0.17405033 -0.28253826 0.0669675
0.047433596 -0.18638201 -0.17953543 -0.24410143 -0.4322511 -0.20914717 0.16474581 -0.0013554632
-0.35059205 -0.17325702 -0.3111724 -0.25902227 -0.20264928 0.15343222 0.09969417 0.15280424
0.029548697 0.14110816 0.074916355 -0.26074648 -0.17899503 -0.021198485 0.13704425 0.109761044
0.18589734 0.01650497 0.123254314 0.12375902 -0.14774898 -0.16515109 0.08516843 0.21330446
-0.21060139 -0.1719661 -0.24136348 0.07724126 -0.33181557 -0.23503031 0.17116365 0.0107818395
0.19036482 -0.30210793 0.07619676 0.1109599 -0.25001115 0.16546762 0.05804828 0.16483599
0.10380948 -0.30306008 -0.13684 -0.24401653 -0.11489314 0.09940152 0.102070585 -0.15508565
-0.18442304 -0.257319 0.18771623 -0.3364467 -0.17697054 0.08090922 0.12861748 -0.24578895
-0.15067577 -0.23203331 -0.3048105 0.091010526 0.10882134 0.07660374 0.097311966 -0.24201037
0.14609934 -0.21845287 0.21834914 0.045900926 0.14985617 -0.12083518 0.110320345 0.091501065
-0.2054643 0.012850086 -0.103932716 0.11527853 0.15450574 0.11881924 -0.14461389 -0.1498179
-0.047071416 0.09160255 -0.12632935 -0.21149966 -0.19238341 0.11785247 0.07809011 0.22132526
-0.1898696 -0.13446958 0.09014971 -0.049754925 0.1795068 -0.2582468 -0.08680234 0.12559064
-0.29519108 -0.059051994 -0.19945611 -0.043241374 -0.1904616 -0.05436602 0.12299906 0.14013055
-0.07419763 0.1060073 0.1074441 -0.07496689 -0.26482305 -0.15667267 -0.106993146 -0.2043172
0.07913783 -0.26105395 -0.27158698 0.18954563 -0.028665625 -0.0012898433 0.12015851 0.15552382
0.1420858 -0.06582334 -0.16235068 -0.2253211 -0.0124193905 0.05398755 -0.06930408 -0.23036973
0.095224254 0.07709435 -0.22892319 0.06261042 -0.14141099 -0.23574871 0.14348808 0.1293036
0.093262024 -0.1469956 0.08683873 -0.29967797 -0.15677246 0.09794601 0.1761663 -0.11893796
-0.010498516 0.13132541 0.11224236 -0.092920855 -0.18718149 0.07920471 -0.02916062 -0.17111129
0.08147309 0.11853959 0.036124673 -0.13545519 0.11112971 -0.28694078 -0.14117433 0.10680899
0.01569353 0.20741306 0.10232399 0.12432824 0.13847259 -0.26125973 -0.12909475 -0.11105958
-0.050868295 -0.036839154 -0.17443389 -0.064526275 -0.118324116 0.2015815 -0.32873476 0.113073796
0.06096422 -0.022326825 -0.16164751 0.055635057 0.17262886 -0.28527966 0.16923474 0.08971484
-0.19222148 -0.0046381215 0.09923286 -0.06273059 -0.15649495 -0.12642479 -0.09631243 -0.17488824
-0.02775059 -0.09855046 0.19368835 0.13679399 0.084460296 0.20580146 -0.24433333 -0.0857396
0.13985632 -0.16413534 -0.23111847 0.12834944 -0.0659543 -0.16374688 -0.3136221 0.16909164
0.07381158 -0.23994416 -0.15671864 -0.05909326 -0.31154174 -0.14532892 -0.17952794 0.18760751

fc2.bias f4 [10]
00000000: 5e5b ad3e 2a34 003f 4b57 dfbd 7053 91be
00000010: aae0 57bd 2897 71ba c7b4 7ebd a0ef cbbd
00000020: eec2 963e 765d f6bb
0.3385877 0.50079596 -0.10905322 -0.2838397 -0.05270449 -0.00092159444 -0.06218412 -0.09957814
0.29445595 -0.0075184656

exp_avg f4 [10, 1, 5, 5]
00000000: 9110 89bc aefa 4ebc 01b6 6fbb 7c25 3b3a
00000010: 7d61 3e3b 5baa 7abc 25f9 50bc b65d f8ba
00000020: 5321 63ba 0b46 923a 832c 07bc 6097 56b8
00000030: c7eb e53b 0a87 ac3b c2c2 a3b9 7a37 09bc
00000040: 7a99 cb3a 2dc4 4a3c c2ed 3a3c d159 eb3a
00000050: 89d2 27bc 7235 8a3a 86fb 473c 0fcb 993c
00000060: 1003 343c 13b1 26b9 c621 c13a 7c4b 7a39
00000070: 8d4e fdba 511c 0abc 774c d93b 47ca c63b
00000080: 7420 3d3b 2c83 91ba 081d 17bc cd6b 313b
00000090: 1c96 cf3a 8d5b 58bb 9d54 e3bb 6cd8 02bc
000000a0: 017e d4bb 5dff 8bbb a912 92bb 08e3 b4bb
000000b0: 6bf7 14bc 6d24 b6bb 596b 92bb 2a01 39bb
000000c0: fdfa 98bb 7065 c5bb c906 a63b 321c e63b
000000d0: 7392 5d3b 7326 4dbb dc73 d9ba 9105 9fbb
000000e0: 6a33 80bb 2d9f efbb 51bd d2bb 4a37 5f3b
000000f0: ff17 56bb 08c4 87bb d603 d1bb 7267 d6bb
00000100: 9f0d 32bb aff8 d33b c510 893b dd1c 81bb
00000110: bb15 8aba 8657 d13a 9b10 c93b a17f c6b8
00000120: f092 8eba 6e19 a33b a574 353c 5c99 903a
00000130: 9778 343b ae73 be3b 19d6 ca3b e69b 963a
00000140: a5e1 163b e8b3 963b d152 953b 89ca c13b
00000150: 5316 5b3a fd97 983b 3360 773b d442 5a3b
00000160: 7193 903b cc1f 793b 8b61 803b 0f4a 053b
00000170: 6c75 1c3b f4fc 243b 60bf 0c3b 0087 873a
00000180: dd04 e7ba 274f a2bb 9430 84bb c97d 17bb
00000190: 636a 023c b109 3b3b 7c43 2bba 83c3 2f39
000001a0: b668 0ebc 7633 113c b50f 213b 7796 04bc
000001b0: 02e1 3cbc 15f4 87bc dd40 68bb ec6b 06bc
000001c0: fb7e 88bc 9275 86bc efff 51bc 628e a73a
000001d0: 99b4 8d3a 0e78 05bb 062f c1bb fa0a 7dbb
000001e0: bdcf 923b c97c 953b 58c8 103b 1af3 fcba
000001f0: 4903 a8bb ad95 d0ba 8aac 3cbb 9cbc 943a
00000200: dec4 083c e103 033c 4498 17bb c9a2 1ebb
00000210: da12 0d3b fa0f 273c b1f4 4d3b 96b3 a6bb
00000220: 3803 25bb 4da7 a539 1e20 9c3b f3a8 f13a
00000230: 070d dcbb 979d 56bb 4b49 ea3a 1c14 883b
00000240: 8c8d 853b e068 ccbb 5783 2cbb 2edc f4b8
00000250: dda7 4b3b 6898 c83a 3ed9 15bb 084c b23a
00000260: e85f c23b 9861 2d3c 4253 303c e102 f1ba
00000270: db07 d13b 3512 173c 7c5e 7c3c 2c01 723c
00000280: 5a34 593b 572c 423c fd1b 883c d2d7 953c
00000290: 807c 113c 334f 8a3b 5b73 663c eed8 9b3c
000002a0: de4c 893c 263b 413c 645d ab3b f445 2a3c
000002b0: a6a9 703c 0559 613c 1ac8 4f3c f7b2 f7ba
000002c0: d8ba 3abb 0e93 72bb 7f37 77bb 072c 03bc
000002d0: e839 093a 0968 6a3a abc7 c8ba ee30 b4bb
000002e0: d1a8 07bc 7c02 853b bfa2 843b 91c4 de39
000002f0: 98fb b6bb 7be6 32bc f005 383c 3449 823c
00000300: f908 613c 71dc b13b e404 4239 1d10 0a3c
00000310: bcac 4d3c e8b4 463c 05f6 0b3c 663b 153c
00000320: 0354 21bc b76d 33bc 21a9 cebb cb3d 82ba
00000330: fa28 06bb c65f f5bb d425 fbbb c032 57bb
00000340: c2b4 923a 4ccc 1f3a 3e0a ddba 6ccc b5bb
00000350: 542d 93ba d34d b63b 9dd3 043c 1807 c43b
00000360: 21c7 e73a 019d a43b e644 043c 7461 393c
00000370: 1aec 6239 bde6 e63a ef70 143c 3dad 443c
00000380: c860 163c 63e2 5fbb 407a 0dbc 678d 2bbc
00000390: 79b2 6ebb cab8 ee3a 74f1 f6bb 9af8 f8bb
000003a0: 052d 81bb 4918 60ba 1596 073b e8b1 17bc
000003b0: dd33 03ba 57f8 873b 861e ac3b f131 0f3c
000003c0: 15dd ccbb d88d d33b eebd 293c 245e 213c
000003d0: 2e8b 243c 5eec dfbb 427e ac3b 88d2 b73b
000003e0: 4c25 893a 20ec dd3a
-0.016731532 -0.012633009 -0.0036576989 0.00071390695 0.0029049807 -0.015299405 -0.012754713 -0.0018948826
-0.00086643285 0.001115979 -0.0082503585 -5.1162555e-05 0.0070166322 0.0052651213 -0.0003123489 -0.008375043
0.001553341 0.0123758735 0.011409225 0.0017955845 -0.010243067 0.0010544492 0.012205964 0.018773584
0.010987058 -0.00015896959 0.0014734797 0.00023869978 -0.0019325778 -0.008429603 0.00663143 0.006066594
0.0028858455 -0.0011101714 -0.00922323 0.002707231 0.0015837583 -0.0033013553 -0.006937577 -0.007986169
-0.0064847474 -0.004272385 -0.004457791 -0.0055202283 -0.009092192 -0.0055585415 -0.0044683632 -0.0028229454
-0.004668592 -0.006024055 0.005066727 0.007022404 0.0033809214 -0.0031303435 -0.0016590315 -0.0048529585
-0.003912379 -0.0073126764 -0.0064312597 0.0034060054 -0.0032668111 -0.004143242 -0.006378631 -0.0065430934
-0.0027168763 0.0064688544 0.0041829073 -0.0039402083 -0.0010535041 0.0015971519 0.0061360127 -9.4651485e-05
-0.0010877531 0.0049773967 0.0110751735 0.0011032033 0.0027537697 0.00581213 0.006190073 0.0011490553
0.0023022678 0.004599083 0.0045569916 0.0059140367 0.00083575136 0.0046567903 0.0037746548 0.0033303993
0.0044121076 0.0038013337 0.003917878 0.0020338332 0.00238737 0.0025175186 0.0021476373 0.0010339916
-0.0017625351 -0.0049532834 -0.0040341113 -0.0023115745 0.007959935 0.0028539712 -0.0006533188 0.00016762134
-0.008691957 0.008862367 0.0024576013 -0.008092514 -0.011528255 -0.01659588 -0.0035439052 -0.0082044415
-0.016662112 -0.016413484 -0.012817367 0.0012783522 0.0010811269 -0.0020365748 -0.005895498 -0.003861128
0.0044803307 0.0045619947 0.002209207 -0.0019298524 -0.0051273447 -0.0015913747 -0.0028789365 0.0011347714
0.008347718 0.00799653 -0.002313153 -0.0024205914 0.002152613 0.01019668 0.0031426365 -0.0050873263
-0.002517892 0.000315959 0.004764571 0.0018437192 -0.00671542 -0.003274774 0.0017874626 0.004152788
0.0040757116 -0.006238088 -0.0026323402 -0.00011675838 0.0031075396 0.001530421 -0.0022865082 0.0013602981
0.005931843 0.01058235 0.010762038 -0.0018387699 0.0063791103 0.0092206495 0.015403386 0.014770787
0.0033142776 0.011851392 0.016614908 0.018291388 0.008879781 0.004220867 0.014065589 0.019024339
0.016760286 0.011793887 0.005229639 0.010392655 0.014688885 0.013754134 0.012681985 -0.001889794
-0.0028492715 -0.003701392 -0.0037722287 -0.008006102 0.0005234764 0.0008941894 -0.0015318295 -0.005498997
-0.008279995 0.004059134 0.004047721 0.00042489593 -0.0055841915 -0.010919209 0.011231884 0.015904047
0.013735049 0.00542789 0.00018503104 0.008426693 0.01255339 0.012128092 0.008542542 0.0091084
-0.00984669 -0.010951451 -0.006306783 -0.0009936629 -0.0020471201 -0.0074882237 -0.0076644216 -0.0032836646
0.0011192786 0.0006095811 -0.0016864014 -0.0055480506 -0.0011228719 0.0055634766 0.008107093 0.005982291
0.0017683246 0.005023599 0.008073067 0.011314739 0.00021640994 0.0017616373 0.009060129 0.012004194
0.009178348 -0.0034162037 -0.008635104 -0.010470725 -0.0036422296 0.001821303 -0.0075361077 -0.007597995
-0.0039421343 -0.00085485406 0.002068882 -0.009258725 -0.00050049816 0.0041494775 0.005252662 0.008739934
-0.006251941 0.006456118 0.010360224 0.009849105 0.010042949 -0.006833597 0.0052640745 0.005609814
0.0010463386 0.0016931333

exp_avg_sq f4 [10, 1, 5, 5]
00000000: aeab 2b3b 2146 0f3b eb56 d93a b8f1 c93a
00000010: e641 b53a f3f4 123b dd0c f23a 3106 bd3a
00000020: b566 b63a 5397 8e3a e8fe eb3a adfb c03a
00000030: 5706 973a a1e7 733a 5eab 7b3a c9fc c03a
00000040: 159e 993a d390 7b3a 1326 873a 005b c03a
00000050: 7e90 a23a 7063 7c3a 10f7 893a c1bd d53a
00000060: 7686 ca3a c6cf 133a 031f 033a fd25 e639
00000070: 84b8 a739 3395 9b39 8815 093a c285 f939
00000080: f42f cb39 162c 7339 2203 9d39 d9fd 013a
00000090: 7e9e de39 c15e a439 0fee 8839 6f79 9539
000000a0: 535c fc39 4f2b d539 b71d ae39 9de7 a739
000000b0: cff7 9439 e4d2 ec39 75de cc39 c860 ae39
000000c0: 0e35 a839 04a1 9c39 8771 ff39 7893 f739
000000d0: 672a 013a 642f 133a b3f7 123a 15e8 e539
000000e0: b3bc d939 49c4 fb39 f7f7 0f3a 5e4a 1b3a
000000f0: fc9e e939 a825 e339 ec4f fe39 403a 213a
00000100: d4b0 2c3a 6ba3 0a3a 1382 083a e71f 1c3a
00000110: a705 223a ce4d 2e3a d4ba 3f3a 0b05 353a
00000120: 9f46 243a fd07 203a 4703 313a 7d5e 683a
00000130: ec22 5a3a f684 5b3a 6332 683a e9e8 763a
00000140: 1c0c 513a 42d9 443a 95a3 3e3a 49d8 453a
00000150: 619f 583a 163d 3c3a 86d5 2a3a 478b 233a
00000160: 57d6 323a 02ef 4b3a aa9f 2d3a 0a75 253a
00000170: a7ba 293a f391 373a 3468 3c3a e461 3f3a
00000180: b3ab 333a 40ad 3f3a ab32 393a 6f12 333a
00000190: a0f2 9d3a 1910 883a 8808 4d3a 73a9 263a
000001a0: 120e 393a ea1f 963a 2fd7 563a ee19 013a
000001b0: daed 1f3a 07fc 313a 5ffd 873a 98fe 1a3a
000001c0: 8702 023a 9051 4f3a e1b6 203a e0e0 613a
000001d0: ff27 083a f79d 2d3a ba37 4b3a 8ea2 063a
000001e0: 449b 3f3a 2ba7 1a3a c471 303a aeec 193a
000001f0: dd84 063a ff75 eb39 949c ec39 c219 da39
00000200: ca77 d739 daef e139 1b07 fa39 4867 d639
00000210: d255 bd39 7b2d bc39 011d cf39 dd4d eb39
00000220: 6fd5 c839 31de b839 a73b c039 f2d1 e439
00000230: 59b5 ea39 0ac7 e439 9742 e139 ef1d df39
00000240: c037 f039 8250 033a 23ae 073a f622 0c3a
00000250: 9597 f639 3aca fd39 4754 913a 9c08 673a
00000260: deb7 413a 54c6 313a deaa 293a bfb3 7a3a
00000270: 0c44 4f3a b69c 2b3a b90f 213a 8e39 283a
00000280: ab30 5b3a a005 493a 27f4 393a 166e 4a3a
00000290: f693 573a 2cf0 3f3a e1f9 3e3a 6b21 5a3a
000002a0: 50b2 613a 3b0d 5d3a 1695 373a e66d 4d3a
000002b0: 680a 463a 3cfd 323a 99f9 333a 5596 d939
000002c0: 15cf d039 0205 d139 d515 dd39 dc43 f239
000002d0: 6559 cf39 1259 c639 a5d9 c639 3ecc cd39
000002e0: f932 e439 dbc5 de39 a97e d639 127f c639
000002f0: f9c7 c139 eebb e039 ab6f f039 bc60 fe39
00000300: 4229 f439 cd56 ed39 20f8 ee39 3f31 ee39
00000310: 5098 f239 03d8 e739 83ad dc39 a0be d839
00000320: 4e91 b23a 9bac a23a b131 973a eda3 903a
00000330: 18e1 663a a372 a73a b2de 7b3a 2060 673a
00000340: ad09 483a dc3c 363a 5b88 843a 28d6 453a
00000350: 47ef 323a 0ad5 283a f25e 533a 2eba 6e3a
00000360: 376c 3e3a ce5e 213a 055f 1b3a f00b 543a
00000370: 6137 6d3a 013d 2f3a 4ef5 273a 2b0f 223a
00000380: 1046 513a f6fa 203a b318 373a 26b4 5b3a
00000390: f80e 3f3a 55ec 263a 02ce 193a 4cc8 2c3a
000003a0: 7c65 333a 5339 1e3a cc4d 1e3a 0833 173a
000003b0: b1e9 223a bed0 243a c5af 223a 5f48 3a3a
000003c0: 35c7 103a d937 1f3a 2109 373a c576 383a
000003d0: 69a8 3d3a 1430 143a 5c2c 193a f6ba 2b3a
000003e0: 4c62 2b3a 68ef 293a
0.0026194858 0.0021861868 0.001658169 0.0015407121 0.0013828843 0.0022423833 0.0018466968 0.0014421401
0.0013916107 0.0010878838 0.0018005045 0.0014723443 0.0011522275 0.000930423 0.0009600426 0.0014723773
0.0011720086 0.00095964706 0.001031103 0.0014675558 0.0012402681 0.00096278545 0.0010525901 0.0016307161
0.001545145 0.00056385656 0.00050018745 0.00043897322 0.00031990197 0.00029675066 0.00052293437 0.00047592638
0.00038754905 0.00023190709 0.00029947708 0.0004958786 0.00042461226 0.00031351115 0.0002611731 0.0002850997
0.00048133972 0.00040658793 0.00033210005 0.00032025288 0.00028413392 0.00045170553 0.00039075656 0.00033259974
0.00032082986 0.00029874605 0.00048721975 0.00047221384 0.0004927278 0.0005614667 0.0005606368 0.00043851198
0.00041530057 0.00048020695 0.0005491967 0.00059238623 0.00044559676 0.0004332487 0.00048506202 0.00061503425
0.0006587629 0.00052886334 0.0005207371 0.00059556816 0.0006180652 0.0006649167 0.00073139113 0.00069053535
0.0006266627 0.0006104706 0.00067525025 0.00088641775 0.0008321244 0.0008374 0.0008857606 0.00094188616
0.0007974522 0.00075091806 0.00072723004 0.00075471826 0.00082634954 0.00071807334 0.0006516803 0.00062387105
0.00068221 0.00077794504 0.0006623218 0.00063116907 0.0006474652 0.0007002644 0.00071871583 0.00073006586
0.0006853893 0.0007311888 0.000706474 0.0006831055 0.0012050457 0.0010380774 0.00078214006 0.00063576474
0.00070592866 0.0011453603 0.0008195517 0.00049248233 0.00061008113 0.0006789569 0.0010375193 0.0005912571
0.0004959483 0.0007908577 0.00061307667 0.0008616578 0.0005193948 0.0006622965 0.00077521394 0.0005135917
0.0007309208 0.0005899544 0.00067308196 0.0005871755 0.00051314925 0.00044910607 0.00045130088 0.0004159939
0.00041097245 0.00043094048 0.0004768901 0.0004089421 0.0003611283 0.0003589204 0.00039503726 0.00044880706
0.00038305993 0.0003526076 0.00036665538 0.0004364397 0.00044767073 0.00043635844 0.00042964958 0.00042556177
0.00045817904 0.000500925 0.00051757897 0.0005345786 0.00047033714 0.0004840659 0.0011087739 0.00088132336
0.0007389764 0.00067815674 0.00064722996 0.00095635274 0.0007906563 0.0006546484 0.00061440055 0.0006417268
0.0008361439 0.00076683797 0.00070935715 0.00077220926 0.0008223647 0.000732186 0.00072851597 0.00083210197
0.00086096395 0.00084324525 0.00070031115 0.00078365055 0.0007554651 0.0006827896 0.0006865501 0.0004150147
0.0003982714 0.00039867318 0.0004216867 0.00046208396 0.0003954872 0.00037831865 0.0003792766 0.0003925282
0.00043525526 0.00042490553 0.0004091163 0.00037860178 0.0003696082 0.00042864628 0.00045859566 0.00048518728
0.00046570046 0.00045268834 0.00045579765 0.0004543159 0.0004627132 0.00044220695 0.00042090946 0.00041340757
0.0013623626 0.001241106 0.0011535195 0.0011035182 0.00088073453 0.0012775253 0.00096080743 0.00088262744
0.00076308363 0.0006951818 0.0010111438 0.00075468654 0.0006825816 0.00064404367 0.0008063159 0.00091067224
0.000726405 0.00061557896 0.000592694 0.0008088937 0.00090490846 0.00066848105 0.00064070977 0.000618207
0.00079831574 0.0006140912 0.00069845765 0.0008381031 0.00072883023 0.00063676137 0.00058671844 0.0006591126
0.00068434305 0.00060357637 0.00060388143 0.0005767797 0.00062146323 0.00062872085 0.0006206001 0.0007106121
0.0005522848 0.00060736906 0.00069822563 0.0007036741 0.0007234873 0.0005652916 0.0005843097 0.00065509917
0.00065377797 0.00064825127

exp_avg f4 [10]
00000000: 38f6 523c a9b1 25bc efec bfba 73dd 413b
00000010: b617 9ebc bc95 5c3a 46d7 5b3a 8bda e53b
00000020: fc7d 9e3b bcb6 223b
0.012876086 -0.010113158 -0.0014642755 0.0029581457 -0.019298416 0.0008414646 0.0008386265 0.0070145777
0.004836796 0.0024828156

exp_avg_sq f4 [10]
00000000: 4d1d 193b 3b10 063a 59b9 2c3a a809 5f3a
00000010: 14a6 db3a 56cb 0a3a e30d 853a 2008 e639
00000020: e72f e13a 9a0f 123a
0.0023363412 0.0005114113 0.0006588898 0.0008508214 0.0016757869 0.00052945816 0.0010151233 0.00043875072
0.0017180414 0.0005571783

exp_avg f4 [20, 10, 5, 5]
00000000: d0d2 c239 a61c 0d3b 9122 5c3b 3240 2e3b
00000010: 5b8f b13a 57f9 87bb cab3 85bb 02de 69bb
00000020: ee10 f3ba 919b 823a bfb3 78bb 10cb fbbb
00000030: 030e 11bc 0628 edb8 b195 2f3b e8f1 d5bb
00000040: c833 38bb 4015 da39 6167 15ba 9690 34ba
00000050: 75bd e9ba c502 87ba 1d86 bbba 4ac4 14ba
00000060: 5d27 7fba 3edf c0b8 c230 353b 8582 793b
00000070: 1bd7 dc3a 5765 34b9 70a6 503b 976d 6d3b
00000080: ddc2 6c3b a99a 8aba 38b5 bbba e15c a73a
00000090: c9f5 833b 3353 8fb9 8f93 17ba 3903 b23a
000000a0: 0182 12ba 30d5 66bb 6397 87bb cd8c 923a
000000b0: 5f97 0dba 8196 74bb b124 7bb9 fa0a a239
000000c0: 4e2d d5b9 b3b3 8aba 20b2 bbbb f842 b0bb
000000d0: 855c 3cba 7c8a 4a3b cefa a13b 8f56 61bb
000000e0: 1de0 83ba ebe9 213b 13b8 a43b 2b9e 833b
000000f0: d6a3 56bb bc1b 073b ecb9 573b 9045 a3ba
00000100: f956 b2ba 4e30 63ba 1157 123b 22da 75bb
00000110: af12 cdbb a34f 8cb9 d50f c6ba 7ba1 bfbb
00000120: de6c b6bb 4837 84b9 bc6d 4f3b fa9a 5cba
00000130: ae87 3e38 a232 6fba 2db8 f2ba 6ff0 cbb9
00000140: 60ba 0abb bbeb afba 4687 05ba e062 19b9
00000150: 7809 fab9 7b1a b1ba 0382 713a 528e 0439
00000160: 25bd f939 ef9a 7bba cd75 54bb f070 e1ba
00000170: c943 02bb 5076 13ba 2fe2 d33a 430c b0ba
00000180: dd48 c2ba ef45 50bb c17f e4ba 0190 973a
00000190: 5585 acba 94a2 e93a 940e 6f3b 8f7b 46ba
000001a0: e2ce 84ba e7d0 1b3b 18b5 893b 5c20 b53b
000001b0: 80c4 00bb d142 57bb 3015 313b 5ca8 913b
000001c0: 5268 3339 0071 20bb f638 e2ba 2707 443b
000001d0: de9e d7b8 4878 d1ba 9a0b fdba f3f3 91ba
000001e0: 4842 953a 3160 76ba 0995 8eba e2bd eeba
000001f0: 5fa6 5aba 6e1b 2cbb 0d8f 9b3a 810f 833b
00000200: 7769 423b 4d92 5aba b831 83bb 31a1 e4b9
00000210: 2b98 923b 38f0 3f3b adfa 783a ef06 60ba
00000220: 79ee 333a cadc 9c3b d871 40b9 a23b 1938
00000230: 0b64 87ba 0914 4ebb 97e3 34bb 99d1 69bb
00000240: 6360 8d39 04cf 73ba 775e 6db9 b53f 6ebb
00000250: 0c52 cabb 87df d03a 5aea 31ba 4697 863a
00000260: 36bd 2e3b 632f 443b 3cbc bc3a 67a1 4e3a
00000270: c7c1 9bb9 e8db 71b9 67e3 21ba 91f5 293a
00000280: 09db 7dbb 2bcd 3cbb 5c1b 40bb 256c 02bb
00000290: 077c fb3a 32d0 0dba 31df 0cbb fa7b cbbb
000002a0: 6ef4 deba 0386 01ba f55e e6bb dc9c 32bb
000002b0: bd09 b43a 0bda 2539 4cf9 b3ba 69be 753b
000002c0: 7fd0 a23b 7e0b 713b 9ea0 9339 a975 24b9
000002d0: 6fba e53a b906 083b aa3f 56bb 3f3c 09bb
000002e0: 859a 1ab9 7ba8 98b9 8472 e1ba 0a77 dfbb
000002f0: 871f 09bb abff 473a 749c a7ba edf4 2abb
00000300: caf6 78bb b822 ceba 1beb b938 ff0c 97bb
00000310: 3eb2 3dba 0698 52ba ac94 c4ba 4c3d ac39
00000320: 125a 2ebb 5f15 303b d381 7f3b af6e 3f3b
00000330: 974f f53a b2da fc3a f324 9e3b 8818 d43a
00000340: e078 fb3a b0b4 3b3a 6974 36bb 14e2 a3ba
00000350: 6751 8dba 85d3 5139 f6c2 d53a 2e61 a53a
00000360: 220f faba 9405 88bb fc59 b0ba 98fe fc3a
00000370: c165 f2bb 7811 d9bb 6f91 a2ba 64b0 2e39
00000380: fca3 073a 16ef a7bb 759b 85ba 95db 393b
00000390: a455 be3b 8ced 003b a2f5 6dbb 6a77 f8b9
000003a0: 7247 e03a 5cfc 153b 256a af3a 9537 d3ba
000003b0: f3f3 4bbb a5df 11bb 4b0c 25bb d41f ec3a
000003c0: f539 23ba 9569 ceb9 3b37 d2ba 4c5e a1bb
000003d0: e680 55ba 6c55 f9ba 67aa 04bb 0fc5 feba
000003e0: 071d 31bb 3e38 38ba c454 c13b 99c3 1d3b
000003f0: 6cc4 27ba 6f5b 1fbb 12b6 40bb 2d00 033c
0.0003715963 0.0021531968 0.003358994 0.0026588556 0.0013546752 -0.0041495967 -0.0040802704 -0.0035685305
-0.0018544474 0.0009964575 -0.0037948934 -0.007684119 -0.008853438 -0.000113084956 0.0026792104 -0.0065290816
-0.0028107036 0.00041596033 -0.00056993036 -0.0006888 -0.0017832952 -0.0010300508 -0.0014306937 -0.00056750013
-0.00097333436 -9.1968555e-05 0.002764747 0.003807218 0.0016848774 -0.0001720389 0.0031837486 0.003622865
0.003612689 -0.0010574657 -0.0014320975 0.0012768769 0.0040271026 -0.00027337074 -0.0005782181 0.0013581283
-0.000558883 -0.0035222284 -0.0041379198 0.0011180878 -0.0005401279 -0.0037321153 -0.00023950894 0.00030907226
-0.0004066028 -0.0010582119 -0.0057280213 -0.005379077 -0.00071854173 0.0030905297 0.0049432283 -0.0034383868
-0.0010061298 0.0024706076 0.005026826 0.004016658 -0.0032751462 0.0020615896 0.0032917215 -0.0012456644
-0.0013606242 -0.0008666561 0.0022329728 -0.003751405 -0.006258331 -0.00026762215 -0.001511092 -0.0058481074
-0.005567177 -0.0002521819 0.00316511 -0.00084154273 4.542589e-05 -0.00091246713 -0.0018518023 -0.00038898314
-0.0021168217 -0.0013421694 -0.00050937047 -0.00014628051 -0.0004769077 -0.001351192 0.00092127937 0.0001264152
0.00047633905 -0.0009597977 -0.0032418848 -0.0017199796 -0.001987683 -0.0005625235 0.001616543 -0.0013431389
-0.001482274 -0.0031779965 -0.0017433093 0.0011563302 -0.0013162295 0.0017824941 0.0036477195 -0.0007571512
-0.0010132457 0.0023775639 0.0042024963 0.005527539 -0.0019648373 -0.0032846222 0.0027020685 0.004445119
0.00017109633 -0.0024481416 -0.0017259407 0.002991149 -0.0001028159 -0.0015981281 -0.0019305826 -0.0011135325
0.0011387551 -0.0009398489 -0.0010878156 -0.0018214548 -0.0008340831 -0.0026261467 0.0011868194 0.003999651
0.0029664913 -0.00083378406 -0.0040037297 -0.00043607646 0.0044737062 0.0029287469 0.0009497803 -0.0008545955
0.00068638433 0.0047870623 -0.00018352957 3.653358e-05 -0.0010329498 -0.0031445047 -0.0027601474 -0.0035677908
0.0002696543 -0.0009300562 -0.00022637272 -0.003635389 -0.0061743315 0.0015935757 -0.0006786935 0.0010268472
0.0026663071 0.0029935471 0.001439936 0.0007882327 -0.0002970828 -0.00023065472 -0.0006175548 0.00064834306
-0.0038735291 -0.0028808813 -0.0029313182 -0.0019900885 0.0019186743 -0.00054097467 -0.0021495337 -0.0062098475
-0.0017010102 -0.0004940929 -0.0070303627 -0.002725414 0.0013735812 0.00015816854 -0.0013730912 0.0037497527
0.0049687023 0.0036780532 0.00028157694 -0.0001568409 0.0017526875 0.002075596 -0.0032691755 -0.002094045
-0.00014744147 -0.00029117227 -0.0017200266 -0.0068196105 -0.0020923333 0.0007629345 -0.0012787716 -0.0026085929
-0.0037988895 -0.00157269 8.865279e-05 -0.0046097036 -0.0007236338 -0.00080335175 -0.0014997921 0.00032852066
-0.002660398 0.0026868207 0.0038987293 0.002921026 0.0018715736 0.001929125 0.004826182 0.0016181627
0.0019185804 0.00071604084 -0.0027840382 -0.001250329 -0.0010781706 0.0002001059 0.0016308713 0.0012617463
-0.0019077996 -0.0041510556 -0.0013454552 0.0019301949 -0.007397384 -0.006624397 -0.0012402962 0.00016659644
0.0005174277 -0.005124937 -0.0010193425 0.002835964 0.005808549 0.001967284 -0.0036309739 -0.00047391217
0.0017111136 0.0022886014 0.0013383074 -0.0016114587 -0.0031120747 -0.0022258547 -0.002518433 0.0018014857
-0.0006226593 -0.00039370047 -0.0016038188 -0.004924571 -0.00081445125 -0.001902265 -0.002024317 -0.001943739
-0.0027025358 -0.00070274237 0.0058999974 0.0024072884 -0.00063998136 -0.0024315973 -0.0029405397 0.007995647
