2020-S/exercise/01_MNIST_classifier/checkpoint/model_epoch3.pth (torch, 269279 bytes, 24 tensors)

conv1.weight f4 [10, 1, 5, 5]
00000000: b96b 713d 1cb4 ff3d f1cd bcbd f128 b4bd
00000010: a32e 10bd bcc9 363c 90b9 52be ff20 29be
00000020: 577d c7be acee 67be d19b 193e ddab 4e3e
00000030: 2b7c 1abe 2f64 e0be 445e 8fbe 711f 4d3e
00000040: 07d0 123e 1d15 053f 35db 963e f5b0 603e
00000050: 131f c83d aea5 093d 4763 623e fe98 043f
00000060: 0aee da3e 5df8 063e 06f0 c4bd 5147 63be
00000070: 6ae3 673e 5b34 8a3e 9d32 28be 7a76 dbbd
00000080: b21a 75be 932c 94bd 2f0c e03e 1cb2 96be
00000090: 2439 f2bb 420a 1bbe 5244 0f3e 1cf5 e63e
000000a0: c321 12bd 1b53 d33d e785 553e c86d 993e
000000b0: 13a3 363e 46d0 4c3e 0485 f03c 224f 23bd
000000c0: 8009 d83d b00e 67bd 8c8d a9bc 6ec2 843e
000000d0: 6b46 a6bb 957b 3e3e fc7e 213c e72d 1f3e
000000e0: 002a 883d cfb9 313e 0505 ef3d 5583 1cbe
000000f0: c2ca e93e 021d 9f3e 5000 783e 00b7 82be
00000100: 886f c8be d461 af3e f726 9bbd 3761 e3bb
00000110: 8840 ccbe 2fa5 98bd d572 523e 1fa2 5abe
00000120: bac2 28be 2da9 86be 9b8b f0bd d2df 873e
00000130: a2de 4b3e 379b 023e b12c d13d 0c4a 953e
00000140: b798 52be 758f 2ebc f7e7 273e 7e40 29bc
00000150: f0fd 93bd 77ef afbc 09e5 5fbe e4c4 8bbe
00000160: 9eab 49bd 02c7 87bc 8940 41be 5e91 9abd
00000170: 417b a4bc ad12 58be 7809 46be fb8b 223e
00000180: e68b eabd d0ca 24be 48dd 3dbd c80e 10bd
00000190: 2ada 95be 738a febd 5d3d e3bd 018c ab3e
000001a0: 10da 3e3e 4cc8 9dbe 0e98 bbbc 877f 313d
000001b0: 1477 5c3e 20e3 9b3e ed8c 9bbe 12ff febc
000001c0: 4816 ef3d 9b28 e33e 6e1a 8a3d 5ad1 86be
000001d0: 4223 d53d 0ae2 c53d 796f 973e a1c4 603c
000001e0: b8bd 24be 520e 0c3c 8be3 aa3e dae2 323e
000001f0: 1c04 d23b 3a2b 73bd b59b d53e 521a d63e
00000200: ef2a 8d3e b3c1 8abe 4e87 09be 2648 223e
00000210: fc2f d13e 7929 743e 21d3 63bd bb46 fabe
00000220: 08a5 55be 43b7 ae3e bb8a bf3e e4e5 74bd
00000230: b91a f9be fa2d 49be 6165 02be 93d6 bf3e
00000240: 7e8b 8e3d 4000 07bd f152 9abe ffce 7a3d
00000250: 906f 5fbc 813b ef3c 992d 023c 0b7c 90be
00000260: 84d2 2cbe 54d4 8a3d d6c1 72be e286 a03e
00000270: 0cf0 2b3d 55d8 71be 2c9f 4cbe d62d 8cbe
00000280: 287b a23d 3065 a5bc bbc1 163e a654 213e
00000290: fbca cf3d d8e7 debd b317 2b3e 33ed 2c3e
000002a0: b294 2e3e 293d 9e3e f7c4 4a3e 3caa 2a3e
000002b0: 183f dd3d 02c9 a1be af84 24be 12e5 1cbe
000002c0: e751 13be 9aab abbe c542 53be 1ed9 80be
000002d0: 9817 a4bc e205 97be 2fbe df3c b730 78be
000002e0: 6aa0 243e b4fa a7bd d47c 5ebe 1e11 06be
000002f0: 2f5f c0bd ee9f c63e 82ac 2d3b 72fe 1a3e
00000300: bfc8 1e3e d188 503e d1ed 9a3e 2fa4 c83c
00000310: d108 663d 7b86 1abc a432 6f3e 822e d83e
00000320: 4dd0 0bbe 1b75 05be adfd f33d 7342 4c3e
00000330: 9069 9abe cf4e 41be 22c8 283d 9a29 63bd
00000340: 2a75 433e 25ea 3abe 733e 0cbe ef74 2e3e
00000350: 5045 0f3d 0f80 e03d 2864 c93e bf8b 623e
00000360: 2ee3 9f3e b2f4 c23d 0446 2f3e 5f31 c73e
00000370: cc5e 32be 788e 65bc d9f5 c8be 391a 85be
00000380: c265 17be acce 6a3d 0543 473c e1cb ef3d
00000390: 40bb 50be b8df 073c c762 2abd 25cb c63d
000003a0: 6eb8 373e c0cf bfbe 1267 d8be f924 403e
000003b0: a5a3 e13e 0fa8 8c3d 489e 44be 5a9d 40bd
000003c0: 089e dabd 267f 4b3e 4fcc d93e 85e7 5d3e
000003d0: b857 09be b0d6 93be f080 093e da1d adbd
000003e0: 08d4 a33d 0d31 36be
0.058940623 0.12485525 -0.09218968 -0.087968715 -0.035200726 0.011156496 -0.20578599 -0.16516493
-0.38962814 -0.2264964 0.15000845 0.20182748 -0.15086429 -0.43826434 -0.28001606 0.20031525
0.14337169 0.5198534 0.29464117 0.21942504 0.09771552 0.03360527 0.22108184 0.5179595
0.42759734 0.1318068 -0.09616093 -0.22195174 0.22645345 0.2699307 -0.16425557 -0.10715957
-0.23935965 -0.07235064 0.43759295 -0.29432762 -0.0073920656 -0.15140632 0.13990906 0.4510888
-0.03567673 0.103185855 0.20851861 0.2996657 0.17835645 0.20001325 0.029360302 -0.03987039
0.10548687 -0.05641049 -0.020697378 0.25929588 -0.0050743124 0.1860183 0.009856936 0.15544854
0.06648636 0.17356037 0.11670879 -0.15284474 0.45662504 0.3107682 0.24218869 -0.25530243
-0.39147592 0.34254324 -0.07575791 -0.006939079 -0.39892983 -0.07453381 0.20551617 -0.21350907
-0.16480532 -0.26300946 -0.11745378 0.2653795 0.19909146 0.12754522 0.10213602 0.29158056
-0.20566069 -0.01065432 0.16397081 -0.010330318 -0.07226169 -0.02147649 -0.21864714 -0.27298653
-0.049235933 -0.016574387 -0.18872274 -0.07547258 -0.020078303 -0.21100874 -0.1933955 0.15873711
-0.11452465 -0.16092992 -0.04635361 -0.035170346 -0.29268008 -0.12428751 -0.110956885 0.33505252
0.18637872 -0.30816877 -0.022899654 0.04333451 0.215298 0.3044672 -0.30380955 -0.031127486
0.11674172 0.44366917 0.06743322 -0.26331598 0.104071155 0.09662254 0.29577234 0.013718755
-0.16087997 0.008548336 0.33376727 0.1746935 0.0064091813 -0.059367396 0.41720358 0.41816956
0.27571818 -0.27100906 -0.13430521 0.15847835 0.40856922 0.23843946 -0.05562127 -0.48882088
-0.20863736 0.34124193 0.3741053 -0.059789553 -0.486532 -0.19646445 -0.12733985 0.37468395
0.069602 -0.032959223 -0.30141404 0.061232563 -0.013637438 0.029203178 0.007945442 -0.28219637
-0.1687718 0.067787796 -0.23706755 0.31352907 0.041976973 -0.2361768 -0.19982594 -0.2737872
0.079336464 -0.020189852 0.1472234 0.15754947 0.10146137 -0.108840644 0.1670826 0.1688736
0.1704891 0.30906036 0.19801699 0.16666502 0.1080305 -0.3159867 -0.1606624 -0.15321758
-0.14386712 -0.3352936 -0.2063094 -0.25165647 -0.020030782 -0.29496676 0.027312366 -0.24237333
0.16076818 -0.08202115 -0.21727306 -0.13092467 -0.09393155 0.38793892 0.0026500528 0.15136126
0.15506266 0.20364691 0.30259565 0.024492351 0.05616075 -0.009431477 0.23359162 0.42222983
-0.13653679 -0.13032953 0.11913619 0.19947223 -0.30158663 -0.1887772 0.041206487 -0.055459596
0.19087663 -0.18253382 -0.13695697 0.17036794 0.03497821 0.10961925 0.39334226 0.22123621
0.31228012 0.09519328 0.17116553 0.38904855 -0.17418975 -0.014011018 -0.39250067 -0.2599657
-0.14784911 0.057326004 0.012161975 0.11708809 -0.2038393 0.008293085 -0.041598108 0.097067155
0.17941448 -0.37463188 -0.42266136 0.18764104 0.44070163 0.06867992 -0.19201005 -0.047025062
-0.10674673 0.19872722 0.42538688 0.21670349 -0.13412368 -0.2887473 0.13428092 -0.08452959
0.07999426 -0.17792149

conv1.bias f4 [10]
00000000: a737 a83d a7d0 2b3e 5f4c 8c3c be88 843b
00000010: 2cce 863c 39ad 223d d2ad 253e 6232 65be
00000020: 3750 503e 9dd0 9e3d
0.0821374 0.16778813 0.01712626 0.0040446213 0.016455732 0.03971598 0.16179588 -0.22382501
0.203431 0.077546336

conv2.weight f4 [20, 10, 5, 5]
00000000: 0e8a 99bb 9c3f 813d a133 c73c 2c15 c3bd
00000010: 311e 69be 712a 923c 2da3 293d 02c8 bc3c
00000020: 212d 0cbe dafd dfbd afe8 7e3d ac08 dabc
00000030: 4629 a5bd 3f7f 57bd 7ec3 e2bd 0633 353c
00000040: f3d2 573d d9fd 01be 09fe e0bd bd99 01be
00000050: 7a43 df3d 29db 073d 9a9e 15be 225f ecbc
00000060: 1ee4 013d 5ad5 bdbd 77d5 d7bd 4ddd 87bd
00000070: b800 88bc bed7 393d 58dd 193d 7610 133c
00000080: 9976 403c d2bd 143d 3d3d c83c 8f58 6d3d
00000090: d28f 47bd 0d9a 843d 79f6 a8bc 3749 68bc
000000a0: ce93 033a 6686 a93d b42f 343e 2bcf 8e3d
000000b0: f31e 9fbd e6ee c83d 9777 083d 436c e13d
000000c0: 9150 163e fc2e 28be de57 c6bd 2775 1abe
000000d0: 40c7 79bd 881b 30bd e962 8f3c 4531 07bd
000000e0: 80e4 95bd 428c 293c 078f e93a 1ecf 0fbb
000000f0: d420 6d3c 25d2 96bd b665 c1bd 64cb 00be
00000100: 0a30 613d cb0f 5bbd 045f bfbd 8f43 dbbd
00000110: d967 a43c dd4a 0a3e efe1 b9bd 8a08 2ebc
00000120: a1a9 3d3e eae0 f23d bba6 b83d 7015 2ebc
00000130: 90dd 84bd 2e92 1ebc 3f82 a13d 7394 b13d
00000140: 3213 c0bc 2a14 023c 60ad 57bd 4fda 8fbc
00000150: 21f7 7a3d 65ed a33c f3ec d8bd 6fec c6bd
00000160: 8ef9 febd 454e aebc 1ccb 06be 3963 f6bc
00000170: f1bf 27be 0a58 3fbe 008a ec3b 8df9 65bd
00000180: 3531 a1bd 2883 27be 6173 6cbd 6c35 6dbd
00000190: 38c2 9ebd 115f 88bd 1a62 44bd fbac 50bd
000001a0: 266d 563c 248b 78bd ea37 adbd 5afb a7bd
000001b0: 0027 403d 60bf 383d cf02 a03d 2c2e 16bd
000001c0: 8e16 7bbd acae c63c 8d53 fc3d 1cd8 d53d
000001d0: 54a9 303d 1e3a 553d 3fd9 863d 9f14 0a3c
000001e0: cb97 6bbc 9e43 a63d 3c8d 823d 2ed6 3b3e
000001f0: 32f0 83bd 5b7c 1abe da5f dabd 62ee 74be
00000200: 0418 73be 079d 97be 9f43 223d e54f 71bd
00000210: 3b47 c33c 7710 d03d a0ec b6bd 16b6 43bc
00000220: 7162 1abd cc00 f23d f7b5 8c3d 7a5c 013e
00000230: d502 d8bb 8b95 85bd 5e2d 973d 2cda 583d
00000240: 39fe d2bd 0e03 393e 1e32 ae3a c5a8 4abd
00000250: b576 733c 1602 1abe 6dee 5fbd 05ef 253c
00000260: 8824 e03b 4b70 26bd b18e f0bd d37e 353d
00000270: c773 d23d 1644 3ebc ba01 333d 20aa 50bd
00000280: 8e73 213e 4bbd f73c 16f4 81bd 7bae 793c
00000290: 6e01 7e3c 8946 333c 207b afbd ec07 df3b
000002a0: 1822 1a3d bda8 ce3d b8ff 2b3c 6252 a83c
000002b0: 2d81 34bd 4089 18bd 76ec 0c3e fa4c acbc
000002c0: afca 983d 4046 213d 99d6 0a3d 9806 003e
000002d0: 2be0 4a3c 58f5 71bd 2f9e 2a3c 26d5 813d
000002e0: 87a5 9ebd 244e 9e3d 86c5 febd 98ba 083d
000002f0: 6ab0 3fbd d7db 27be ba5e edbd 07ea 8ebd
00000300: 6a9b c53c 45aa 27be f3bd 88be 44ab 5dbd
00000310: 3522 ab3d 4d9a f23d 4ece 79bd a097 27be
00000320: 2908 86bd fa36 9dbd 7d51 bebd 28b8 f6bd
00000330: cb08 2ebe 5000 e3bc 6c41 d33c 17fb af3c
00000340: 1a6e edbb f17a 2abe 813a 463d 51a9 a23d
00000350: ca9f adbc e41e cfbd c10a debd cd11 a93d
00000360: da75 30bd 5ab0 1bbc a2d8 c2bb 20a0 44bb
00000370: baa4 9a3d 33d6 24ba 550f fa3d d0d9 743d
00000380: 86a5 87bd ba10 47bd 58ed 8b3b 35df acbd
00000390: 2529 333c 5a3f 1cbe 70c5 803d c2e0 1f3d
000003a0: 2a24 f93d b78d 223e d1a7 20bd 671d 90bc
000003b0: ce75 90bc 8113 8b3d 13ca e23d 728a 883c
000003c0: b317 103e 0646 83bd 14d5 75bd 30d2 bf3d
000003d0: 4391 563d a6bc b93c a4a4 49bd db21 8cbb
000003e0: 253f 643d c0e8 b53d 9fc9 ee3c ecc2 adbd
000003f0: 05f0 0abd 0e79 e83c 4c6b 303d ce1e 7d3e
-0.004685647 0.06310961 0.02431661 -0.095255226 -0.22765423 0.017842503 0.041415382 0.02304459
-0.1368909 -0.1093709 0.062233623 -0.026615463 -0.08064513 -0.052611586 -0.110724434 0.011059528
0.05269141 -0.12694491 -0.10985953 -0.12656303 0.10901542 0.03316799 -0.14611283 -0.028853957
0.03171169 -0.09269209 -0.10538762 -0.06634007 -0.016601905 0.045371763 0.037564605 0.008976093
0.011747026 0.03631384 0.024443263 0.057945784 -0.048721142 0.06474695 -0.02062534 -0.014177612
0.0005019278 0.082775876 0.17596322 0.06973108 -0.07769575 0.09811191 0.033317175 0.110069774
0.14679171 -0.16424173 -0.09684728 -0.15083753 -0.060981035 -0.042995006 0.017503219 -0.03300597
-0.073189735 0.0103483815 0.0017819115 -0.002194352 0.014473159 -0.07364301 -0.09443228 -0.12577587
0.054977454 -0.05348186 -0.09344295 -0.10706245 0.02006905 0.1350512 -0.090762965 -0.010622153
0.1852174 0.11859305 0.09016176 -0.010625228 -0.06487572 -0.009678407 0.078861706 0.086708926
-0.023446653 0.007939378 -0.052655578 -0.017560152 0.061270837 0.02001066 -0.105920695 -0.09713065
-0.124499425 -0.021277556 -0.13163418 -0.03007661 -0.16381814 -0.18685928 0.0072185993 -0.056146193
-0.078707136 -0.16358626 -0.05772722 -0.057912275 -0.07751888 -0.066587575 -0.04794512 -0.050946217
0.013087546 -0.06067957 -0.084579304 -0.082022384 0.046912193 0.045104384 0.07813036 -0.036665127
-0.061300807 0.024253212 0.123206235 0.1044161 0.043130234 0.052057378 0.06584405 0.008427768
-0.014379452 0.08118366 0.063745946 0.18343422 -0.06442298 -0.150865 -0.106628135 -0.23919061
-0.2373963 -0.2961199 0.03961527 -0.058914084 0.023837676 0.101593904 -0.089318514 -0.011945268
-0.037691537 0.11816558 0.068706445 0.12632933 -0.0065921345 -0.06522664 0.073817 0.05294244
-0.103023954 0.18067572 0.0013290083 -0.049477357 0.014859845 -0.15039858 -0.05467074 0.0101277875
0.0068402924 -0.040634435 -0.11745966 0.044310402 0.10275989 -0.011612913 0.04370282 -0.050943494
0.15766737 0.03024163 -0.06345384 0.015239353 0.015503271 0.01094211 -0.08568406 0.0068063643
0.03763017 0.10090778 0.01049798 0.020547096 -0.044068504 -0.037240267 0.13762078 -0.021032799
0.07460534 0.039373636 0.033896063 0.12502515 0.012382547 -0.05907187 0.0104136905 0.06339483
-0.077464156 0.07729748 -0.12440018 0.033381075 -0.0467991 -0.16392456 -0.11590333 -0.06978231
0.024121959 -0.16373546 -0.2670742 -0.05411841 0.08356134 0.11845837 -0.060987763 -0.16366434
-0.06544525 -0.076765016 -0.092928864 -0.12046844 -0.16995542 -0.02771011 0.025788032 0.021482034
-0.007245791 -0.16648461 0.048395637 0.07942451 -0.021194357 -0.10113314 -0.10841895 0.08255348
-0.043081142 -0.009502495 -0.005946235 -0.0030002668 0.0755095 -0.00062880217 0.122099556 0.059778035
-0.06623368 -0.048599936 0.004270237 -0.08441011 0.010935103 -0.15258542 0.06287658 0.039032705
0.12165101 0.15874372 -0.039222542 -0.017592145 -0.017634299 0.067908294 0.11073699 0.016667578
0.1407154 -0.0640984 -0.06001766 0.09366262 0.052384626 0.022672962 -0.04922928 -0.004276497
0.05572428 0.08882284 0.029148875 -0.08484444 -0.033920307 0.028378036 0.043071076 0.24718782

conv2.bias f4 [20]
00000000: d8f6 733d 920b 02bd 0243 94bc e277 9fbd
00000010: 4d51 a4bd 072e c8bd 4443 ab3d d47a 61bd
00000020: 73ad b93c 9432 57bc f235 873b 8261 1b3d
00000030: 9895 c83b 7375 173d 6aa0 96bc 358e 0bbd
00000040: 0f59 aa3c 1a96 80ba 1bc8 183d efd0 07bd
0.05956158 -0.031749316 -0.018098358 -0.07786538 -0.080233194 -0.09774404 0.08362439 -0.05504878
0.022665715 -0.013134617 0.004126304 0.037934788 0.0061213486 0.036977243 -0.018387038 -0.034071166
0.02079442 -0.0009810359 0.03730021 -0.03315824

fc1.weight f4 [50, 320]
00000000: d3ca 0b3d ffe9 a23c 3881 ddbb a05b 66bd
00000010: b3e8 893d cba2 88bc 2869 2b3d 5212 023e
00000020: f6da d13d e082 da3d 2074 51bc 747b ca3c
00000030: 61c5 9d3d 2d63 95bc a81a bdbd cf07 3dbe
00000040: 3f81 ab3c e1c8 aa3d bd28 1f3d 4399 c43d
00000050: 29a5 d63d 0b7a 4e3d b658 6f3d 818c 353d
00000060: d70b d3bd c76e 8dbd 36f4 2a3c a47d 29bd
00000070: 1260 d9bc 32f1 48bd d108 b6bc 123f d2bd
00000080: eadf df3a 40f9 4c3c ccb0 c43d 505a 07bc
00000090: d69f 5dbd 106d 9fbd 5b00 7c3d da3f 433c
000000a0: 90bb 5bbd fe14 1dbd dfcc fabc 538b eb3c
000000b0: 4395 47bd 2cd8 d8bc d669 c73d b114 5a3e
000000c0: 9470 903d f71f 173c 0153 333c 1a9b f5bd
000000d0: 46d7 803c 3fb5 b23b 8be9 be3b b76a 90be
000000e0: 1f70 90bb 1226 11be 04f3 77bd a240 943d
000000f0: d884 debd a2f0 313c c3eb 3cbc 9a52 d33d
00000100: d5da f13d 5794 d73b 027c 923d c28b 563d
00000110: f586 ee3d 89d0 4d3d 58d6 bd3b b287 cf3d
00000120: 4cf8 64bc 7572 b0bd 653d 00bd a581 edbc
00000130: d748 2ebe f09c 7ebd fbc8 1abd b3a8 a43b
00000140: f5e2 17bd 1eb2 1cbc 0a8a 8f3d 9f4d 963d
00000150: 388e b8bc 1fed 57bc 671d 5b3d 52f2 a43d
00000160: 348b 433c 9c45 8e3c 81c6 6d3d 8e0f 393d
00000170: c6c3 95bd 2bda 39bd 1cf6 72bc 8598 6ebd
00000180: 5e2e 113d 9e6a 983d 5ae0 433d d54c 4f3d
00000190: 74e8 e83c a333 1c3d d605 303d 2ae3 c3bc
000001a0: 9d9d 243d 17eb 99bb ef96 643c c374 2d3d
000001b0: 727e fd3c 6ee6 27bd 7b11 8fbd 6aae 12be
000001c0: ed4f 9a3d cf8f 873d 777c 5b3d b303 463e
000001d0: bd36 a83d de3e 3b3d fca4 7d3d 8549 fc3a
000001e0: 65c9 b1bd 1633 a0bd c4b8 a9bd 1cb9 9cbd
000001f0: 73e3 5bbd d94f babd 2b22 963b e410 bd3d
00000200: fed5 a23d dbfd 273e fdff 323d 6d06 ecbd
00000210: cf74 503d 2738 ad3d cc53 d4bc 5f04 12bd
00000220: 0df4 95bc 1d09 80bd c5d8 d93c b2b5 153d
00000230: b35d c13d ba52 15bb 14b9 af3c 74e6 bbbd
00000240: c60e 96bd 804a 8cbb 337c 9d3c 4c60 103c
00000250: bd86 a03b fd18 c13b 70d2 0c3d ac94 903d
00000260: 4853 11be 7ec5 9b3a 41bb a2bd 7af0 0f3d
00000270: ddbc aabd f14a ae3c 8c38 b5bd d75e 8c3c
00000280: 9a6a 3e3c 2378 973c 2d10 fc3b 44e4 03bd
00000290: 25d7 353b a17f bd3c 08c7 e9bd 69d2 99bd
000002a0: 63a4 013d 34af 5a3d 58cb 4bbd 106c 833d
000002b0: 9a44 03bd 54e4 2b3d 9446 93bb b7d9 263b
000002c0: d5b4 053d 4d9a d3bc 66aa 4b3d cd5b 1b3c
000002d0: 6a9c f1bc 563a 31be 67bd a0bd 7bc5 a93d
000002e0: 5fde acbd d8e8 7fbd 197a 9e3c 25b9 1f3d
000002f0: 31a6 f1bc 5c91 0dbd 6430 ba3d 58fe 0a3e
00000300: 1cdb 003d 4355 873d 02a6 173d a597 1a3d
00000310: a12e 50bc cab5 e23c 15ee 703d e6c3 2ebb
00000320: bcb3 c23d a2f4 803d f8da 913c 1d66 03be
00000330: 4809 c43d 4f70 1c3d da1e 27bd 5cc8 97bd
00000340: 2021 023c 6254 2b3c 12fa 2bbc 648a d23d
00000350: f843 41bd 0feb f93c 4dd2 78bd 5f85 f23c
00000360: 1605 10bd ca1e 593d 1cdc 0c3e a969 4c3c
00000370: 07bd 333c 8c75 283d 4e8e 173d 306c e3bd
00000380: b1ea 81bc 9bb3 4ebd f837 16bc 309e 2f3d
00000390: ee74 1a3d 2ad0 c2bd 1ffe 23bb 18a3 933c
000003a0: aea6 73bd 98f3 983b 8a55 083d 30ad 40bd
000003b0: c5aa 453d 4352 a93d dea1 d23b a215 9ebd
000003c0: 9e1f 303d d7cb 523d 277a 6e3d e4e3 e3bd
000003d0: c863 c1bc eb5d c33c ff3c 2ebb 3f61 533d
000003e0: b3d1 04bb 734c 90bb 9f6c 5f3d 2b7e fe3b
000003f0: 59c1 d43b dacf 923d 4110 12be 8b3c 2fbe
0.034128975 0.019886969 -0.006759789 -0.056239724 0.06733837 -0.016679188 0.04184833 0.12702301
0.102468416 0.10669494 -0.012784034 0.02471707 0.07703663 -0.018235767 -0.092336 -0.1846001
0.020935653 0.08339096 0.03885721 0.09599545 0.104807205 0.050409358 0.05843421 0.044323448
-0.10304993 -0.06905895 0.010434201 -0.041379586 -0.026535068 -0.049058147 -0.022221 -0.10265936
0.0017080281 0.012510598 0.09604034 -0.008261278 -0.05410751 -0.07784474 0.061523777 0.011917079
-0.05364567 -0.038350098 -0.030615268 0.028752958 -0.04872633 -0.026470266 0.097369835 0.21296956
0.070527226 0.00922393 0.010945083 -0.11992474 0.01572765 0.005453735 0.0058261803 -0.28206417
-0.004407897 -0.14174679 -0.060534492 0.0723889 -0.10865182 0.010860594 -0.011530819 0.103184894
0.11809317 0.006578963 0.07152559 0.052379377 0.11646835 0.050247703 0.005793374 0.10133304
-0.013975214 -0.08615581 -0.03130855 -0.028992483 -0.17019974 -0.062161386 -0.037789326 0.0050249933
-0.037081677 -0.009563951 0.07008751 0.07339024 -0.022528753 -0.013179093 0.053494837 0.080540314
0.011935044 0.017367177 0.058050636 0.04518085 -0.073127314 -0.045374077 -0.014829185 -0.058250923
0.03544461 0.074422106 0.04782138 0.050610382 0.028431155 0.038135182 0.042974316 -0.023912031
0.040189374 -0.0046972143 0.013952001 0.04234768 0.030944083 -0.04099124 -0.06985756 -0.14324346
0.07534776 0.06619226 0.053585496 0.19337349 0.082135655 0.04571425 0.06192492 0.0019247985
-0.08680991 -0.07822244 -0.08287194 -0.07652494 -0.05368371 -0.09097261 0.00458171 0.09231737
0.07950972 0.16405432 0.04370116 -0.11524663 0.050892647 0.08457976 -0.025918864 -0.0356487
-0.018304849 -0.06251738 0.026592622 0.03655023 0.094417 -0.0022784905 0.021450557 -0.09174815
-0.073270366 -0.004281342 0.019224262 0.008812021 0.0048988746 0.0058928714 0.034380376 0.07059607
-0.14191926 0.0011884419 -0.07945872 0.035141446 -0.08336804 0.02127597 -0.08848676 0.017135067
0.0116220955 0.018489903 0.007692358 -0.032200113 0.0027746644 0.023132147 -0.11414915 -0.07510836
0.031650912 0.053389743 -0.04975447 0.06417096 -0.032047845 0.041965798 -0.0044944976 0.0025459358
0.032643158 -0.025830412 0.04972305 0.009482336 -0.02949353 -0.1730741 -0.07848626 0.082896195
-0.084408514 -0.062477916 0.01934533 0.038994927 -0.029498192 -0.034562454 0.09091261 0.13573587
0.03145896 0.06608059 0.03702355 0.037742276 -0.01270643 0.027674574 0.058820803 -0.0026667058
0.09506938 0.0629666 0.017804608 -0.12831922 0.09572083 0.038193043 -0.040800907 -0.074112624
0.007942468 0.01045713 -0.010496633 0.10280302 -0.04718396 0.030507592 -0.060747433 0.029604612
-0.0351611 0.05300788 0.1375584 0.012476363 0.010970361 0.041127726 0.037000947 -0.111046195
-0.01585898 -0.050464254 -0.009168617 0.04287547 0.03770917 -0.095123604 -0.0025023294 0.018022105
-0.05948513 0.0046677105 0.0332847 -0.047040164 0.04825856 0.08267643 0.0064279875 -0.0771897
0.042998902 0.051463928 0.058221962 -0.11127451 -0.02360715 0.023848495 -0.002658665 0.051606413
-0.0020266592 -0.0044036447 0.05454695 0.0077665052 0.0064927754 0.07168551 -0.14264013 -0.17112939

fc1.bias f4 [50]
00000000: 8ad6 d53d 8705 373d b08e 4fbc 50cd 2b3d
00000010: c2c6 793d b3f4 f5bb 1974 e53d d4a6 813d
00000020: 7203 e13d 4400 c23d d0d3 583c ef92 b23c
00000030: 2cd8 fb3d aaef 313e 6b74 8e3d 52dd b2bc
00000040: e6da ac3c e4fa cc3d 5533 1fbd d236 803c
00000050: 528b 8e3d ce14 853d ae37 c53d d317 ce3c
00000060: 2823 253e 3070 053e 27a8 d03c b07f 063e
00000070: 7939 573e 9b47 443e 8f53 dd3d 92a6 493d
00000080: 4277 913d f603 f23c 90cb 393c de7f 8d3d
00000090: 5f60 193e 2cb2 d0bc c7a2 b93d 5280 e53c
000000a0: 5195 c83d ae23 a3bd 9664 78bd 6fb6 573b
000000b0: 4d07 eb3d 54ca 2f3d 84ea 433d 7ae0 a53d
000000c0: ddc1 613c e029 583e
0.10441311 0.044683006 -0.012668297 0.041943848 0.060980566 -0.007505977 0.112037845 0.06330648
0.10986985 0.09472707 0.013234094 0.021798579 0.12297091 0.17376581 0.06955799 -0.02183405
0.021100473 0.10008791 -0.038867313 0.01565114 0.06960167 0.06498109 0.09629761 0.025157845
0.16126692 0.13031077 0.025470806 0.13134646 0.21018018 0.1916794 0.10806953 0.04923112
0.07102825 0.029542904 0.011340037 0.06909154 0.14978169 -0.025475584 0.090642504 0.02801529
0.09794105 -0.0796579 -0.0606428 0.0032915135 0.11476002 0.042917565 0.047831073 0.08099456
0.013779131 0.21109724

fc2.weight f4 [10, 50]
00000000: abb3 c33d b049 a4bc 8557 ac3d 5be3 81be
00000010: dd2f 83bd 0f6c a93d 95fb 55be 4404 83be
00000020: 5431 82be 46e9 83be 83b3 183e aa34 c0bd
00000030: ee83 d43d daf7 62bd 6892 263e 2161 40be
00000040: a1a7 233e f7de 123e 3aa7 babe 6bc3 b2be
00000050: cf93 46be 804c 773d 1723 acbd 773e c13d
00000060: 79a4 85be cef0 83be 02ab a43d d933 5bbe
00000070: c6d1 9b3d 46ef 273e 610f 69be 9134 1b3d
00000080: f959 893d e703 66be 9b0e 32be 7ee2 4ebe
00000090: e2ab bbbe 3c20 edbd f64c 1c3e 65ee 6c3c
000000a0: b929 9ebe 1a6f 65bd 12a8 8ebe 247b 6abe
000000b0: cc9d 06be b037 133e ab69 d73d 03f9 233e
000000c0: 4fda 293d 3cb5 e33d 582a 843d c502 2dbe
000000d0: 6702 f8bd 5fae 96bd 734b 0a3e 6204 c43d
000000e0: e8b4 463e f100 563d 45ef c73d 8353 0b3e
000000f0: 76e4 ebbd ef7b bdbd 61ec 953d e75b 2b3e
00000100: 8b7a 68be dcdb 2ebe 3f52 23be 4190 8c3d
00000110: 2854 6cbe 5e3b 64be f23d 2a3e d67d e73c
00000120: 275d 223e 2f52 82be 9a28 fa3d cca7 bb3d
00000130: d386 84be 5744 353e efa5 363d f86a e13d
00000140: 4097 ca3d 2682 89be 3f53 0fbe cf6a 18be
00000150: 8eb8 e8bd b29f c33d 4146 c03d 5a65 23be
00000160: 7d5d 0bbe d116 8ebe d5ca 103e efbb 25be
00000170: 0662 1abe 2de1 e73d cecb 183e 4a6e 62be
00000180: 29af 21be 7f44 1ebe 3af4 59be fe7f ca3d
00000190: 3976 e03d df33 0b3d 9efd ba3d ad9c 40be
000001a0: 6dbc 0f3e ae07 16be 4e95 433e d2d5 283d
000001b0: f1fc 033e 9e12 1ebd 53f7 123e b0ee 973d
000001c0: 71b8 00be d4b2 923c e58c d7bd 5636 b03d
000001d0: 19e5 193e d8b4 d63d b544 debd 4137 1abe
000001e0: b5d2 d7bc a514 8b3d 1dca b4bd 4ed4 2dbe
000001f0: 00d8 2cbe c86b f33d 664a d53d ed35 2a3e
00000200: bdf8 e3bd 51ee 95bd d4f2 a63d 2d06 97bd
00000210: b6d2 443e 3922 8dbe e380 3abd 1186 fc3d
00000220: 5f8a 80be becf a3bd 28ca 36be c07d 60bd
00000230: f842 64be fd98 993c bf95 f43d f2a6 f63d
00000240: 03d7 94bc fedb 9b3d 909b da3d 445a cabd
00000250: aaf0 7bbe d9db a1bd 80b6 a2bd 66f2 1ebe
00000260: 82f9 b43d b1a6 58be 353d 83be ca73 293e
00000270: 501b 1a3c 53c9 96ba 5e60 013e d844 0c3e
00000280: 10ff e63d 9d59 92bc 03a6 b3bd 5fd8 47be
00000290: f98d 0c3b 1418 873d ed1a 3cbd 2b20 3cbe
000002a0: 95df ce3d 65ed 293d 0245 39be 96e1 473d
000002b0: 5f82 f8bd 325b 2fbe 9392 033e 23eb 033e
000002c0: 1b7e 903d c999 ffbd 0271 c33d db34 8abe
000002d0: c07f 3fbe d62c ab3d d050 0d3e 4553 68bd
000002e0: 7bf7 6dbb cf73 f73d 80a4 ad3d 5c3d 05be
000002f0: b58c 31be 4e11 8b3d 4b81 173d a00f 16be
00000300: e61b 8b3d 741b de3d 30ef 863c 6d06 d0bd
00000310: ff90 d33d c7e0 96be 53f0 babd 64af a43d
00000320: 036c 4abc fe11 583e c48e d73d c0f7 fc3d
00000330: 0d0a 023e e5cd 78be acff 2ebe f70c 2ebe
00000340: 15df 1bbd 1b55 c1bd e090 06be 9ef1 7cbd
00000350: ab53 f9bd 1c01 5b3e 2c6b 85be 0aa0 ce3d
00000360: bdab 273d d232 acbc bd9d 2dbe 6c1f 503d
00000370: 93f9 253e efb4 82be ca54 383e d258 7d3d
00000380: 2167 0cbe 3b1b 43bd 4330 913d cfbe bcbd
00000390: 387c 0fbe feca 2abe ee71 5fbd e103 36be
000003a0: 5641 aabc 9d59 6fbd 6446 253e 37a2 083e
000003b0: bd63 b83d 435e 3f3e af8a 69be 5f45 84bd
000003c0: 31b8 263e f3d1 a53a 23a9 31be a8f3 f63d
000003d0: 3543 03be 388a 49be 1664 b2be 072c 103e
000003e0: 18ce 823d 2566 85be 4cef 2cbe 970a 80bc
000003f0: 39e7 96be 4d58 d9bd 822e 05be fe35 3c3e
0.09555753 -0.020054668 0.084151305 -0.2536877 -0.064056136 0.08272564 -0.20896752 -0.25589192
-0.2542826 -0.2576391 0.14912228 -0.09385045 0.10376726 -0.05541215 0.16266787 -0.18787052
0.15981914 0.14342867 -0.3645571 -0.34914717 -0.19392322 0.06037569 -0.0840513 0.09435742
-0.26102045 -0.25769657 0.0804043 -0.21406497 0.076083705 0.1639987 -0.22759773 0.037891928
0.06706614 -0.22462426 -0.17388384 -0.20203587 -0.36654574 -0.11578414 0.15263733 0.014461135
-0.30891207 -0.056014158 -0.27862602 -0.22898537 -0.13146132 0.14376712 0.105182014 0.16012959
0.04146796 0.11118552 0.06453389 -0.16895588 -0.12109833 -0.073574774 0.13505344 0.095711485
0.19404948 0.05224699 0.09762434 0.13606076 -0.11518185 -0.09252154 0.07320476 0.16734277
-0.22702996 -0.17076057 -0.15949343 0.06863452 -0.23078978 -0.22288272 0.16625193 0.028258245
0.15855847 -0.25453326 0.122147754 0.09162864 -0.25884113 0.17701851 0.04459184 0.11006731
0.0989213 -0.26857108 -0.139966 -0.14884494 -0.11363326 0.09551944 0.093884 -0.15956631
-0.13609882 -0.27751783 0.14139874 -0.16184972 -0.15076455 0.11322246 0.14921495 -0.22112384
-0.15789475 -0.15455817 -0.21284571 0.09887694 0.10960049 0.033985015 0.09130405 -0.18809767
0.14036722 -0.14651367 0.19099924 0.04121954 0.12889458 -0.038591973 0.14352159 0.07418573
-0.12570359 0.017907538 -0.105249204 0.08604114 0.150288 0.10483712 -0.108529486 -0.1506014
-0.02634559 0.06791047 -0.088276125 -0.16975519 -0.16879272 0.11885792 0.10414581 0.16622134
-0.111314274 -0.07320846 0.081517845 -0.07374225 0.19221005 -0.27565172 -0.045533072 0.12330259
-0.2510557 -0.07998608 -0.17850554 -0.054807425 -0.22291172 0.018749708 0.11942624 0.12043561
-0.018168932 0.076103196 0.106742024 -0.09880498 -0.24603525 -0.07903261 -0.07944965 -0.15522155
0.08836652 -0.21157338 -0.25632635 0.16548076 0.009405926 -0.0011504091 0.12634417 0.13698137
0.11279118 -0.017864997 -0.087718986 -0.19516133 0.0021446927 0.065963894 -0.045924116 -0.18371646
0.10101239 0.041486163 -0.1809273 0.04879912 -0.12134241 -0.17124632 0.12848882 0.12882666
0.07055303 -0.12480504 0.09543039 -0.2699345 -0.18701077 0.08358161 0.13800359 -0.056720037
-0.003631084 0.120826356 0.084786415 -0.13011688 -0.17338832 0.0679041 0.036988538 -0.14654398
0.067924306 0.1084508 0.016471475 -0.101574756 0.1033039 -0.29468367 -0.091278695 0.080412656
-0.012354854 0.21100613 0.10525277 0.12351942 0.12699147 -0.24297293 -0.17089719 -0.16997133
-0.038054544 -0.09440061 -0.13141203 -0.06175386 -0.121741615 0.21387142 -0.26058328 0.10089119
0.040935267 -0.021020327 -0.16954704 0.050811216 0.16208486 -0.25528666 0.18001094 0.061852284
-0.13711216 -0.04763339 0.07089283 -0.09216081 -0.1401223 -0.16678998 -0.05455201 -0.17774917
-0.020783108 -0.05843507 0.16140133 0.1334313 0.090033986 0.18688302 -0.2280681 -0.06458544
0.16281201 0.0012651071 -0.17349677 0.120581925 -0.12818606 -0.19681633 -0.34841985 0.14079295
0.063869655 -0.26054493 -0.1688816 -0.01563005 -0.29473284 -0.10612545 -0.13006023 0.18379971

fc2.bias f4 [10]
00000000: beea 1a3e 0f0c 963e aa9c 4abd 8ecc 52be
00000010: 4bfb 03bc d169 7b3d 3e0f f8bc 62ca 31bd
00000020: 4411 7d3e 8f00 df3c
0.1512861 0.29306075 -0.049465813 -0.20585844 -0.008055518 0.06138021 -0.030280706 -0.043405898
0.24713618 0.027221946

exp_avg f4 [10, 1, 5, 5]
00000000: b92a 47bc 0d17 6cbc 1ec8 95bc 6202 8cbc
00000010: f06d 6fbc db94 17bc 0a35 4bbc 1678 88bc
00000020: 3059 39bc 16a1 a9bb 4355 cdbb afc7 edbb
00000030: 6d55 17bc 34ce 1dbb 51ea f63a a60d 8bbb
00000040: 2a8a 33bb f033 b93a 0e64 c63b 2040 023c
00000050: cb11 1aba 7548 273b ef43 773a 4eb2 9a3b
00000060: 9a24 943b a56e fe3b ba4e 013c 6629 d83b
00000070: 3665 343b e55b 02bb 82c5 0f3c fcec 023c
00000080: b288 933b d004 8939 d8a9 b5bb 565b 013c
00000090: 19a4 c63b 5fe9 cbb9 a706 aabb 8639 bbbb
000000a0: 5f12 a93b 06a0 513a ee3a 61bb 62c1 bebb
000000b0: 4d7b 44bb 158e 013b 4d5c 05bb 4d8d b5bb
000000c0: 4f35 73bb 1b65 fd39 4757 9bb8 c812 9dba
000000d0: 7eeb c1bb 8a60 febb 219b f7ba 3531 9d3a
000000e0: b8ad f3ba 47c4 9abb 90fb 8cbb 6ded 1d3b
000000f0: 9f57 46ba 8e74 4abb a051 d2bb bf7e 1dba
00000100: f987 0c3b 22b8 3eba f018 97bb 8e73 feba
00000110: 2b9f 353b f176 9d3b 7513 ebba d2c0 35b9
00000120: 55c0 993b 4444 c73b a075 9f3b 46f6 0d3c
00000130: 213f 203c 9b7f 443c 7fb5 523c 6047 5d3c
00000140: d806 163c c5dc 0c3c 6f48 293c 4b25 203c
00000150: 0d92 043c 6c14 0d3c da96 d23b 992c 0e3c
00000160: 593a fa3b 5afe 013c db2d f43b 3a0b f43b
00000170: 6d3f 123c aa32 0d3c adaf 123c 7e6e b63b
00000180: f17e d63b dad4 ed3b 9d37 003c 72b4 093c
00000190: ad0b e93b b128 0e3c 0d6d 313c 661a cd3b
000001a0: cfdb 8bba eb2b e53b cde2 f83b 68c8 aa3b
000001b0: 8cdd 1539 e1a9 7abb 7279 c23b 375e 573b
000001c0: 931f 89bb 4b5b 9cbb bc87 f0ba b070 543a
000001d0: 1db5 eabb ed6c 1cbc ca26 38bb 820f bc3b
000001e0: 19c9 66ba 8948 ffbb cc3b 06bc 7a0e b23a
000001f0: a7a2 3b3c 3369 533b 0523 433a a8fa 62bb
00000200: dfc5 8ebb f59a 18bb 7d18 173b 5745 22bb
00000210: 2b7b 97bb 59bb 15bb b940 0b3a 291a 5abb
00000220: 40c5 14bc bdde e8bb 922a 06bb 19d2 7038
00000230: 38ca f0bb 2da6 18bc e35c d8bb 06f2 edba
00000240: 2b7b 96ba 39db 08bc fc2a fabb ac07 96bb
00000250: 54e3 89bb d1c5 b8ba 3d4a 0ebc 1f3d ddbb
00000260: 0a99 cbbb 454e 1bbb 4cef 75ba e99b b6bb
00000270: 5812 8bbb e426 30bb 8ef4 c2b8 cd09 8e3a
00000280: 1dc2 91ba 20a1 fc39 db94 c93a 00ce 223b
00000290: defa 96ba 831d 113b c10d f73b 0abf ed3b
000002a0: 8dc7 853b 4b24 56ba 6b0e 093b 2103 bd3b
000002b0: b885 193b f9c0 11bb f5fc e0bb 5117 693a
000002c0: b78b 9d3a 27cd 403b 850d 5f3b 69ba 333b
000002d0: 211a f739 0f74 293b 5a92 843b 3b31 183b
000002e0: be9d b83a 2b1f 083a e23d dc3a 2eaf 1c3b
000002f0: 10e9 ba3a 72c8 353a 8376 903b 95f1 7c3b
00000300: 403d 733b 655b 4a3b 05cb 633b 3d6b 5d3b
00000310: a1e5 123b 16c7 83ba 998a ceba fb38 793a
00000320: 4673 f6bb c76a 1bbc 4692 1fbc dd60 26bc
00000330: ae38 e6bb 123f 5fbb 701b b0bb db96 a7bb
00000340: 56f5 9039 58d9 563b 68ca 3dbb 79c9 58ba
00000350: 4bb8 2e3b 94f8 083c 4df2 0d3c c070 3d3a
00000360: d8f4 663b eef9 613b d1c1 f93b 7b17 2d3b
00000370: 81ae 1db9 4323 1c3a fcfd ea38 f91f a23a
00000380: 9ae9 1ebb bb45 0ebc 61e7 3ebc 319e 11bc
00000390: 11e3 39bb ce7d 60ba 51d8 8fbb 6226 b1bb
000003a0: a10d b7ba b860 7b3b 6045 8b3b 45b8 c4ba
000003b0: aaaa 8d3a 4b61 893b 5a84 ee3b c950 e73b
000003c0: c49e d13a 6558 c33b 541c 103c e922 233c
000003d0: 6a9a f13b c095 303b 55fa a73b f53b d13b
000003e0: e5f6 dd3b 166f bb3b
-0.012156182 -0.014409793 -0.0182839 -0.01709098 -0.0146136135 -0.0092517985 -0.012402782 -0.016658824
-0.011312768 -0.0051766736 -0.0062662675 -0.00725647 -0.009236676 -0.0024079205 0.0018838142 -0.0042435704
-0.0027395585 0.0014129858 0.006054408 0.007949859 -0.0005877285 0.0025525365 0.0009432425 0.0047209626
0.004520965 0.0077646547 0.007892305 0.006596732 0.0027526147 -0.00198912 0.008775117 0.007991072
0.0045023793 0.00026134262 -0.0055439286 0.007895311 0.0060620424 -0.00038893052 -0.0051887813 -0.0057136444
0.0051596607 0.00079965626 -0.00343674 -0.005821393 -0.002998072 0.0019768525 -0.0020349205 -0.005540526
-0.0037110632 0.0004833125 -7.4072326e-05 -0.0011983747 -0.0059179654 -0.007762973 -0.0018890837 0.0011992814
-0.0018591201 -0.004723105 -0.0043024495 0.0024097816 -0.0007566157 -0.0030892226 -0.006418422 -0.00060079613
0.002144335 -0.0007275363 -0.004611127 -0.00194131 0.002771328 0.0048054387 -0.0017934876 -0.00017333336
0.004692117 0.006081136 0.004866317 0.008664673 0.009780676 0.011993314 0.012860655 0.013505787
0.009156905 0.008597557 0.010332211 0.009774516 0.008091462 0.008610826 0.0064266743 0.008677625
0.00763635 0.007934177 0.0074517555 0.0074476274 0.008926255 0.008618036 0.008953017 0.005567371
0.0065458943 0.00725804 0.007825759 0.008404838 0.0071119876 0.008676694 0.010829222 0.0062592505
-0.0010670366 0.006993761 0.007595396 0.0052118786 0.0001429228 -0.0038248228 0.0059348876 0.0032862553
-0.004184672 -0.004771625 -0.0018350999 0.000810395 -0.0071627037 -0.009547454 -0.0028099292 0.0057391534
-0.00088037696 -0.0077906293 -0.008192968 0.0013584637 0.011452354 0.0032258749 0.0007443878 -0.0034634266
-0.004357084 -0.002328572 0.0023055368 -0.0024760568 -0.004622837 -0.0022847264 0.00053120736 -0.0033279753
-0.009080231 -0.0071066306 -0.0020472151 5.7416128e-05 -0.007348325 -0.009316963 -0.00660287 -0.0018153794
-0.0011480799 -0.008353048 -0.0076345187 -0.0045785513 -0.004208008 -0.001409704 -0.008684692 -0.006751671
-0.006213312 -0.0023697775 -0.00093816663 -0.005572785 -0.00424413 -0.002687865 -9.296193e-05 0.0010836661
-0.0011120472 0.00048185233 0.0015379445 0.0024842024 -0.0011518856 0.0022142834 0.0075394814 0.0072554396
0.004082626 -0.000816886 0.0020913135 0.0057681953 0.002342565 -0.0022240265 -0.0068660923 0.0008891719
0.0012019788 0.0029419155 0.0034035158 0.0027424342 0.0004713098 0.002585653 0.004045767 0.0023222703
0.0014085097 0.00051926327 0.001680311 0.0023908126 0.0014260132 0.0006934471 0.004408659 0.0038596143
0.0037115365 0.003087723 0.003475846 0.0033785843 0.0022414702 -0.0010053839 -0.0015757858 0.0009507087
-0.007521066 -0.009485907 -0.009739464 -0.01015493 -0.0070257997 -0.0034064692 -0.0053743646 -0.005114419
0.0002764861 0.0032783356 -0.0028959755 -0.0008269768 0.002666014 0.008360047 0.008663726 0.0007226579
0.0035241153 0.0034481245 0.0076219817 0.00264117 -0.00015037695 0.0005956182 0.00011205298 0.0012369148
-0.0024248124 -0.008683617 -0.011651845 -0.008887813 -0.0028364102 -0.0008563668 -0.0043898006 -0.005406187
-0.0013965854 0.003835721 0.0042502135 -0.001500853 0.0010808308 0.0041925064 0.007278961 0.007059191
0.001599275 0.005961465 0.008795816 0.009957054 0.007373144 0.0026944727 0.0051262775 0.0063853213
0.006773817 0.0057200296

exp_avg_sq f4 [10, 1, 5, 5]
00000000: d398 db3a ff1d c63a bd3d 963a 0cf4 7f3a
00000010: ed74 653a d199 ba3a 7cfc 9d3a 778e 703a
00000020: 084f 573a 272f 313a 4219 923a d9fa 673a
00000030: 0c86 253a 3f0b 063a 97e1 153a c727 593a
00000040: 0528 223a f360 063a abfd 2d3a 381e 683a
00000050: 4a02 2c3a 8f42 043a ee4e 363a 348a 8d3a
00000060: a9a8 6b3a e1d4 cf39 c892 b039 62c7 8e39
00000070: fa40 6439 90d0 8239 6044 c239 2265 a739
00000080: 28f6 7a39 3091 4239 c9a0 7439 48ed b839
00000090: 69ac 9f39 a349 6b39 dabd 5739 938c 5839
000000a0: 765e b939 e8cb a939 66f9 8a39 9575 7039
000000b0: 488b 5a39 7ed2 b739 4a77 a339 2564 8a39
000000c0: be02 7f39 fa3f 6539 1634 9b39 f339 a639
000000d0: aad4 bc39 2369 ca39 77bb ba39 7901 8d39
000000e0: 6094 a139 14c9 b839 a9a5 b939 a73b b439
000000f0: ed98 9339 482d a739 ae27 aa39 b640 b439
00000100: 7f6c b239 3c66 ac39 6809 b339 59d5 b839
00000110: ee31 ba39 1229 bb39 b5c3 dc39 545f d739
00000120: a43a c939 c815 bd39 6749 c039 e136 203a
00000130: ee69 183a 71c4 133a cab0 143a fa2e 1c3a
00000140: b277 0a3a e5f0 f739 0abb ec39 e165 ee39
00000150: b54f 013a 64ab e739 1168 ce39 8aa9 c939
00000160: 6eef d339 ed9a ea39 8d86 c839 0afe bf39
00000170: 7aec c839 686c d839 4955 d839 f584 d739
00000180: 68e4 d039 87b9 dd39 44bd db39 a941 d839
00000190: f531 3e3a d211 263a 544b 003a 3301 c039
000001a0: c688 c539 8a5c 2e3a 4e87 fa39 9ba4 9c39
000001b0: 7a69 b539 ee65 c239 c2a3 153a d7d1 ad39
000001c0: e3c0 a439 20f7 f139 f1e5 af39 7940 f539
000001d0: f825 b239 4341 e639 2182 ed39 fe81 9839
000001e0: 09fd d039 87f5 cb39 f427 dd39 2fb5 b539
000001f0: 7fac a439 e4cc a039 01ad 8f39 5013 7f39
00000200: 9d6a 8239 39ef 9039 dd90 b039 528c 8a39
00000210: 9a72 6b39 8c36 5839 8d36 7739 77f5 a039
00000220: ea39 8139 b2cc 7639 1a81 7639 a88f 8639
00000230: 8b77 a339 0b8b 9539 e450 8d39 0d91 9139
00000240: 4ea5 9939 5626 ab39 815f ac39 0715 a539
00000250: 3119 9b39 9e1b a539 628c 3e3a 867a 1d3a
00000260: 146b 023a 64f5 f039 8321 e339 a5b1 223a
00000270: c4e9 003a 4058 e539 d490 d939 7cb9 e239
00000280: f838 073a 0c4a f339 3b70 f039 f7dd 003a
00000290: b0a7 073a 84b5 e139 6b54 f339 8065 133a
000002a0: 7509 103a d24e 073a e415 d339 4a19 fd39
000002b0: e898 023a 373b e239 3cd8 e239 3723 8e39
000002c0: 983b 8039 0d8e 8539 121a 9839 4dbd bc39
000002d0: 645b 8639 aa48 7839 3d35 8339 a03d 9839
000002e0: e690 d039 a0be 9d39 4c5e 9339 0122 9439
000002f0: ef9b b639 848f e339 350b b439 230f c039
00000300: 81c9 d439 c33e e039 8d1a e439 88ba b239
00000310: e3ed b839 c33a bc39 e446 c239 5859 c139
00000320: 99e0 4e3a 9c1f 5a3a d16c 643a 87aa 503a
00000330: ead6 213a 99e2 463a 959a 333a e1a9 243a
00000340: 94ef 0b3a 7972 f139 855a 253a 89df 053a
00000350: 7754 f539 ef0d f639 9752 073a 2ef8 103a
00000360: d41c fd39 0bbf f139 44b3 e039 cecf 053a
00000370: 3062 113a c93e 013a a75c f139 8eaa d639
00000380: 2903 f539 f92f f439 ecae 133a da62 1e3a
00000390: 9af8 053a 77b6 e639 c6ef ce39 6675 ea39
000003a0: 8e4b f439 2e23 e139 9fa4 db39 3803 c639
000003b0: 927c df39 54c6 e539 26ae f239 3083 023a
000003c0: 2e6e cb39 f5d9 e939 4e81 f739 10d4 023a
000003d0: 0f7a 023a 6205 d639 af14 e739 3e88 f039
000003e0: a84e f139 8ff3 ef39
0.0016753919 0.0015115141 0.0011462491 0.0009763844 0.000875308 0.0014236515 0.0012053396 0.00091765024
0.00082133757 0.00067590404 0.0011146443 0.000884933 0.0006314225 0.000511337 0.00057175144 0.00082838204
0.0006185773 0.0005126141 0.0006637226 0.00088546006 0.00065616204 0.00050453184 0.00069545105 0.0010798634
0.0008989671 0.00039640724 0.00033678696 0.00027232902 0.0002176798 0.00024950923 0.00037053507 0.00031928072
0.00023933558 0.00018555368 0.0002332955 0.00035272003 0.000304553 0.00022438778 0.00020574723 0.00020651733
0.0003535633 0.00032386114 0.00026507227 0.00022931986 0.00020841986 0.0003506131 0.0003117866 0.00026396025
0.00024319717 0.00021862975 0.0002960271 0.00031705163 0.000360166 0.00038606775 0.00035616357 0.00026894713
0.0003081886 0.0003524503 0.00035409376 0.0003437672 0.00028151963 0.0003188646 0.0003245449 0.0003438049
0.00034031642 0.00032882567 0.0003414855 0.0003525417 0.00035513885 0.0003569802 0.00042107483 0.0004107902
0.00038381398 0.00036065117 0.00036675783 0.0006111693 0.00058141246 0.0005636877 0.00056720956 0.0005957928
0.0005282118 0.00047290992 0.00045152783 0.00045470803 0.0004932837 0.0004418745 0.00039368917 0.00038464024
0.00040423445 0.00044747387 0.0003824722 0.00036619633 0.0003832316 0.000412795 0.00041262273 0.00041107056
0.00039843027 0.00042290633 0.0004191195 0.0004124765 0.0007255369 0.0006335053 0.0004894037 0.00036621987
0.00037676672 0.00066513626 0.00047784526 0.0002987728 0.00034601596 0.00037078507 0.0005708301 0.00033153474
0.0003142423 0.00046151225 0.0003354992 0.00046778077 0.00033979095 0.00043917642 0.00045301116 0.0002908855
0.00039861377 0.0003890211 0.00042182172 0.00034658003 0.00031409037 0.00030670234 0.00027403983 0.0002432589
0.00024874965 0.00027644055 0.00033677267 0.00026425958 0.00022454039 0.00020619686 0.00023576077 0.00030700464
0.00024647947 0.00023536643 0.00023508482 0.00025665504 0.0003117885 0.0002852309 0.00026953884 0.00027764626
0.00029305596 0.00032644224 0.00032877552 0.0003148692 0.00029582673 0.0003149183 0.00072688435 0.0006007332
0.00049750623 0.00045959197 0.00043321782 0.00062062807 0.00049176463 0.00043744035 0.0004149737 0.00043244276
0.00051583303 0.0004640374 0.00045859985 0.0004915888 0.00051748287 0.00043050584 0.00046411468 0.00056227297
0.0005494573 0.00051615865 0.00040261366 0.00048274762 0.0004981891 0.00043150198 0.00043267186 0.00027110588
0.00024458463 0.00025473573 0.00029011123 0.00035999194 0.00025626563 0.00023678193 0.00025025933 0.00029037613
0.0003978081 0.000300874 0.00028108282 0.00028254095 0.00034829925 0.0004340374 0.00034340625 0.00036632371
0.00040585923 0.0004277137 0.0004350733 0.00034089782 0.00035272454 0.00035901935 0.0003705538 0.00036878395
0.0007891744 0.000832075 0.00087137247 0.0007959981 0.0006173687 0.0007586866 0.00068513426 0.00062814174
0.0005338129 0.0004605239 0.0006307739 0.00051068567 0.00046792973 0.00046931158 0.0005162148 0.0005530146
0.000482774 0.0004610944 0.00042858173 0.00051045127 0.0005545942 0.0004930315 0.00046036133 0.00040944334
0.00046732396 0.0004657505 0.00056336704 0.0006041952 0.0005110592 0.00044004965 0.00039470027 0.00044719427
0.000465956 0.00042941555 0.00041893587 0.000377679 0.00042626687 0.0004382605 0.00046287588 0.0004978655
0.00038801268 0.00044603614 0.0004720785 0.0004990706 0.00049772946 0.0004082127 0.00044075164 0.00045877876
0.00046025706 0.00045767098

exp_avg f4 [10]
00000000: 3568 8c3c ee7e ecbb 450d a5bb a162 c0bb
00000010: caa2 f9bb 5875 d43b 87f5 0b3c a472 423a
00000020: d3d6 213c 18bb 88bb
0.017139534 -0.0072172796 -0.0050369822 -0.0058711325 -0.007618283 0.006483715 0.008542425 0.00074175955
0.009877878 -0.004172694

exp_avg_sq f4 [10]
00000000: 110c d53a cc28 aa39 5464 c339 452c 093a
00000010: b964 753a 4952 9639 23b4 113a a30d 8e39
00000020: 8303 5f3a fdb0 b439
0.0016254206 0.00032455323 0.0003726805 0.0005232732 0.0009361017 0.00028671537 0.00055581535 0.0002709451
0.0008507298 0.00034464142

exp_avg f4 [20, 10, 5, 5]
00000000: 30fc 123a 56b5 f23a 487c 21bb a87a 82bb
00000010: c5c9 85ba d9d1 57bb 1ea6 59bb 700a 4abb
00000020: d3b8 4dbb 9def 82bb 367d 01bb 3474 49bb
00000030: 012c e7ba d82b 3fbb 06c7 58bb 11c7 5c39
00000040: 99cc bfb9 9e9c 98ba d460 d1b8 e965 3fba
00000050: d0e7 45bb 87fc 02bb 8ef7 58ba 5a6d 6e3a
00000060: c7c1 9a3a 809b 3cba a255 9539 d695 f3b9
00000070: ad89 4dbb 5872 5fbb b9dc 343a 988b b0ba
00000080: a877 b5bb 7452 21bb ed32 a339 ff8b f2b9
00000090: 9e48 59bb afdc a0bb 6bac 78bb 6659 68ba
000000a0: c43a c5ba 2b00 87bb bd43 8abb 6798 80bb
000000b0: 8cd3 70ba f5f0 11bb f454 82bb dcb0 57bb
000000c0: 9348 78bb 5257 0aba 9fb4 4dba 9205 9aba
000000d0: f206 6139 e4f2 0db9 9b9b b9ba e543 ecba
000000e0: f41b 25b9 82d9 7a3a ba3d bdba bc12 7fbb
000000f0: 8457 19b7 c641 7f3a 256b 33ba 92c3 77bb
00000100: 3945 96bb bc39 0c39 9e62 3838 3773 abba
00000110: 891c 89bb 6ae9 cfbb f161 3539 8934 bbba
00000120: 0cad 8bbb 8211 d8bb 551f cfbb 40cf 9aba
00000130: 36c7 06bb c474 d7ba d88b 5db8 91b6 5dba
00000140: 9dae faba 3fde c8ba c66a 45ba 5fc8 62b9
00000150: 46a6 a2ba db11 09bb 7cd1 afba 897e 3aba
00000160: 3add c6ba 3538 c3ba 119e 0cbb 27c2 a9ba
00000170: 8a58 ccba d07e b3ba f5df cfba 51ec 5aba
00000180: bd5e 9eba dc1f ffba 3325 52bb 35cf 66bb
00000190: e947 0dba 2bad fd39 454e d2b9 f068 8bbb
000001a0: 660a a1bb d367 be3a 78de ce39 0e9e a6bb
000001b0: aa2b 99bb 195e e1ba 6479 003a 5bc1 33bb
000001c0: 5008 d3bb 2f59 c2bb 269e 4eba b03f beba
000001d0: f192 83bb 00a5 84bb 1df4 91bb bf7d 05bb
000001e0: e41d 04bb f818 86bb 92e0 a6bb 62ef 79bb
000001f0: 18bf 3dba 710f 653a c7b2 c139 69f3 1bba
00000200: 876a 6aba bafc cab9 627b 613a d8a8 4938
00000210: ab3a 0abb a53a 80bb 966d 02bb c4b3 1b39
00000220: 1900 73ba 58f6 1bbb 38ce c6bb d927 2dbb
00000230: 870e 69ba 425c 3bbb 697a 30bb 1b08 76bb
00000240: b28c e6ba caa6 b5ba ee5d 82ba f2ef 48bb
00000250: 5cbf 1eba 72e4 06bb 3af7 19b9 9c8c 8039
00000260: d659 20ba 6923 52bb 80ce c5ba 12c8 70ba
00000270: 54bd c8ba 7d96 11bb a5d3 c3ba a813 10bb
00000280: 9d07 bcba 6444 21bb 6408 aaba acc7 dfba
00000290: 4732 69bb 78c9 adb9 704d 06ba bd49 6dba
000002a0: 1059 dfba 9dbd 0fbb 088b b2ba 5413 bf39
000002b0: 175e 34ba 82f5 90ba 4654 9439 98b8 0ab8
000002c0: b456 30ba bf3f c0bb 6a63 a4bb 5611 8fba
000002d0: 5a1e beba 9113 99bb 5966 e0bb 40b5 8cbb
000002e0: 3c0d 15b7 61bb 17bb 001d babb 0c7b afbb
000002f0: 0c05 31bb 8780 91ba 390f 86ba 0921 2cbb
00000300: 8e4e 46bb 6f96 40bb d18f 0d38 1687 5abb
00000310: b425 75bb 3047 0ebb b6d1 e0b9 2244 b239
00000320: 6714 40ba 6136 8dba d23c adba 1642 cdba
00000330: 205a f0ba b684 49ba 0ef6 13ba 8801 4fbb
00000340: 7eff 5cbb 1135 ebba f865 b6ba 9b3c e3ba
00000350: bd72 13bb a885 68bb 8bfb c0ba 6ecb cab9
00000360: e833 07bb 34cb 2ebb b516 7fbb 01f8 d7ba
00000370: fdb5 d2ba e053 e2ba 3664 9db9 238d 3fba
00000380: 6ca6 ccba f723 6238 8aca f939 aa6a 0439
00000390: 996d d1ba 7d92 71ba f134 53ba fa6b d9b9
000003a0: 84cb 1e3a f9e9 43bb c0dd 89bb 74dc 3ab9
000003b0: ba1d 2eb9 f6a6 7eba f45a 78bb 1e36 9dbb
000003c0: 83df 8639 7f8f 9839 6a86 9bba 88b5 ceba
000003d0: 91bf 97bb fd5a 9ab9 baf5 d638 e483 97ba
000003e0: 23d1 9a38 864a bdba 90e1 243a 6606 c439
000003f0: a7ad 0b3a 3069 cd3a 9cfc 073b c9fb 02ba
0.0005607037 0.0018517177 -0.0024640728 -0.003981907 -0.0010207227 -0.0032931475 -0.0033210586 -0.0030828975
-0.0031390681 -0.0039958493 -0.001975847 -0.0030739428 -0.0017637016 -0.002917042 -0.0033077612 0.00021054993
-0.00036582796 -0.0011643355 -9.983932e-05 -0.00073012576 -0.0030197985 -0.0019986944 -0.00082766346 0.0009095274
0.0011807018 -0.0007194802 0.00028483296 -0.00046460208 -0.0031362579 -0.0034095254 0.00068993453 -0.0013469337
-0.005537946 -0.0024615796 0.00031127725 -0.00046262142 -0.0033154855 -0.00490912 -0.0037944566 -0.0008863419
-0.0015047421 -0.004119893 -0.004219501 -0.003924418 -0.00091867964 -0.0022268866 -0.0039774124 -0.0032911813
-0.0037885054 -0.0005277294 -0.0007847044 -0.0011750928 0.0002146026 -0.00013537292 -0.0014160754 -0.0018025605
-0.0001574604 0.00095691544 -0.0014437952 -0.0038921079 -9.139887e-06 0.0009737279 -0.0006844274 -0.0037805778
-0.0045858887 0.00013372948 4.3960863e-05 -0.0013080601 -0.00418431 -0.006344964 0.00017297991 -0.0014282624
-0.004262572 -0.006593884 -0.0063208737 -0.0011811033 -0.0020565516 -0.0016437997 -5.2820746e-05 -0.00084576855
-0.0019125525 -0.0015325024 -0.0007530864 -0.00021627684 -0.0012409172 -0.0020915184 -0.0013413872 -0.0007114192
-0.0015172132 -0.001489407 -0.002145652 -0.0012951539 -0.0015590352 -0.0013694409 -0.0015859591 -0.0008351254
-0.0012082678 -0.0019464451 -0.003206563 -0.003521872 -0.00053894386 0.0004838494 -0.00040112637 -0.004254453
-0.0049145697 0.0014526792 0.00039457134 -0.0050847596 -0.0046743946 -0.0017194181 0.0004900901 -0.0027428481
-0.0064402 -0.0059310417 -0.00078818423 -0.001451483 -0.0040153195 -0.00404799 -0.0044541494 -0.002036914
-0.0020159418 -0.004092332 -0.005092689 -0.0038137068 -0.0007238253 0.00087379577 0.00036945028 -0.00059490517
-0.00089422654 -0.00038716738 0.00086014543 4.8079382e-05 -0.0021092098 -0.003913241 -0.0019901744 0.0001484892
-0.0009269729 -0.0023797955 -0.0060670637 -0.0026421456 -0.00088904094 -0.0028588925 -0.002692843 -0.0037541452
-0.0017589538 -0.0013858911 -0.0009946206 -0.0030660597 -0.00060557364 -0.0020582941 -0.00014683316 0.00024518825
-0.0006116902 -0.0032064563 -0.0015091449 -0.0009185086 -0.0015315213 -0.0022214942 -0.0014940394 -0.0021984372
-0.0014345531 -0.0024607414 -0.0012972471 -0.0017073057 -0.0035582946 -0.00033147237 -0.00051232334 -0.00090518204
-0.0017040092 -0.0021933087 -0.0013621757 0.0003644476 -0.00068804756 -0.0011059495 0.00028291548 -3.307368e-05
-0.0006726787 -0.005866974 -0.005016734 -0.0010915201 -0.0014504895 -0.004671522 -0.0068481383 -0.0042940676
-8.884173e-06 -0.0023152458 -0.0056797266 -0.0053552445 -0.0027011065 -0.0011100926 -0.0010227925 -0.0026264808
-0.0030259225 -0.002938654 3.375096e-05 -0.0033344678 -0.0037406506 -0.0021709912 -0.00042880856 0.0003400157
-0.0007327259 -0.0010773652 -0.0013216978 -0.0015659954 -0.0018337406 -0.0007687317 -0.000564427 -0.0031586606
-0.003372162 -0.0017944892 -0.0013915887 -0.0017336787 -0.002249881 -0.0035480056 -0.0014723403 -0.0003868001
-0.0020630304 -0.0026671411 -0.0038923447 -0.0016477109 -0.0016075965 -0.0017267428 -0.00030020037 -0.0007307103
-0.0015613562 5.3916094e-05 0.00047643884 0.00012628236 -0.0015978097 -0.0009215249 -0.00080569 -0.00041469914
0.0006057548 -0.0029894097 -0.004207343 -0.00017820467 -0.00016605007 -0.000971421 -0.003789601 -0.004797711
0.00025725 0.00029098612 -0.001186562 -0.0015770653 -0.004630991 -0.0002944096 0.00010250085 -0.0011559692
7.382247e-05 -0.0014441765 0.0006289715 0.000373888 0.00053283054 0.0015671607 0.0020749932 -0.00049966254
